tau_data/seed0/SAC_STL_actor_600000.pth (torch, 275779 bytes, 6 tensors)

net.0.weight f4 [256, 5]
000000 df 54 65 3b 3e 5e 57 3d dd 7f 13 bf cb 15 3d bf
       0.0034993214 0.05258011 -0.5761698 -0.7386138
000010 38 50 42 be e9 0c 4d 3e 61 77 b9 be ad c1 57 3c
       -0.18975914 0.20024456 -0.3622389 0.0131687345
000020 af b4 a1 3f 13 aa 5f 3e db 33 ea bd e9 fc fd 3e
       1.2633265 0.21842222 -0.11435672 0.49607018
000030 5c 1f f8 bc ae 29 99 be b1 9f 3c 3d c3 94 8e 3c
       -0.03028839 -0.29914612 0.04605073 0.01740492
000040 94 2a e0 be 2c 02 26 be 86 fb a7 bf a7 e7 c6 3d
       -0.43782485 -0.16211766 -1.3123634 0.09712153
000050 0c 44 2d 3e 06 bb 0b bd bf eb 0e be 54 e9 07 be
       0.16920489 -0.034113906 -0.13957117 -0.13272601
000060 f8 42 07 be 1b 76 ca be 39 d2 32 3f 0a 6e 45 be
       -0.1320914 -0.39543232 0.69852024 -0.19280258
000070 44 dd 7f bd 9f 26 94 be e5 b6 7a be 9c 76 d0 3d
       -0.062466875 -0.28935716 -0.24483831 0.10178873
000080 16 50 17 bf b3 e1 12 3f b4 9a 55 3f ba 79 19 bd
       -0.59106576 0.5737564 0.83439183 -0.037469603
000090 6c 65 e5 3e 08 41 98 3e 89 2e 7c 3f 88 e3 c3 3f
       0.4480394 0.29737115 0.98508507 1.5303812
0000a0 87 62 09 bf 07 95 03 3e 99 78 d1 3e 88 27 ec be
       -0.53665966 0.12849818 0.4091232 -0.4612391
0000b0 95 6f e7 3e 10 d9 10 3e c5 75 0d 3e 73 14 f8 3e
       0.45202318 0.14145303 0.13814457 0.48453102
0000c0 44 48 57 bf d4 ef fe be 32 3b 2e bd 70 b1 dd 3e
       -0.84094644 -0.4979235 -0.04253692 0.43299437
0000d0 11 0b ee 3d 9c 0f 59 3f a9 8a 79 3f f4 09 19 3e
       0.116232045 0.84789443 0.97477204 0.14945203
0000e0 90 4f 81 3d f8 ff 4e be cf 11 10 bf b1 57 65 3c
       0.063140035 -0.20214832 -0.56277174 0.013997958
0000f0 a3 2a fd 3d 07 1d 42 3f 88 34 04 be ac 2a 51 3f
       0.12361648 0.7582554 -0.12910664 0.8170574
000100 37 60 85 bd 79 ef a0 be e0 8b f1 ba f5 23 ca 3e
       -0.06512492 -0.31432703 -0.0018428527 0.39480558
000110 2f b1 a3 3f a1 ca 87 3e 83 c9 be be cd 98 12 bf
       1.2788447 0.2652178 -0.37263116 -0.57264405
000120 7e eb 2f 3f 2f 41 47 3f c0 b4 00 bf 5c 2f 01 3f
       0.6871871 0.7783384 -0.502758 0.5046289
000130 d7 b7 95 3e f1 e8 1e bf ff fa 1f 3e c3 dc ad bd
       0.2924182 -0.6207419 0.15623091 -0.084893726
000140 43 af e3 be b2 82 25 3f 25 28 20 3e f8 9f 3b bf
       -0.44469652 0.6465255 0.15640314 -0.7329097
000150 d4 14 02 bf 3f a8 63 3d b0 ac 53 3e dc 5a 23 bf
       -0.5081303 0.055580374 0.20671344 -0.63810515
000160 69 6d 3c 3f 64 27 94 bf 5a 29 0b be f0 f3 40 be
       0.73604447 -1.1574521 -0.13589993 -0.18843055
000170 2c 82 60 3e a8 96 c4 3d 23 a5 39 bf 9b d9 ba bd
       0.21924657 0.09599048 -0.72517604 -0.09123536
000180 96 14 c7 3e b8 53 a0 be 59 8a 2b bf e1 7c 37 3f
       0.38882893 -0.31313872 -0.67007977 0.71674925
000190 d5 ed cc bd 79 c2 3f be fc aa fc be a8 60 7d 3e
       -0.100063 -0.18726529 -0.493492 0.24743903
0001a0 90 d4 67 bf 55 c6 72 3e 39 c2 b7 3e 7f 73 84 be
       -0.9055872 0.2370847 0.35890368 -0.25869367
0001b0 81 81 25 be 10 ba 09 bf 23 2d 55 3e 0f 35 1d 3f
       -0.16162683 -0.53799534 0.20818 0.61409086
0001c0 9f 67 2d bf ad 8f aa 3e 9a 9f 16 be 1b 66 90 be
       -0.6773624 0.3331274 -0.1470932 -0.282029
0001d0 f9 7e f4 bd 33 06 07 3e 02 db 20 bf 25 19 8a bd
       -0.119382806 0.13185959 -0.6283418 -0.06743077
0001e0 18 82 11 ba d4 8d 96 3b 5a 29 c1 be c7 8c 9a 3f
       -0.00055506965 0.004594544 -0.3772686 1.2074212
0001f0 73 56 9f be 30 8c 71 3e 69 8b 0b 3f 18 0c bd be
       -0.31120643 0.23588634 0.545096 -0.3692329
000200 7c 02 8e be df 38 81 3e 29 31 d2 be fb e8 39 3d
       -0.2773627 0.25238702 -0.4105313 0.045388203
000210 bf ef e4 be 55 ad a6 be 2a c1 8f 3f 9b b0 09 bf
       -0.44714162 -0.32554117 1.1230824 -0.53785104
000220 71 1f 0b 3e 52 2c 0d bf 84 ce 6f 3f 18 95 64 3f
       0.13586213 -0.5514575 0.9367449 0.8929
000230 5c fb 0f 3f 52 00 39 be 12 e4 e4 3e 50 38 31 3e
       0.5624292 -0.18066528 0.44705254 0.17306638
000240 9b 0a 26 be 93 05 bb bc 88 9f 76 bd 63 dd 89 3e
       -0.16214983 -0.022829806 -0.060210735 0.26926717
000250 0e 63 19 bf 46 9c 83 be b8 75 27 be 86 ef 7e be
       -0.5991677 -0.25705165 -0.163535 -0.24896058
000260 c8 71 30 bc 89 a6 2a 3f 2e 11 38 3f 46 5d 47 bf
       -0.010769315 0.6666036 0.71901214 -0.778767
000270 95 aa c4 3e 4b fa 83 be bb 8e 19 bf 65 0f 90 3e
       0.38411394 -0.25776896 -0.59983414 0.28136745
000280 f3 88 a5 3c ed 95 77 3e ed be b8 3d 42 3e c5 bf
       0.020206904 0.24178286 0.09020791 -1.5409625
000290 fe f2 e3 3e d7 39 05 bf 2a 0f 5f 3e 40 ae 02 3f
       0.44521326 -0.5204138 0.21783128 0.51047134
0002a0 d8 d9 6e be c6 7c e2 be 1b a2 09 3e 23 d7 2f bf
       -0.23325288 -0.4423582 0.13440745 -0.6868765
0002b0 7a 7f 54 3e f5 84 88 3f e0 26 fa be f6 82 f8 bd
       0.20751753 1.0665575 -0.48857784 -0.12134354
0002c0 08 2d 69 be 86 b9 30 3d 25 3b 3f 3f b9 fd 8f 3e
       -0.22771084 0.04314568 0.7469962 0.28123263
0002d0 d3 c7 53 be af 64 ec be 07 24 0a 3f 6a 23 33 3c
       -0.20681696 -0.46170565 0.53961223 0.010933736
0002e0 b3 eb 84 3f c1 d2 e8 3e eb 46 db be 8a ec 0e 3d
       1.038443 0.45473292 -0.42827544 0.03489355
0002f0 31 a2 d5 be 07 4c 73 3e 3b fe 1e 3e fa 0e f3 bc
       -0.41725305 0.23759471 0.15526669 -0.029670227
000300 ee 27 da bc d1 49 dc 3d c9 84 37 bf c3 f0 8f be
       -0.026630368 0.10756267 -0.7168699 -0.28113374
000310 47 32 8a be 39 e1 3a bc 0f 46 7b 3f b9 43 86 3f
       -0.26991484 -0.011406236 0.98153776 1.0489417
000320 1a 42 11 bf 6f a0 17 3f 61 33 1e bf 60 6f 09 be
       -0.5674149 0.5922918 -0.6179715 -0.13421392
000330 61 46 f4 bc 48 ac 5f 3e 2c 64 8c be 8f b0 e4 3c
       -0.029818716 0.21843064 -0.27420175 0.027916221
000340 ba 27 83 3f 12 dc 4d 3f 3b df 05 3d 33 88 90 bd
       1.0246499 0.80413926 0.032683592 -0.07057228
000350 12 cd 37 3e 7f 52 6b 3f cb 92 4b 3f a7 67 98 3e
       0.17949322 0.91922754 0.79520863 0.2976658
000360 7b 0c ed be ee 49 fd be a6 ac 2d 3f 2a 4f 8e bf
       -0.46298584 -0.49470466 0.67841566 -1.1117909
000370 ca 35 44 3d 2e 45 1a 3f 51 58 e8 3c 42 f0 bb be
       0.04790286 0.6026181 0.028362425 -0.3670674
000380 68 48 01 bf 8b e7 97 bd 32 66 79 be 38 a3 a4 bc
       -0.5050111 -0.0741721 -0.2435539 -0.02009736
000390 75 f6 34 bf 66 d0 2e 3e 82 69 37 3d 7a 00 5b 3f
       -0.70688564 0.17071685 0.044778354 0.855476
0003a0 38 80 b5 3d df 83 6e 3d 60 62 e8 3e ba 24 ab be
       0.088623464 0.05823123 0.45387554 -0.33426458
0003b0 db ab bc 3e 36 bd ef be 98 7e e4 be 00 33 9e 3f
       0.36849865 -0.46824044 -0.44627833 1.2359314
0003c0 bf 0a 66 3d 75 6f 80 3d 81 7c 7b bc 15 69 85 bf
       0.056162592 0.06271259 -0.015349508 -1.0422693
0003d0 f0 bb 45 3e ed bf 38 bf 48 a9 ea 3e 63 36 09 bf
       0.19309974 -0.72167856 0.45832276 -0.5359861
0003e0 68 c4 41 3e a2 c6 30 3f 9b ab 4f be f5 3a fb 3d
       0.1892258 0.6905309 -0.20280306 0.122671045
0003f0 03 24 b3 3e 50 c7 12 bf b2 fb 2f bf 97 f5 83 3e
       0.34988412 -0.57335377 -0.6874343 0.25773308

net.0.bias f4 [256]
000000 98 a7 10 bf fe ab 30 bf 82 31 13 bf 7d f1 b8 3d
       -0.5650573 -0.6901244 -0.5749742 0.09030435
000010 4e 62 75 be 65 a0 07 bf 70 89 94 bf b4 1d 48 be
       -0.23963282 -0.5297912 -1.1604443 -0.19542581
000020 00 c9 e8 be 1a 38 87 bf 02 d6 33 3e 18 af 31 bd
       -0.4546585 -1.0563996 0.17562106 -0.043379873
000030 77 db 09 bf e1 be b7 bc 5d 7d 04 3d 9c a7 ee be
       -0.538505 -0.022429885 0.03234612 -0.4661225
000040 d4 ed 8d 3d 38 71 76 bf 32 b8 be 3e ca 32 82 bf
       0.06930128 -0.9626651 0.37249905 -1.017175
000050 e9 f4 2b be dd b8 9d be b4 90 b3 be 7c 43 33 3f
       -0.16792645 -0.30805102 -0.35071337 0.7002485
000060 a9 15 ca 3d 07 a2 f4 be e4 13 a5 be 0a 14 4d bf
       0.098674126 -0.47779867 -0.32241738 -0.801087
000070 c9 b8 65 bf 34 49 59 be 65 84 20 3f 0f dd f7 be
       -0.89735085 -0.21219331 0.6270202 -0.48410842
000080 d9 24 76 be 95 16 6b bf ec 53 a3 be bd 1c 51 3e
       -0.24037494 -0.9183133 -0.31899965 0.20421119
000090 b5 74 15 bf fd 58 26 bf 9a 96 9d be 3b 73 de 3c
       -0.58381206 -0.64979535 -0.30778962 0.027154556
0000a0 bf 48 b0 be 2e 14 87 bf 1b 0b 02 bf d1 a5 36 bf
       -0.344305 -1.0553033 -0.50798196 -0.71346766
0000b0 75 d1 76 bf b9 44 df 3e 52 cb b4 bd 87 79 a6 be
       -0.96413356 0.4360712 -0.08827843 -0.32514593
0000c0 c8 90 45 3e 22 ff 94 be ab 09 21 3c 5b b5 46 bf
       0.19293511 -0.291009 0.009828965 -0.77620476
0000d0 23 21 3c 3e 8d f0 2c 3e 04 39 14 bf 48 19 c3 be
       0.18372016 0.16888638 -0.578995 -0.38105226
0000e0 72 f1 c3 be cf ad 3f bf 51 d0 1d be 64 0a d8 be
       -0.38270146 -0.74874586 -0.15411498 -0.42195427
0000f0 84 88 f2 be f0 a8 f0 be 23 af 8f bd 6d bb a3 3d
       -0.47369778 -0.4700389 -0.070158266 0.07994733
000100 45 89 18 bf f7 02 f5 be 9a b7 be bd 5b 1b 5d bf
       -0.59584457 -0.47853824 -0.09312363 -0.86369866
000110 d1 e4 f3 bd 81 b3 d1 3e 9f 65 d0 be 05 db 26 3e
       -0.11908878 0.40957263 -0.4070253 0.16294487
000120 2f fd 32 3c 3e 94 05 be b6 bc 0a bf c1 43 37 3e
       0.0109246215 -0.13044831 -0.541942 0.1789694
000130 b3 f6 06 bf 98 85 2a bf a3 de 0d bd fc f2 10 bf
       -0.52720183 -0.666101 -0.03463615 -0.56620765
000140 66 86 84 be ae ce 0a 3e ad 97 49 bf e0 56 8f 3d
       -0.25883788 0.13555405 -0.78747064 0.06998992
000150 b2 53 c8 3e 88 33 08 3f e3 5e 98 3d fc 80 b8 be
       0.39126354 0.5320363 0.07439973 -0.36035907
000160 8c e3 28 bf a4 b7 78 3d f8 0d 9a bf 28 af 21 3e
       -0.6597221 0.06072201 -1.2035513 0.15789473
000170 71 7b 40 bf 87 89 2e bf d7 29 a9 3d 96 62 05 bf
       -0.75188357 -0.681786 0.082599334 -0.52103555
000180 94 4c ae be 94 49 9b be 69 e7 0c bf 84 f4 d8 bc
       -0.340428 -0.30329573 -0.55040604 -0.026483782
000190 72 b2 56 3e 81 7f 25 bf 87 ad 42 bf 62 89 5d bf
       0.20966509 -0.6464768 -0.7604603 -0.86537755
0001a0 8f 17 44 bd 6d 55 0a 3f 87 9d 56 be a0 11 92 bf
       -0.04787403 0.540366 -0.2095853 -1.1411629
0001b0 d7 91 29 bf 73 f1 fe be bc 82 10 bf e0 8c a3 3d
       -0.6623816 -0.49793586 -0.56449485 0.07985854
0001c0 d8 42 c0 3e 0e 84 a5 be fd 16 d7 3d 01 2c 70 bf
       0.37550998 -0.32327312 0.105024315 -0.93817145
0001d0 be 74 cd be 51 07 15 bf c9 ff 13 3f 94 bf 91 be
       -0.4012813 -0.5821429 0.5781217 -0.28466475
0001e0 1e f7 34 bf 13 e1 99 bc 54 b8 92 be 8f 10 75 be
       -0.7068957 -0.018784082 -0.28656256 -0.23932098
0001f0 d8 7d 07 3e 3a 10 a6 bd d0 2a 97 3e 14 9d 41 bf
       0.132316 -0.08108564 0.2952485 -0.7563031
000200 98 14 14 3f a4 49 74 bf c1 c8 19 bf 5c 96 6d bf
       0.57843924 -0.95424867 -0.6007195 -0.92807555
000210 8a b4 03 3d af 3d 64 be 90 2d 8e be 22 bc ce be
       0.032154597 -0.22289155 -0.27769136 -0.4037791
000220 ba 40 0f bf 61 de 9d bf d1 9e 60 bf 97 62 54 3e
       -0.5595814 -1.233349 -0.87742335 0.20740734
000230 71 dc 6d 3e 6f 45 fa be 02 a4 c5 be a5 23 27 bf
       0.23228623 -0.488811 -0.3860169 -0.65288764
000240 f1 33 ac bf a0 ec 43 bd 3a fa 14 3e 93 33 57 bd
       -1.3453351 -0.047833085 0.14548579 -0.05253942
000250 ec 46 6a bf 92 cb 65 bf dd 95 4e bf 03 d1 2e bf
       -0.9151447 -0.8976375 -0.80697423 -0.68287677
000260 1a 32 c7 3e 6c 64 1a bf a0 86 a1 be 10 48 66 bf
       0.38905412 -0.6030948 -0.31548023 -0.8995371
000270 3d fa ea be 40 3e 1e bf 4b 94 8d bf 1a 05 9f 3d
       -0.45894042 -0.61813736 -1.106088 0.07764645
000280 d5 87 3b bf 46 c1 78 3e f3 1c dd bd e2 13 39 bf
       -0.7325414 0.24292478 -0.10796537 -0.72295964
000290 09 f6 c7 be ac 68 91 be b0 80 fd be 8a 60 12 bf
       -0.39054897 -0.2840017 -0.49512243 -0.57178557
0002a0 12 b5 8d be 8a 35 6b bf e3 8e 6c ba 27 58 e3 3e
       -0.27677208 -0.9187857 -0.00090239773 0.44403192
0002b0 8b 46 81 bd 4d 4c 3b bf dd 8f 57 be ef dc 2c bf
       -0.06312283 -0.731633 -0.21050973 -0.6752462
0002c0 56 da d4 be 83 88 1e bf 87 b2 80 3d 53 42 4d be
       -0.41572827 -0.6192705 0.062840514 -0.20044832
0002d0 2c 71 8f bf a2 d0 51 be 03 1c 82 bf 5f cf 82 bf
       -1.1206412 -0.20489743 -1.0164798 -1.0219535
0002e0 f0 1f 83 bf 8c 67 9e bf d5 b6 b2 bd 64 b5 3e 3e
       -1.0244122 -1.237535 -0.08726279 0.18623883
0002f0 21 ae 36 bc b6 eb 3c bd 6c f1 19 bf 5f ec 2e bf
       -0.011149914 -0.04612323 -0.60134006 -0.68329424
000300 95 44 48 3e ea d8 8d 3e c8 bd 65 bf c0 f4 42 bf
       0.19557412 0.27704555 -0.8974271 -0.7615471
000310 b2 7d 36 bf 3f 5a 76 bf 5b 62 17 3e 32 0a a0 be
       -0.71285546 -0.96231455 0.14783613 -0.31257778
000320 e8 7b 23 bc c0 22 97 3e cc 9c 5e be 98 86 6b bf
       -0.009978272 0.295187 -0.21739501 -0.9200225
000330 ce 08 8a 3e 2b d3 36 bc 8f 87 00 be d9 2b 24 bf
       0.26959842 -0.011158745 -0.12551711 -0.64129406
000340 38 ba c6 3e e3 ca 8c bd 3b ce bd 3e b3 8c c1 3e
       0.3881395 -0.06874635 0.37071404 0.37802657
000350 ac be cd bb cc e2 e5 bb e1 6b 06 bf a5 1d 9e be
       -0.0062788334 -0.0070155617 -0.5250836 -0.30881992
000360 93 d8 0a bf c1 c4 a2 bf 77 f3 bc 3e fe 21 37 bf
       -0.54236716 -1.2716295 0.369045 -0.7153624
000370 b7 5e 03 3f 14 ff da be 3e dd 49 bc c2 50 c1 be
       0.513164 -0.42772734 -0.012320815 -0.37756926
000380 45 df 17 be 0e b8 1c be 19 de f9 be f4 95 51 3e
       -0.14831264 -0.15304586 -0.4880226 0.20467359
000390 67 01 5d bf 71 70 d0 3e c4 d3 45 bf d6 ef 35 bf
       -0.86330265 0.40710786 -0.77276254 -0.71069086
0003a0 27 0c 50 be 7a b3 a5 be 96 de 18 bf e1 58 7b bf
       -0.20317136 -0.32363492 -0.5971464 -0.98182493
0003b0 c3 7e da be 12 07 17 bf e2 80 27 bf 49 df 12 bf
       -0.42674837 -0.58995163 -0.65431035 -0.57371956
0003c0 e5 b5 dc 3d 1c d5 b3 bd 23 28 16 bf 80 d6 8b 3e
       0.10776881 -0.08780882 -0.58654994 0.27312088
0003d0 ad 8b 58 3e 94 f3 33 bf 40 24 1d bf ae af 06 bf
       0.21147032 -0.70293546 -0.6138344 -0.52611816
0003e0 90 d5 9b be 05 9d 8a be eb 9f 50 3e cc 1a 6a 3d
       -0.30436373 -0.2707292 0.20373504 0.05715446
0003f0 a7 dd 96 bd 35 d6 e2 be 8f b3 14 bf e3 98 d9 be
       -0.073664956 -0.44304052 -0.58086485 -0.42499456

net.2.weight f4 [256, 256]
000000 48 3e aa bc 4c 3d 87 3b 9b dc 99 3c c3 49 2a bc
       -0.020781651 0.00412718 0.01878195 -0.010393563
000010 87 f8 4c 3d 9e 2f 31 bd c0 bd 92 3c ae 7e ee 3c
       0.0500417 -0.043258302 0.017912745 0.02911314
000020 05 14 f3 bc 45 67 3c 3d d0 5f 8b bc c8 85 66 bd
       -0.029672632 0.045996923 -0.01701346 -0.056279927
000030 da 64 33 bd c8 07 a4 3c 19 ce 2a bd 88 48 76 3c
       -0.04379735 0.020023242 -0.041700456 0.015031941
000040 e9 3b 60 3d 91 31 87 3c 12 7a c5 bc 16 00 2d 3c
       0.054744635 0.016503127 -0.02410606 0.0105591025
000050 28 7e 13 bd 63 ed 67 bd f2 62 55 bd dc 6e 8f bd
       -0.036008984 -0.056622874 -0.052096315 -0.070035666
000060 d5 22 77 3b e3 95 bc bb 68 95 d9 bc 14 68 7a bd
       0.003770997 -0.0057551726 -0.0265605 -0.061134413
000070 5b 68 07 3c e7 cb 50 bd 79 6e 19 bd 0c 13 72 bd
       0.008264626 -0.050975706 -0.03745887 -0.059100196
000080 f2 48 2e bd e0 96 23 3c c6 f5 9f bd 58 26 51 bd
       -0.042550035 0.009984702 -0.078105494 -0.051061958
000090 dc 35 d6 3c 7a f1 54 bd c5 d5 44 bd f9 fd 11 bd
       0.026148729 -0.051988102 -0.04805543 -0.035642598
0000a0 44 d2 ae 3c c9 eb 7c bd 87 27 a3 bc c4 2a 79 3c
       0.021340497 -0.0617483 -0.019916309 0.01520795
0000b0 5b 5c 5c bc ed 25 cb bb 9f 98 74 bd 84 91 aa 3c
       -0.013449754 -0.0061995895 -0.059715863 0.02082134
0000c0 76 3d 64 3c ed 0d 69 bc 3c f6 8b bd 66 b8 d0 ba
       0.013930669 -0.014224512 -0.06834075 -0.0015924096
0000d0 4a 0a d1 3c 48 97 17 bd b9 ec c4 3c e2 23 92 3c
       0.025517602 -0.037009507 0.02403866 0.017839376
0000e0 2c ab e8 bc 46 a3 f3 bc 56 a3 3a 3d 36 69 df bb
       -0.028401934 -0.02974094 0.045565926 -0.006817962
0000f0 04 0a 5a bd ab 44 ae bc 48 e5 c1 3c 6a 44 21 bd
       -0.053232208 -0.021272978 0.0236689 -0.039371885
000100 20 10 06 bd 43 52 05 3d 3b e4 b4 3b bb ef 81 bc
       -0.03273022 0.032549154 0.0055203713 -0.015861383
000110 6c dc c1 bc 53 de ea bc 85 d2 73 3c 46 24 0f bc
       -0.023664676 -0.028670466 0.014881735 -0.008736676
000120 fb 5b 60 bd 65 06 a7 ba 00 b7 b1 bb 4d b6 2f bc
       -0.05477522 -0.0012742995 -0.0054234266 -0.010724616
000130 c4 ca 1a bd a8 41 98 bb ac 74 73 bd bc 4b 83 b9
       -0.03779103 -0.0046464987 -0.05943744 -0.00025042694
000140 e5 1d 75 3c d4 62 bd bc 62 60 63 bd 80 c0 88 bc
       0.014960741 -0.023118414 -0.05551184 -0.016693354
000150 cd c1 78 bc d3 41 7d bd 5f 9f 7c bd 2a 02 33 3d
       -0.015182924 -0.061830353 -0.061675426 0.043703236
000160 57 7c fe 3c 98 5f 77 3c 56 ed 98 3c 7f f8 57 3c
       0.03106515 0.015098475 0.018667858 0.013181805
000170 3e b9 eb 3c d7 e2 dd 3c 8d be 94 bc 3a 6d d1 bc
       0.028774854 0.027085705 -0.018157268 -0.025564779
000180 e5 dc 18 3d db 86 cc bc a7 02 40 bd 8c 01 77 bd
       0.037320036 -0.024966648 -0.04687753 -0.06030421
000190 ff 7d eb 3c 8e 0f 43 3d f9 77 37 3d 2f ea 46 bc
       0.028746603 0.047622256 0.04479215 -0.012140795
0001a0 dc 52 01 3d 6a 4f 96 bd 42 70 38 bd 5d ab 84 bd
       0.03157316 -0.07339366 -0.045028932 -0.064779975
0001b0 55 ed 38 3d 02 65 e8 bc 47 b9 3d bd 1d 77 37 3c
       0.045148212 -0.028368477 -0.046319272 0.011197832
0001c0 16 7c 01 bd e4 16 62 bd 93 00 4b 3b 21 e6 f6 bb
       -0.03161248 -0.05519761 0.0030975684 -0.0075347577
0001d0 e2 c4 64 bd ad 46 31 bd d4 e0 7c 3c ae 64 fc 3c
       -0.055851825 -0.043280292 0.015434463 0.030809727
0001e0 98 16 a8 bc 04 18 13 bd d2 ae 74 3c 60 8c 03 bc
       -0.020518586 -0.035911575 0.014934259 -0.0080290735
0001f0 51 84 79 bd 1c b1 3c bd 39 fc fa bb 69 4d 0c 3d
       -0.060917202 -0.046067342 -0.007659462 0.03425351
000200 b1 e4 e6 bc b7 ad 3d 3b 23 1e 8b bd 04 ae 59 3d
       -0.02818522 0.0028942653 -0.067928575 0.05314447
000210 cc e7 d2 3c 53 b6 8c bc f4 d2 a2 3c de f7 d3 ba
       0.025745295 -0.017176783 0.01987598 -0.0016171893
000220 53 9d 83 bd e1 30 23 bc 10 9e ec bb 14 83 a7 bc
       -0.064264916 -0.009960384 -0.007220991 -0.020448245
000230 6f 23 56 3d cb b1 18 bd 51 b3 8c bd 5c ae 0a bd
       0.052279886 -0.03727893 -0.068701394 -0.03385769
000240 84 e8 a4 bd 00 4f 2d 3d c4 3e 34 bd 0f 1c 64 bd
       -0.08052161 0.04231167 -0.04400517 -0.05569082
000250 1a 44 55 bc f4 61 53 bd 16 52 19 bd 52 44 61 3b
       -0.013016725 -0.051607087 -0.0374318 0.0034372997
000260 52 23 67 bd 0f 4c b2 3c c6 84 bf 3c cd 44 6a bb
       -0.05643017 0.021764783 0.023378741 -0.0035746575
000270 e0 3a b3 3c ef 16 27 bd 3c 51 11 3d c9 77 54 3d
       0.02187866 -0.040793356 0.03547786 0.05187205
000280 79 d6 54 bc 60 49 69 3d ad e1 8e bd e6 c3 05 bd
       -0.012990587 0.05695474 -0.06976638 -0.032657526
000290 21 fc 73 bc 17 4b 7b bd c2 a2 6d 3b 52 fa 07 bd
       -0.014891655 -0.061350908 0.0036260341 -0.03319771
0002a0 dc 2e 00 bd 73 de 73 bd 38 f4 15 3c bc 2f 5d bd
       -0.03129469 -0.059538316 0.009152465 -0.0540006
0002b0 85 67 0a bd 3f e2 b5 3c 45 5e 2b 3d 28 d1 e9 3a
       -0.03379013 0.02220261 0.04183795 0.0017838823
0002c0 3a 64 14 bd 45 53 16 bd 72 5a bd 3c 35 64 7c bc
       -0.036228396 -0.036700506 0.023114417 -0.015404751
0002d0 18 61 fb 3c 4c 1f 87 3c 49 67 b5 3c 2b d3 81 bd
       0.030685946 0.016494416 0.022143977 -0.06339105
0002e0 9f a2 17 3d b2 80 0c bd 47 33 1c bd 00 21 c4 39
       0.037020322 -0.03430242 -0.03813484 0.0003740862
0002f0 8c 7e 1f bd 5c ca ba ba be 2c 45 3d 30 c9 3f bd
       -0.038939044 -0.0014250982 0.048138373 -0.046822727
000300 b1 2c e1 bb 25 8e 55 bd ed ea 73 3b 19 67 43 3d
       -0.0068717827 -0.052137513 0.0037218884 0.047705743
000310 01 59 dc 3c e2 7c 1d 3d 87 9f ab 3c ad ae 8c bc
       0.02689791 0.038449176 0.020950092 -0.017173136
000320 c7 b0 48 bb ea af 56 bd f8 00 35 3d 8f 5d b2 3c
       -0.0030622946 -0.05241386 0.044190377 0.021773128
000330 50 80 7f bd c6 34 14 3d 15 b0 30 bc fe bc 6a bc
       -0.062378228 0.03618314 -0.010784169 -0.014327286
000340 83 44 bd bc 60 c5 9c bc ba 52 7e bc b5 d7 28 bd
       -0.023103958 -0.019137084 -0.015522653 -0.04122134
000350 0c ef 93 bd fb 36 16 bd d7 47 0f bd 97 5e f6 3c
       -0.07223329 -0.036673527 -0.03498062 0.0300744
000360 57 f2 ed 3c dd 60 66 bd 4e 64 9a bc cb 91 08 bd
       0.02904622 -0.05624472 -0.018846657 -0.033342164
000370 7c dc 54 bd 9b fd be bc 41 ba 21 bd c5 db e2 3c
       -0.051968083 -0.023314288 -0.039484266 0.027692685
000380 b4 4a 3d bd b4 d6 9d bb 7c cf 21 bd 74 fe e8 bc
       -0.04621382 -0.0048168544 -0.039504513 -0.028441645
000390 29 af 44 3d ef b6 1f bd 33 a9 88 bc bc 6f 56 3d
       0.04801861 -0.03899282 -0.016682243 0.052352652
0003a0 33 7b e7 3b f3 fa 19 bd 88 1a 34 bd 04 8e 00 bd
       0.007064247 -0.03759284 -0.043970615 -0.031385437
0003b0 1b 9b 1b bd 6a 34 a2 3c b4 e7 be bc 07 5b 48 3d
       -0.037989717 0.019800384 -0.023303844 0.048914935
0003c0 25 01 54 bd 95 c0 42 bd 91 55 90 3b 8d c7 33 3d
       -0.051758904 -0.04754694 0.0044047316 0.04389148
0003d0 d6 84 2f 3d 1d 96 99 bc 77 50 e1 bb 6a 7e 0a bd
       0.04285129 -0.018748337 -0.0068760472 -0.033811964
0003e0 80 a1 95 3c bb 03 2d bd d5 92 0e bd c6 f6 55 bd
       0.018265486 -0.042239886 -0.034808 -0.052237295
0003f0 8c 24 8c bd 33 ca 79 3c 55 aa e7 ba 86 38 50 3d
       -0.06842908 0.015245962 -0.0017674664 0.050835155

net.2.bias f4 [256]
000000 ee d3 cf bc 02 62 51 bd 73 52 39 3b e3 a1 e4 bc
       -0.02536961 -0.05111886 0.0028277903 -0.027909225
000010 9b 79 a4 bd 3b 1c a5 3e 8d 53 b3 3b 03 a2 f2 3c
       -0.08031007 0.322481 0.0054726065 0.029618269
000020 4b ad 18 bd a8 ac c0 bd ae 29 b2 bd dc 30 a3 bd
       -0.03727464 -0.094079316 -0.08699356 -0.079683036
000030 a2 99 c0 3b 08 b6 92 3a 87 b9 a0 bc dd a4 58 bd
       0.0058776895 0.0011193166 -0.019619716 -0.0528916
000040 65 bd d5 bc 43 54 fe 3d c9 25 97 bd 65 77 2e bd
       -0.026091287 0.124184154 -0.07380254 -0.042594332
000050 24 c1 f6 ba e0 74 00 bd 22 da 17 3e 3a 66 9c bd
       -0.0018825871 -0.03136146 0.14829305 -0.07636686
000060 72 a8 e5 3c 26 30 af bb 35 cd 84 3d 7d d7 ab 3e
       0.028034423 -0.005346316 0.06484453 0.33562842
000070 cc 26 a2 3e ec e5 0e bd d1 37 9c bd 66 f8 81 bd
       0.31670225 -0.03488724 -0.07627834 -0.06346206
000080 35 41 3e bb 17 bf 5e bd ce 6f f8 bd bf c6 cf 3e
       -0.0029030566 -0.054381456 -0.121307 0.4058132
000090 10 f0 9b 3a 08 a5 2a bd 35 29 3e bd c9 3f 4a bd
       0.0011897106 -0.041661292 -0.046426017 -0.049377237
0000a0 82 f3 f0 3c 3b c6 8a 3d 58 2d a0 bd 44 fa 32 be
       0.029412989 0.06776091 -0.07821149 -0.17478281
0000b0 74 b9 bc bd aa 07 94 3d 4f 0e 06 bf 87 03 71 bc
       -0.0921506 0.07228024 -0.52365583 -0.014710314
0000c0 46 b9 9c bd 7e 49 62 bc 07 c4 95 bd ff 5f 82 3e
       -0.076525256 -0.013811467 -0.0731278 0.25463864
0000d0 7a 46 11 3d 4b 35 7b bd 84 5b 51 bd 70 45 ad bb
       0.035467602 -0.06133012 -0.051112667 -0.0052878186
0000e0 53 80 92 bd ea 64 05 3e 1e f7 f5 be 2a 2c 51 bb
       -0.07153382 0.13026777 -0.48040098 -0.0031917193
0000f0 78 88 8c bc 8c 78 aa bd c8 a6 99 bc a3 e6 1a 3d
       -0.017154917 -0.08323774 -0.018756285 0.03781761
000100 91 1d 3b bd fe c6 40 bd 03 23 2a bd ed 72 da bb
       -0.045682494 -0.047064774 -0.041537296 -0.0066665323
000110 f5 6a 90 bd dd f2 3a bd da 8a 25 3c 47 8c 60 3e
       -0.070516504 -0.04564177 0.010103906 0.21928512
000120 5c ce 3b 3c d8 1b 9a bc 67 6c ac bc ea 9a 19 3e
       0.011462774 -0.018812105 -0.021047784 0.15000501
000130 a1 ed a4 bd 4a 98 20 3b 6d 77 04 bd 89 a8 d1 bc
       -0.080531366 0.0024504834 -0.032340456 -0.02559306
000140 45 9a c7 3c d1 ac 22 3e b9 50 95 bd 3f 17 82 3c
       0.024365554 0.15886237 -0.07290787 0.015880225
000150 07 99 91 3c d9 6e 94 3b 00 79 72 bd 8c 5e a8 bd
       0.017773164 0.0045298156 -0.059197426 -0.082211584
000160 9d a8 6a bd 6c 27 8f bd d8 a0 25 3e b3 73 29 bd
       -0.05728971 -0.06989941 0.16174638 -0.041370105
000170 0a f7 af be c5 7f fc bd e6 c3 a5 bd 1b f9 8a bd
       -0.34368163 -0.123290576 -0.08094005 -0.06785794
000180 1a bb ec bc b8 c2 16 bc 5e b4 4f bd da e7 d4 3d
       -0.02889781 -0.009201698 -0.05070912 0.10395785
000190 81 0a da be dc 3b 20 bd bb 7d 56 bc df 9b a0 bd
       -0.4258614 -0.039119586 -0.0130915 -0.0784223
0001a0 44 c1 b0 bc 9a 1d 07 be c1 02 2f bd 41 40 82 3e
       -0.021576531 -0.13194886 -0.042727236 0.25439647
0001b0 7f 42 4b bc b8 bb 38 3c 0a 93 9e 3c 14 bd 2e 3c
       -0.012405991 0.011275224 0.019357223 0.010665197
0001c0 3a 94 56 be 93 9b 66 3e ac 73 38 be d5 f8 d3 3d
       -0.20954981 0.22520284 -0.18012875 0.10350195
0001d0 f5 05 32 3b ca ff 2a 3e bb a4 2e bd c8 d0 01 be
       0.0027164195 0.16699138 -0.042637568 -0.126773
0001e0 3d 27 c6 bd ae db b7 3d 0d 12 3d 3e 00 ac 74 be
       -0.09675453 0.089774475 0.18463917 -0.23893738
0001f0 19 c0 ce bd 67 cf c2 3d d7 20 a4 bd 50 9a 07 3d
       -0.100952335 0.09512215 -0.08014076 0.03310615
000200 71 58 31 3c 9b 6d b1 bd 52 4c ec 3c 86 64 84 3e
       0.010824309 -0.08663484 0.028844986 0.25857943
000210 4a 68 82 bd 1a 39 5b bd 51 25 81 bd 20 b8 ab bc
       -0.06367548 -0.053521253 -0.06305946 -0.020961821
000220 74 bb c6 b8 a5 dd 72 bd f7 92 b0 bb 4b c8 81 bd
       -9.4762916e-05 -0.059293408 -0.0053886133 -0.06337031
000230 f3 e3 5c bd 7e 78 a0 3c 3b dc f7 3c 15 11 02 3f
       -0.053928327 0.019588705 0.030256381 0.50807315
000240 d2 4e 7d bd 6b b0 64 bd 86 f2 59 3e a9 ad f8 bb
       -0.061842747 -0.055832308 0.21283922 -0.0075890613
000250 95 d8 78 3d 9d 5c 8d 3c c1 99 21 bd 51 bd ca 3a
       0.060753424 0.017256076 -0.03945327 0.0015467798
000260 72 2d 34 3e 67 13 44 bd c5 95 02 be cf 09 74 bd
       0.17595461 -0.047870066 -0.12752445 -0.059579667
000270 5e a1 94 bd e9 d5 15 3c b6 4c a0 3c 41 2d 91 bc
       -0.07257341 0.009145238 0.019567829 -0.017721774
000280 b4 77 18 bd 13 53 a3 bd 4b 00 37 bd bd 70 c4 3c
       -0.037223533 -0.079748295 -0.044678014 0.023979539
000290 dd a4 b0 bc 9c f2 9d be fe 02 e3 bc 33 1f bb bb
       -0.021562988 -0.3084916 -0.027711388 -0.0057105063
0002a0 78 a8 8a bc 56 d8 b8 3c e0 8b ea bb ff e8 43 3c
       -0.016926035 0.022564095 -0.0071577877 0.011957406
0002b0 5e 41 de 3c 4c 60 ad bd 08 ed d2 bb 64 02 f7 3c
       0.027130779 -0.08465633 -0.0064369477 0.030152507
0002c0 b3 28 ef 3d 5c 1e 53 be 92 2b 15 3d 30 ee 96 bc
       0.11677685 -0.2061705 0.036418505 -0.018424124
0002d0 e5 21 1c bc aa c5 a6 be 22 7e 90 bd 40 f2 4e be
       -0.009529565 -0.3257268 -0.07055308 -0.20209599
0002e0 40 33 4c bd 0b e7 2a 3c 75 46 5c bd 2a fb d6 3e
       -0.049853563 0.0104310615 -0.05377813 0.41988498
0002f0 0a 6c d0 bd a6 d5 f5 be 37 66 1e bd 25 4e 97 bd
       -0.10176857 -0.48014563 -0.0386717 -0.07387952
000300 e7 65 82 3d 56 3c 23 3d ce 98 87 bd dc 40 ad 3e
       0.063670926 0.039852463 -0.06620942 0.33838546
000310 ef f2 9a be 37 e7 3c 3e 7e e0 9b bd e6 0d 71 bd
       -0.3026347 0.18447576 -0.07611178 -0.058851145
000320 8d c1 8e b9 df 1b 8b bd 04 1e 75 be 13 c2 43 3e
       -0.00027228557 -0.06792425 -0.23937231 0.19117002
000330 b7 59 01 3e 60 e4 17 bd 84 c2 05 bd 22 0f 68 bc
       0.1263188 -0.03708303 -0.032656208 -0.014163764
000340 27 d2 58 bd 1f fd 21 be 6c 4b a5 3b ee bc 54 bc
       -0.052934792 -0.15819214 0.0050443914 -0.0129844975
000350 d8 f5 41 bc 4b f8 77 3e a2 8f 72 3e 7d e1 95 3c
       -0.011838399 0.2421581 0.23687604 0.018295998
000360 f0 7f 97 3e c2 3c 43 bd 3b 5a d0 3c fd 20 18 bd
       0.29589796 -0.047665365 0.02543365 -0.037140835
000370 5c 86 bd bc 2e 8a 02 3e 57 16 79 bd 7d a0 89 3d
       -0.023135357 0.12748024 -0.06081232 0.06720064
000380 ee c6 43 3d d9 74 ad bc 10 19 b6 bd 4f 15 a4 bd
       0.047797136 -0.021173881 -0.08891499 -0.08011877
000390 50 e4 d1 bc 25 c6 a1 bd 71 85 e3 3c b5 f1 f3 bc
       -0.025621563 -0.07899121 0.02777359 -0.02977834
0003a0 b4 d7 3a bd bb fb d7 ba 42 ab 44 b9 f2 40 38 3e
       -0.045615867 -0.001647822 -0.00018755815 0.17993525
0003b0 5f df b9 bb 76 69 3f bc 7f 12 92 bd 8c 73 63 3a
       -0.00567238 -0.011682859 -0.07132434 0.00086765806
0003c0 0d e2 89 bd 6d 1b e0 3c a3 6b 86 bd 6d 46 5c be
       -0.06732569 0.027356828 -0.06563499 -0.2151124
0003d0 35 29 4f bd 67 05 a2 bc 89 cf 8e 3c f7 23 e4 bc
       -0.050576407 -0.019777967 0.017432945 -0.02784918
0003e0 ff a1 83 bd 7b 86 50 bd 48 34 ec bc 1b 3d 72 bd
       -0.06427383 -0.0509095 -0.028833523 -0.059140306
0003f0 e1 13 39 bd c5 7c 82 3e 8d 43 9b be 6b 66 d0 bc
       -0.045184974 0.25485817 -0.30324975 -0.025439462

net.4.weight f4 [4, 256]
000000 08 22 e4 bc 0f 11 88 3c b3 a1 35 bc d9 90 b1 bc
       -0.027848259 0.016609697 -0.011085915 -0.021675514
000010 3d e8 81 bc 77 e0 96 bc 47 5e 11 bd 8a b9 f7 bb
       -0.01585781 -0.01841758 -0.0354903 -0.00755996
000020 61 0e bd 3c 01 c6 8c bf 79 fb b9 bb 1d bd d1 3c
       0.023078145 -1.0997926 -0.00567573 0.025602872
000030 fc 23 b8 bc de 13 d4 3c af 4c 4b 3d 40 1f f4 3d
       -0.022478096 0.02588838 0.049633678 0.11920023
000040 91 cd 13 bc 92 14 8d be 03 55 86 bc 44 47 62 bb
       -0.009021179 -0.27554756 -0.016397959 -0.003452734
000050 3b 44 02 bc 39 56 7a bc 72 96 0e 3f d4 49 b8 3b
       -0.007950838 -0.015279346 0.5569831 0.0056240354
000060 78 37 af 3c bc 44 7f 3b 3e 23 1e be da 6d 36 3e
       0.021388754 0.003895088 -0.15443131 0.17815343
000070 9e 48 59 3f 8a ba 01 3e a7 34 87 3c 10 9a b4 bc
       0.8487643 0.12668815 0.016504599 -0.022046119
000080 5e 56 e3 bb f1 76 0d 3d 18 30 f6 3e e3 5b 60 3e
       -0.006937786 0.03453726 0.48083568 0.21910052
000090 8f c8 2d 3c 5e fd 85 bf bd 17 48 3f e7 b1 81 3d
       0.010606899 -1.0467947 0.7816122 0.0633276
0000a0 a1 b4 38 bd 1a b5 9b bf 97 f8 21 bf 2d 79 20 3e
       -0.045094136 -1.2164643 -0.63269943 0.15671225
0000b0 2b 63 a1 bb 2a 08 d6 3e 89 06 56 bf 76 6d 0c 3b
       -0.004925152 0.41803104 -0.8360372 0.0021427548
0000c0 8b ce f5 be a4 df f8 be b7 f5 91 3c 76 41 01 bf
       -0.48009142 -0.48608124 0.017817361 -0.5049051
0000d0 e0 47 14 3d 4b d3 7e 3c ef ee 07 3d f3 75 33 bd
       0.036201358 0.015553306 0.03318685 -0.043813657
0000e0 f1 4b 4e bc 0d 05 0e 40 9c 41 87 3e de 46 05 3d
       -0.012591348 2.2190583 0.26417243 0.032538287
0000f0 03 c1 3d 3f bb a8 05 3c 00 f5 90 3c 1d 37 47 bf
       0.7412264 0.008157904 0.01769495 -0.7781847
000100 cf d9 31 bd 1b b0 54 3c 7d bf 18 3c f0 0e d7 bc
       -0.04342061 0.01298144 0.009322998 -0.02625224
000110 f8 cb 1f 3f ac c9 c2 3b 35 86 63 3d b3 7c 0e 3f
       0.62420607 0.0059444513 0.05554791 0.55659026
000120 ca 21 3a 3c a6 d5 88 3a 39 c0 1a bd 41 99 ee 3d
       0.011360595 0.0010439649 -0.037780974 0.116503246
000130 00 2a cf 3c 88 ce b4 bc 21 ad ae be e7 a5 3b 3d
       0.025288582 -0.022071138 -0.34116462 0.045812514
000140 b6 1e 93 3c 00 e3 1e 3f 19 37 bd bb c3 50 7e bf
       0.01795898 0.62065125 -0.0057743904 -0.9934198
000150 7b 79 18 bd 4f e1 90 bf c2 ae d4 bb 79 1f 9d be
       -0.037225228 -1.1318759 -0.0064905593 -0.30688074
000160 bb 7d cb 3b ec 20 eb 3e 5e 46 cd be 14 e3 83 3b
       0.0062100566 0.45923555 -0.40092748 0.0040248726
000170 05 e0 6c 3e 96 80 d5 3d 21 f3 96 3c b2 69 f2 3c
       0.23132332 0.104249164 0.01842648 0.029591415
000180 1d 65 c0 3e 77 25 11 bc 80 e8 e7 39 0a 81 0c bf
       0.37577143 -0.00885903 0.0004423298 -0.548844
000190 a3 64 31 3f f5 2c 22 3d 64 9b 34 3f 01 c3 7b 3c
       0.69294184 0.039593656 0.7054961 0.015366317
0001a0 69 da 1a 3d bf af 37 3f 4e 48 36 3d cf 3a dc be
       0.03780595 0.7175254 0.04450255 -0.43013617
0001b0 72 64 2f 3b ea ae a4 bc 96 72 01 3a 3a c7 f7 bc
       0.002676275 -0.020102937 0.0004938034 -0.030246366
0001c0 28 1f ee be e8 f0 1d bd b8 d0 56 3e 71 fc 06 3f
       -0.46508145 -0.038559824 0.20978057 0.52728945
0001d0 b7 8a 9e bc b0 44 3e 3f 4f 29 95 bc 4d bc 26 3e
       -0.019353254 0.7432356 -0.018208174 0.16282769
0001e0 c9 d4 e0 3d 6f d7 6e bf 3e f1 67 3f 30 66 8a 3f
       0.109780855 -0.93297476 0.9060248 1.0812435
0001f0 76 d9 50 bf 0f 85 92 be 9b 7a fd 3c 33 5a 5e 3c
       -0.8158182 -0.2861714 0.030942252 0.01357131
000200 b8 8a be 39 ed 5c de 3c 95 d5 bb bb c6 b6 fc 3d
       0.00036342978 0.02714392 -0.005732248 0.12339549
000210 f9 ee 36 3c f2 2a 9b bc 41 82 14 3c 17 2e b2 bb
       0.011165374 -0.018941376 0.009064258 -0.0054376232
000220 2b ea 09 bc 73 d2 9b 3e 09 3b dd 3d 2a bc 70 3d
       -0.008417646 0.30433998 0.10802276 0.058773197
000230 07 a4 e6 bc 3e c5 2d bc c9 4c 5c bc 70 44 93 3c
       -0.028154386 -0.010606108 -0.013446041 0.01797697
000240 b2 40 d0 bb 34 96 48 bb a0 6c e9 be fe 3f a4 bb
       -0.0063553685 -0.0030607106 -0.45590687 -0.0050125113
000250 15 a3 82 3f c6 13 62 3c a5 bb c9 bc 1e c1 f6 bc
       1.0206019 0.01379866 -0.024625609 -0.030121382
000260 0c 8e 6e 3d 95 c6 60 bd ac 1f 45 3f b0 8c 5f 3c
       0.058240935 -0.054876883 0.7700145 0.013644382
000270 49 0e 52 3d 76 83 78 bc b6 16 34 bf da ee 06 bd
       0.051283155 -0.0151680615 -0.70347154 -0.03294263
000280 3f 07 08 3c 45 a7 bb bc 4b a8 5f bb b3 9f fc 3c
       0.008302509 -0.022906909 -0.003412741 0.03083787
000290 6a 5d 4d bd d2 8d 14 be 12 72 09 bd de f1 6a 3d
       -0.050137915 -0.14507225 -0.03355605 0.05735957
0002a0 3b 83 10 bc 7b 4a b0 3b af b6 8f bc 54 20 d7 bc
       -0.00882035 0.0053799725 -0.017543165 -0.026260532
0002b0 e8 ad 03 3d d9 99 05 bd dd e7 b1 3c 91 db 79 bc
       0.03214827 -0.032617424 0.021717006 -0.015250103
0002c0 54 c9 88 bf 2e 28 27 be 90 93 a4 3c f0 27 79 bf
       -1.068644 -0.16323921 0.020089895 -0.97326565
0002d0 73 13 86 3c f5 62 9b bf 5c ce 04 bd 1a 5e 6c be
       0.016366696 -1.2139574 -0.032423362 -0.23082772
0002e0 83 e0 27 3d 60 e2 ee b9 79 47 fc bc 5c 7f 9d 3e
       0.040985595 -0.0004556356 -0.0307958 0.3076123
0002f0 d4 e1 43 bf df 7d 0b bd b0 55 b2 be d2 06 ea be
       -0.7651646 -0.034055587 -0.34831 -0.45708328
000300 7b df fa be 31 66 ab 3c 64 ad 37 39 2e ec cd 3e
       -0.48998627 0.020922752 0.00017516833 0.40219253
000310 4f 3b d5 3e 71 3d 38 3f 57 e0 6d bc 29 be 26 bc
       0.4164681 0.7196875 -0.014518819 -0.010177174
000320 6a ff 64 3c e8 33 08 3d d3 89 35 3e 21 e1 07 bf
       0.013976911 0.033252627 0.17728357 -0.53077894
000330 dd 31 5b be 13 24 cb 3c fa 99 bf bc 80 11 2b 3d
       -0.2140574 0.024797475 -0.023388851 0.041764736
000340 22 59 61 bc 58 ed fc 3d 2b fc fd 3c fe 38 1c 3c
       -0.013754161 0.12349957 0.031004032 0.009535072
000350 30 06 b2 3c 94 90 8c 3e e5 00 0b 3f 08 53 57 3b
       0.021731466 0.27454054 0.5429824 0.0032855887
000360 13 88 96 bf 8f 43 13 bb 7c 51 39 3f 12 e7 4b bc
       -1.1760277 -0.0022470688 0.7238996 -0.012445228
000370 22 bc fc bb e4 86 68 be 17 ac 17 bc d4 77 63 be
       -0.007712857 -0.22707707 -0.009257338 -0.2221368
000380 2e bf de be f1 ab ed bc 18 e4 07 bb 56 74 52 bc
       -0.43505234 -0.029012652 -0.002073532 -0.012845119
000390 e5 23 3a 3d f8 4e b2 3b 82 81 80 be fa 2a 0b 3d
       0.045444388 0.0054415427 -0.25098807 0.033976533
0003a0 13 2e 32 bd 69 26 35 3c 70 eb 97 3b 7e 76 22 bf
       -0.04350097 0.011056521 0.0046362206 -0.63462055
0003b0 bc cc dd bb b6 d7 2d 3d fd d6 cc 3c 35 2b 37 3c
       -0.006768791 0.042442046 0.025004858 0.011179735
0003c0 db 77 c8 3b 3b ff 19 be ff 10 a3 3c e2 ec e3 bc
       0.0061178035 -0.15038769 0.019905565 -0.027822915
0003d0 61 4e 8b 3c 29 11 3f 3b b8 77 97 3a c7 0e 8d 3e
       0.017005147 0.0029154515 0.0011556065 0.27550337
0003e0 3b e3 9c 3c 7e 51 a0 bc 68 1b 41 3b 30 fb 9f 3e
       0.01915132 -0.019570109 0.0029465798 0.31246328
0003f0 f5 d3 f5 3c 41 f9 b8 3e 2d 39 2e bc 6d ea 3d bc
       0.030008296 0.36127666 -0.010633749 -0.011591536

net.4.bias f4 [4]
000000 2d a8 7c be 08 39 50 3c 9d 26 b5 bf 18 2f a8 bf
       -0.24673529 0.01270891 -1.4152409 -1.3139372
