tau_data/seed0/SAC_STL_critic_300000.pth (torch, 549013 bytes, 10 tensors)

net1.0.weight f4 [256, 7]
0	0x3e302c65	0.17204435
1	0x3e20d8a3	0.1570764
2	0xbb8512de	-0.004061087
3	0xbeb16f96	-0.34655446
4	0xbf215a93	-0.6302883
5	0x3ea35963	0.31904134
6	0x3e78106e	0.24225017
7	0xbe22fb19	-0.15916099
8	0xbec42117	-0.38306496
9	0x3d3de720	0.046362996
10	0xbf26a01f	-0.65088075
11	0x3bffd2af	0.007807098
12	0xbb7b4663	-0.0038341514
13	0xbdfcdb2d	-0.12346492
14	0x3e984bd3	0.2974535
15	0x3d7c5847	0.061607625
16	0xbd40c33c	-0.04706119
17	0x3e88c53d	0.2671298
18	0x3ed8daac	0.42354333
19	0x3d44b159	0.048020694
20	0xbcbcf145	-0.023064265
21	0x3ef81960	0.4845686
22	0xbda1f1b5	-0.0790743
23	0x3ea19ffd	0.31567374
24	0xbd2c6da4	-0.04209675
25	0xbec9f2e4	-0.39443123
26	0x3cfb7dfd	0.030699724
27	0x3dd8ac5e	0.105797514
28	0xbe0d24c8	-0.13783562
29	0xbd823bae	-0.06359039
30	0x3e8b2c3a	0.2718218
31	0xbf332128	-0.6997247
32	0xbea15979	-0.31513575
33	0x3c8983d6	0.016786497
34	0x3d3a2c30	0.045452297
35	0x3ed177d8	0.40911746
36	0xbe132743	-0.14370446
37	0x3ea9aea3	0.3314105
38	0x3bd4f018	0.006498348
39	0x3f131d2e	0.574664
40	0xbb18c16b	-0.0023308645
41	0x3d08ee38	0.033430308
42	0x3ea8071b	0.3281792
43	0xbe6d385d	-0.23166032
44	0x3e80b372	0.25136906
45	0xbead488f	-0.3384442
46	0x3f478d07	0.77949566
47	0x3dacaa84	0.08430961
48	0xbb366f96	-0.0027837506
49	0x3bd88170	0.006607227
50	0xbe07e8e3	-0.13272433
51	0xbed88d0e	-0.42295116
52	0xbedb1d4d	-0.42795792
53	0x3d907cec	0.07055077
54	0x3c879a93	0.016553199
55	0xbc69348a	-0.014233718
56	0xbe34cc02	-0.17655948
57	0x3d005344	0.03132941
58	0xbe389edb	-0.18029349
59	0x3f01620b	0.50540227
60	0xbb4ec7de	-0.0031552236
61	0x3c0b2724	0.008493219
62	0x3de7a949	0.113115855
63	0xbe4bc863	-0.1990066
64	0xbdef9a5d	-0.11699364
65	0x3e263c31	0.16233899
66	0xbed64c68	-0.41855168
67	0xbf535b1a	-0.82560885
68	0xbd2219dd	-0.039575446
69	0xbd440617	-0.04785737
70	0x3ed20684	0.41020596
71	0xbe8385d5	-0.25688043
72	0xbe905001	-0.28186038
73	0x3dde4859	0.10853643
74	0x3ebce70f	0.36895034
75	0x3ab03568	0.0013443651
76	0xbd2dfb38	-0.04247591
77	0x3e4946df	0.19655941
78	0xbdfd5b0f	-0.12370884
79	0xbecb3aea	-0.39693385
80	0x3e966321	0.29372504
81	0xbe3afc82	-0.18260387
82	0x3e38fede	0.18065974
83	0xbe359e65	-0.17736204
84	0x3e1ca0e3	0.15295748
85	0xbe7ef037	-0.24896322
86	0x3cf526d6	0.029925745
87	0x3f794d08	0.97383165
88	0xbe69626f	-0.22791456
89	0x3d9a5fe0	0.07537818
90	0xbd495961	-0.049157504
91	0x3cc8f5b7	0.024531228
92	0x3d24662a	0.040136494
93	0xbeaf2eac	-0.34215295
94	0x3f7de7a6	0.9918159
95	0x3fbd6aab	1.4798177
96	0xbe2d7bee	-0.16941807
97	0xbe13d0d6	-0.14435133
98	0x3ec574d5	0.38565698
99	0x3c3032e4	0.010754321
100	0x3c5cfe60	0.013488382
101	0xbcf4a0b5	-0.029861787
102	0x3f394992	0.72377884
103	0xbd7ed49f	-0.06221449
104	0x3d29c9b3	0.04145212
105	0x3e98730f	0.29775283
106	0xbc6f4b8f	-0.014605417
107	0x3da3de7e	0.080014214
108	0x3ee3d81f	0.44500825
109	0xbfa28722	-1.2697489
110	0x3d87e9fc	0.06636426
111	0x3d7ed188	0.062211543
112	0x3a31804a	0.0006771131
113	0x3e3f1c98	0.18663251
114	0x3da87775	0.082259096
115	0xbefc36fe	-0.49260706
116	0xbf07e42f	-0.53082556
117	0xbc47f17e	-0.012203572
118	0xbe089fa7	-0.13342153
119	0x3adfb20c	0.0017066612
120	0x3e2fc21f	0.17163895
121	0xbeddf23e	-0.4334888
122	0x3e343e3d	0.17601867
123	0xbd9d75b3	-0.07688465
124	0xbcaa95d4	-0.020823397
125	0xbd6044a8	-0.054752976
126	0xbef4f2d5	-0.47841516
127	0x3e2cb083	0.16864209
128	0xbe855e6e	-0.26048607
129	0xbea33bb5	-0.3188149
130	0x3f18efad	0.59740716
131	0x3c68a24f	0.014198854
132	0x3cf92e26	0.030417513
133	0xbe7e91ed	-0.24860354
134	0x3d652a30	0.055948436
135	0x3ec771c7	0.38953993
136	0x3d8d9029	0.06912262
137	0x3f51cc0c	0.81951976
138	0x3d333f29	0.043761406
139	0x3cffcf6c	0.031226836
140	0xbe67f91b	-0.2265362
141	0x3e1eab08	0.1549493
142	0x3c0f108a	0.008731971
143	0xbeabacd2	-0.3353029
144	0xbf2c9869	-0.6742006
145	0xbc46d6d3	-0.012136179
146	0xbdd7f361	-0.10544468
147	0x3e86e28e	0.26344723
148	0xbdb7ef03	-0.08981135
149	0xbe01d0fd	-0.12677379
150	0xbe002962	-0.12515786
151	0x3f04d073	0.5188057
152	0x3e67f676	0.22652611
153	0x3d2c1c52	0.042019196
154	0xbebea9bc	-0.37238872
155	0x3e7daad4	0.24772197
156	0x3e3270c2	0.17425826
157	0x3f3306d1	0.69932276
158	0x3ec4c326	0.38430136
159	0x3de34f36	0.11099093
160	0xbe02d36f	-0.12775968
161	0x3e7bd500	0.24592972
162	0x3e7ea7cb	0.24868695
163	0x3da070a6	0.07833986
164	0xbf322be6	-0.69598234
165	0x3f4c6053	0.7983448
166	0x3baba728	0.0052384324
167	0x3d1a9596	0.037740313
168	0xbeea2fc5	-0.4573957
169	0xbece3489	-0.40274456
170	0xbe98850b	-0.29789004
171	0xbebdfc9d	-0.3710679
172	0x3e76a111	0.2408488
173	0x3c67e9b6	0.014154842
174	0xbd26cddf	-0.040723678
175	0xbe9cfed4	-0.30663168
176	0xbe434939	-0.19070901
177	0x3ef4f914	0.47846282
178	0xbf2a572f	-0.6653928
179	0xbed6e09d	-0.4196824
180	0x3da0a9b8	0.07844871
181	0xbd49ef23	-0.049300324
182	0xbef14763	-0.47124776
183	0x3f2ca8a8	0.6744485
184	0x3d2d17f7	0.042259183
185	0x3dea414b	0.11438235
186	0x3edf803a	0.43652517
187	0xbd3440e5	-0.0440072
188	0xbdb7a1d4	-0.08966413
189	0xbd81a2dd	-0.06329892
190	0x3ea92612	0.33036858
191	0xbdc770a4	-0.09738281
192	0x3f42d1ee	0.7610158
193	0x3e8d4bfb	0.2759703
194	0x3d8ffc22	0.070305124
195	0x3dbe84c3	0.09302666
196	0xbe6e7a5c	-0.23288864
197	0xbeeb579a	-0.45965272
198	0x3dc7a9a5	0.09749154
199	0xbe893a58	-0.26802325
200	0x3dc780f7	0.09741395
201	0x3e5a5492	0.21321324
202	0x3cc92858	0.02455537
203	0x3d96caaa	0.07362874
204	0x3e86bf0c	0.26317632
205	0xbe39bf8f	-0.1813948
206	0x3e939245	0.28822532
207	0xbbddb32f	-0.006765745
208	0x3e32eb07	0.17472468
209	0xbdf1b78e	-0.118025884
210	0x3e434147	0.1906787
211	0xbe473d50	-0.19456983
212	0x3e36047b	0.17775147
213	0xbf02758d	-0.5096062
214	0xbea28de0	-0.31748867
215	0xbda79cca	-0.08184202
216	0x3bb16f23	0.00541486
217	0x3ddccf6c	0.1078175
218	0x3e630114	0.2216838
219	0x3dca1637	0.098675184
220	0xbe364b44	-0.17802149
221	0x3e4e8b91	0.20170428
222	0x3e6e94e9	0.23298992
223	0x3e811c51	0.25216916
224	0x3dee945f	0.11649393
225	0x3f0c95a7	0.5491585
226	0xbed22721	-0.41045478
227	0xbe8a9a78	-0.27070975
228	0xbeae7626	-0.34074515
229	0x3c000fca	0.007816264
230	0x3d64cd61	0.055859927
231	0xbd8355c9	-0.064128466
232	0xbe2a6996	-0.1664184
233	0x3d708d9b	0.058728795
234	0xbf3681f3	-0.71292037
235	0xbe5f8d42	-0.2183123
236	0xbcc61b8e	-0.024183061
237	0x3c6f5dc5	0.014609759
238	0xbee9c5ba	-0.45658666
239	0xbee41a0f	-0.4455113
240	0x3e5ade2c	0.21373814
241	0x3e9ca1bd	0.30592147
242	0xbde08f90	-0.109648824
243	0x3c38de75	0.011283507
244	0x3e20d634	0.15706712
245	0x3da9cd52	0.08291115
246	0xbdd6afbd	-0.10482738
247	0xbdadffc6	-0.084960505
248	0x3e4496a1	0.19198085
249	0xbf1ab516	-0.60432565
250	0xbe11e8c5	-0.14248951
251	0x3daf5ab7	0.08562224
252	0x3e0f4fff	0.1399536
253	0xbeb7b51a	-0.35880357
254	0xbd56d5d3	-0.052450012
255	0xbf5c6c17	-0.8610243

net1.0.bias f4 [256]
0	0x3e42eabb	0.19034855
1	0x3efde25f	0.4958677
2	0x3ec9a64c	0.39384687
3	0xbec9d7c9	-0.39422444
4	0x3e6b06ec	0.22951859
5	0xbdafa15b	-0.08575698
6	0xbe183811	-0.14865138
7	0x3f00cf35	0.5031617
8	0xbf3a455c	-0.72762084
9	0x3f120d25	0.57051307
10	0x3e84b562	0.25919634
11	0x3eed875a	0.46392328
12	0xbeffafeb	-0.49938902
13	0x3e400467	0.1875168
14	0xbe9bb70a	-0.30413085
15	0xbe953384	-0.29140866
16	0xbc8743b4	-0.016511776
17	0x3ee84f7c	0.45373142
18	0xbf059d91	-0.5219355
19	0xbf2b8653	-0.6700184
20	0x3ead1680	0.3380623
21	0x3e11d733	0.14242248
22	0xbe7013b7	-0.2344502
23	0xbe78ae30	-0.24285197
24	0xbef8ef00	-0.48619843
25	0x3de1b87b	0.11021515
26	0xbec82027	-0.3908703
27	0xbf088905	-0.53334075
28	0xbef8abc0	-0.48568535
29	0x3ee6b728	0.45061612
30	0x3eb9f177	0.36317036
31	0xbef698fa	-0.48163587
32	0xbe2527d7	-0.16128479
33	0x3e2d0da5	0.16899736
34	0x3ea9bc0f	0.3315129
35	0x3f130931	0.574359
36	0x3e3aa743	0.18227868
37	0x3ead3b9d	0.33834544
38	0xbe8d1596	-0.2755553
39	0x3f4bb1ee	0.79568374
40	0x3f2deb76	0.6793741
41	0xbee5fd1d	-0.44919673
42	0x3d65830a	0.05603317
43	0xbe6b8032	-0.22998121
44	0xbeb94cd9	-0.36191443
45	0xbf09d430	-0.538394
46	0x3cac8544	0.02105964
47	0xbf2e845c	-0.68170714
48	0x3f1fb757	0.6238913
49	0x3e3a6a56	0.18204626
50	0x3f1e463f	0.6182594
51	0xbecdb8d2	-0.4018007
52	0x3ee8854f	0.45414206
53	0xbede8143	-0.43457994
54	0x3f17d5a2	0.5931035
55	0x3e909424	0.28238022
56	0x3da16cc5	0.07882074
57	0x3ea6ffee	0.32617134
58	0xbdfdad74	-0.12386599
59	0x3e6830fc	0.22674936
60	0xbdef0ae7	-0.11672001
61	0x3f0ab5da	0.54183733
62	0x3f1e78c5	0.6190303
63	0xbf11e47e	-0.56989276
64	0xbf1e1264	-0.6174681
65	0x3e6ffbbe	0.23435876
66	0xbf55593b	-0.8333928
67	0x3f019bc6	0.50628316
68	0xbe5639d9	-0.20920505
69	0x3ea7fe58	0.32811236
70	0x3e7a3479	0.24434079
71	0x3f071419	0.5276504
72	0xbedfce44	-0.43712056
73	0xbe70a14e	-0.23499033
74	0x3dd0aba4	0.10188988
75	0xbd75d7e8	-0.060020357
76	0x3f200a05	0.6251529
77	0x3ee74b2f	0.45174548
78	0x3ee42636	0.44560403
79	0x3ebf8d01	0.37412265
80	0xbed2b6ef	-0.41155192
81	0xbf113e41	-0.56735617
82	0x3f142a18	0.5787673
83	0xbe90cf72	-0.28283268
84	0xbecba069	-0.3977082
85	0x3e91c318	0.28469157
86	0x3f1ff529	0.6248346
87	0x3d7db5a8	0.06194082
88	0x3f1a923b	0.6037938
89	0x3f146e8f	0.579812
90	0x3d863ea1	0.06554914
91	0x3dd0b812	0.101913586
92	0xbf323508	-0.6961217
93	0xbef32406	-0.4748842
94	0x3f628718	0.88487387
95	0x3f345548	0.7044263
96	0x3e4edc5b	0.20201246
97	0x3ef8bc20	0.48581028
98	0x3f13c1b2	0.5771743
99	0xbed4d122	-0.41565806
100	0xbe129214	-0.14313537
101	0xbf2787ce	-0.65441597
102	0xbbe6d548	-0.007044468
103	0x3ea9465f	0.330615
104	0x3e09179f	0.13387917
105	0xbf65bbde	-0.8973979
106	0xbcaa97b0	-0.020824283
107	0xbf0296e8	-0.51011515
108	0x3e853866	0.2601959
109	0x3f3cf3cf	0.7380952
110	0xbf17b8ce	-0.59266365
111	0x3f2bff69	0.671866
112	0xbef4a186	-0.47779483
113	0xbf2412c1	-0.64091116
114	0x395e9008	0.00021225226
115	0xbeaec4c4	-0.34134495
116	0xbef27904	-0.47357953
117	0x3ed1a250	0.40944147
118	0x3ee55a6e	0.44795555
119	0x3ea8163e	0.3282947
120	0xbf54791c	-0.829973
121	0xbdd96c3c	-0.10616347
122	0xbe94aa19	-0.29036024
123	0x3f0992f8	0.5373988
124	0x3eb47b8c	0.3525051
125	0xbf0be105	-0.5464023
126	0x3f16e8e6	0.58949125
127	0x3efefe26	0.49803275
128	0x3f000c6b	0.5001895
129	0x3e771905	0.24130638
130	0xbd4452a9	-0.047930393
131	0x3d10bc75	0.035335977
132	0xbef6ee5a	-0.48228723
133	0xbe9af193	-0.30262432
134	0x3e45685f	0.19278096
135	0x3e96f40a	0.29483062
136	0x3f1c4e3d	0.6105688
137	0x3eee71a9	0.4657109
138	0xbe947dc9	-0.29002216
139	0x3f18d787	0.5970387
140	0xbf0e1268	-0.55496836
141	0x3f0919eb	0.5355517
142	0x3ee39de8	0.4445641
143	0xbf091df2	-0.5356132
144	0x3ee5e4cd	0.44901124
145	0xbf054fd6	-0.52074945
146	0xbf07cc15	-0.5304578
147	0xbf13bc2d	-0.5770901
148	0xbebc5f7d	-0.36791602
149	0x3eb9bdbc	0.36277568
150	0x3ee94008	0.45556664
151	0xbd8a16b3	-0.06742611
152	0x3ea27b81	0.3173485
153	0xbf06edcf	-0.5270662
154	0x3f0dc727	0.5538201
155	0xbf462c01	-0.77410895
156	0x3f1a958c	0.6038444
157	0xbeaddf2c	-0.3395933
158	0x3e713cfb	0.23558418
159	0xbecb1109	-0.39661434
160	0xbf540aae	-0.82828796
161	0x3f1e67e2	0.6187726
162	0x3e4c852c	0.19972676
163	0xbeec2be9	-0.4612725
164	0x3f066135	0.52492076
165	0xbd3a47a1	-0.045478467
166	0x3ee94594	0.45560896
167	0x3f22cba3	0.63591975
168	0xbed1d8e6	-0.40985793
169	0x3f44b0ab	0.76832074
170	0x3e510667	0.20412599
171	0xbf74d3ab	-0.9563548
172	0x3d84146f	0.0644921
173	0xbe0a1ee0	-0.1348834
174	0xbe8e9201	-0.27845767
175	0xbf0bcc99	-0.54609066
176	0xbee83572	-0.45353276
177	0xbe98761c	-0.2977761
178	0xbf058621	-0.5215779
179	0x3f1dfed5	0.6171697
180	0x3f15d21d	0.5852373
181	0xbed1e290	-0.40993166
182	0xbf64d435	-0.893863
183	0x3e888999	0.2666748
184	0x3e41521d	0.1887898
185	0x3f1c868f	0.6114282
186	0xbed0623b	-0.40699944
187	0xbecffc77	-0.40622303
188	0x3ed15755	0.40886942
189	0x3ec4e844	0.38458455
190	0xbf086466	-0.53278196
191	0xbe06aebf	-0.13152598
192	0x3d44ee3f	0.04807877
193	0x3f31898f	0.6935052
194	0xbe98a203	-0.29811105
195	0x3ef519bb	0.47871193
196	0x3ebba2a8	0.36647534
197	0xbe1a2c0f	-0.1505587
198	0xbea84103	-0.328621
199	0x3f000339	0.5000492
200	0xbe3efa3b	-0.18650143
201	0xbecf74dc	-0.40518844
202	0x3ddb590f	0.10710346
203	0x3f47ab79	0.7799602
204	0x3f2091bd	0.6272238
205	0xbeb63e0f	-0.35594222
206	0x3e6004e3	0.21876864
207	0x3f55516a	0.83327353
208	0x3e193659	0.14962138
209	0xbf5110e7	-0.81666416
210	0x3eb5a137	0.3547456
211	0x3ee24f35	0.44201055
212	0x3f072368	0.527884
213	0xbf275d0f	-0.6537637
214	0xbf19c7f6	-0.6007074
215	0xbdb82fa1	-0.089934595
216	0x3f0f3520	0.5594044
217	0x3f2615ca	0.64877
218	0x3ef78663	0.48344716
219	0xbe6e2ad1	-0.2325852
220	0x3eb260e1	0.34839538
221	0xbf07e39c	-0.5308168
222	0x3e6a844f	0.22902034
223	0x3edda976	0.4329335
224	0xbdeb4ab7	-0.1148886
225	0x3ee7dd7e	0.45286173
226	0xbde74240	-0.11291933
227	0x3eaa239f	0.33230302
228	0x3e63a923	0.2223249
229	0x3eb961d8	0.3620746
230	0x3f2ff230	0.68728924
231	0xbf411e2e	-0.75436676
232	0xbe961473	-0.29312477
233	0x3eb89e00	0.36058044
234	0xbee689fe	-0.45027155
235	0x3e74c6d8	0.23903978
236	0xbf2fe175	-0.68703395
237	0x3ec431dc	0.3831929
238	0x3f0fb0a6	0.5612892
239	0xbea69aa8	-0.32539868
240	0xbf569e1a	-0.83834994
241	0x3e78ff91	0.24316241
242	0xbd9cefb3	-0.076629065
243	0x3ed76abd	0.42073622
244	0x3eb8728a	0.36024886
245	0x3f167e9f	0.5878696
246	0xbf4b4cb7	-0.7941393
247	0xbf2ab4f6	-0.66682374
248	0x3ef4f72c	0.47844827
249	0x3ef5c244	0.47999775
250	0xbe01c562	-0.12672952
251	0xbeb5deb7	-0.3552148
252	0xbee9d6ca	-0.45671684
253	0x3dc13e71	0.09435738
254	0x3f29400c	0.6611335
255	0x3ebde37a	0.37087613

net1.2.weight f4 [256, 256]
0	0xbf0489af	-0.5177259
1	0xbd9c8b12	-0.07643713
2	0x3d9793b0	0.07401216
3	0x3de5eeea	0.1122721
4	0x3d2d53bc	0.042316183
5	0x3da6c227	0.081425
6	0x3debbbef	0.11510455
7	0xbeb9b4ad	-0.36270657
8	0x3d8a1e00	0.06744003
9	0xbd859daf	-0.065242164
10	0x3bf8dad5	0.007594446
11	0xbe336322	-0.17518285
12	0x3e35e279	0.17762174
13	0xbec9a953	-0.39386997
14	0x3ea1096b	0.31452498
15	0x3e45eee3	0.1932941
16	0xbe205c8c	-0.15660304
17	0x3e1b201e	0.1514897
18	0x3e23c257	0.15992104
19	0x3dc7d569	0.09757502
20	0xbe70685f	-0.23477314
21	0xbca66b45	-0.020314822
22	0x3b1ae1e1	0.002363317
23	0xbea42036	-0.32055825
24	0x3d0b3f3a	0.033995844
25	0xbc044ffb	-0.008075709
26	0x3e18ac90	0.14909577
27	0x3ee692c4	0.45033848
28	0x3db95a67	0.09050446
29	0xbe5c02b9	-0.21485414
30	0xbbb77d4e	-0.0055996543
31	0xbf5630c2	-0.8366815
32	0x3ec6ef00	0.38854218
33	0xbd11638d	-0.03549533
34	0x3d467dd9	0.04845986
35	0xbdbc07a6	-0.09181146
36	0xbdacce21	-0.084377535
37	0xbe1aefa6	-0.15130481
38	0x3d815aff	0.06316184
39	0xbb3edc47	-0.0029122995
40	0xbdb2ce98	-0.08730811
41	0xbc1fadf2	-0.009746062
42	0xbcac1ad0	-0.021008879
43	0x3e0523bb	0.13001911
44	0x3dcd2ff7	0.10018914
45	0x3e8be553	0.27323398
46	0xbd8a3a73	-0.067494296
47	0xbd39b1e3	-0.04533566
48	0xbddcaf4e	-0.10775624
49	0x3cc26128	0.023727968
50	0xbeab4575	-0.3345143
51	0x3da971d3	0.08273663
52	0xbe8cfb7b	-0.27535614
53	0x3dc1cf37	0.09463351
54	0xbec78ac3	-0.38973054
55	0xbd095a21	-0.03353322
56	0xbd8b012a	-0.067873314
57	0xbc0da19b	-0.008644487
58	0x3d820233	0.06348076
59	0xbe6c0894	-0.23050147
60	0x3e417976	0.1889399
61	0xbd5943df	-0.053043243
62	0xbe684777	-0.22683512
63	0x3d5933dc	0.053027973
64	0x3d25959d	0.040425885
65	0x3d56073e	0.052253
66	0x3dd577c4	0.10423234
67	0x3c3fbe7a	0.011703128
68	0x3e7dd7d3	0.24789362
69	0x3d797170	0.060899198
70	0xbd8de794	-0.06928936
71	0xbd8d7983	-0.06907942
72	0x3deb9a68	0.1150406
73	0xbd69442c	-0.05694978
74	0xbe174f73	-0.14776401
75	0x3d210238	0.039308757
76	0x3d02b9d6	0.03191551
77	0x3d39cc17	0.04536065
78	0xbd9981f4	-0.0749549
79	0xbcf671ea	-0.030083615
80	0x3cd1964c	0.025584362
81	0x3e62aac2	0.22135451
82	0xbd21084c	-0.039314553
83	0x3dbfddd4	0.09368482
84	0x3e862596	0.2620055
85	0xbe067c09	-0.13133253
86	0x3d0e4234	0.034731105
87	0x3d5b6d13	0.05357082
88	0x39cfe243	0.00039650695
89	0xbe3076c2	-0.17232803
90	0xbe5821ed	-0.21106692
91	0x3e9284c8	0.2861693
92	0x3e47cecb	0.19512479
93	0xbdc7602c	-0.0973514
94	0xbc92f422	-0.017938677
95	0x3b310f37	0.0027017125
96	0xbd84a006	-0.064758345
97	0x3d529269	0.05140916
98	0xbdcda798	-0.100417316
99	0xbf1577b8	-0.583858
100	0x3d384db6	0.044995986
101	0xbe058fbd	-0.13043113
102	0xbdee3e33	-0.11632957
103	0xbdcb2a0d	-0.0992013
104	0xbe90f80d	-0.28314248
105	0xbfa35b20	-1.2762184
106	0x3d8ca04b	0.06866511
107	0x3e46d487	0.1941701
108	0xbe5b1d19	-0.21397819
109	0xbd62a8d1	-0.055336777
110	0x3ded7e98	0.115964115
111	0xbf41563e	-0.7552222
112	0xbe9e1a14	-0.3087927
113	0xbe8979f6	-0.2685086
114	0xbd65aef0	-0.056075037
115	0x3dc509fe	0.096210465
116	0x3d8fa47e	0.07013796
117	0xbbda604e	-0.0066643124
118	0xbe619f42	-0.22033408
119	0x3dab7950	0.08372748
120	0xbf197d8c	-0.59957194
121	0x3dae5e37	0.08514064
122	0xbeaf66ae	-0.34258026
123	0xbd4c68d2	-0.049904652
124	0xbeca4d9c	-0.39512336
125	0x3dfd414f	0.12365972
126	0xbde8982f	-0.11357152
127	0xbe504495	-0.20338662
128	0xbb4ea50e	-0.0031531486
129	0xbdf6311b	-0.12021085
130	0xbdaca326	-0.084295556
131	0x3c245512	0.010030048
132	0xbd882af2	-0.06648816
133	0xbf19ae25	-0.6003135
134	0xbd66a8c5	-0.056313295
135	0x3c0dc6af	0.008653327
136	0xbe2b91b3	-0.16754799
137	0x3d309f4c	0.043120667
138	0x3cf89dc3	0.030348664
139	0xbd54aebd	-0.051924456
140	0x3dc3ca91	0.09560121
141	0xbde8dc19	-0.11370105
142	0xbdbaad98	-0.09115142
143	0x3d898fcc	0.0671688
144	0xbdba1bce	-0.090873346
145	0x3cef69d1	0.029225262
146	0x3e013714	0.12618667
147	0xbccae8a8	-0.024769142
148	0xbd2968cc	-0.041359708
149	0xbd1dca7d	-0.038523186
150	0xbe48c6d5	-0.19607098
151	0xbe72b877	-0.2370318
152	0xbdf32a49	-0.118733
153	0xbe27ca25	-0.16385706
154	0xbeb44d7f	-0.35215375
155	0x3e642eff	0.22283553
156	0xbdaf47f8	-0.08558649
157	0x3ee735af	0.45158145
158	0x3db6a4da	0.08918162
159	0x3b2239b6	0.0024753637
160	0xbe4efe22	-0.20214131
161	0xbdfc0c5d	-0.123070456
162	0x3e2da7a1	0.16958477
163	0xbda9cf75	-0.082915224
164	0xbe987414	-0.2977606
165	0x3d563220	0.052293897
166	0x3d0b6ce2	0.034039386
167	0xbebb8cfa	-0.36630994
168	0x3e0bf5ac	0.13667935
169	0xbc9e0294	-0.019288339
170	0x3da5e041	0.08099414
171	0xbf3a0f36	-0.7267946
172	0x3c353dae	0.011062069
173	0x3cd38e66	0.025824737
174	0x3bfe9925	0.007769721
175	0xbc147842	-0.009061875
176	0x3e667cd3	0.22508554
177	0xbc29d7cc	-0.010366391
178	0xbe5d92a2	-0.21637967
179	0xbf7131d8	-0.9421668
180	0x3d084242	0.033266313
181	0x3d713f61	0.058898333
182	0x3c0321ed	0.008003694
183	0x3d25883b	0.040413123
184	0xbd0027fe	-0.03128814
185	0xbe29eff3	-0.1659544
186	0x3dd49f86	0.10381989
187	0x3e973435	0.29532018
188	0xbe6623f4	-0.22474653
189	0x3e1aa1f1	0.15100838
190	0x3e002852	0.12515381
191	0x3dbadc1e	0.09124015
192	0xbe85f2d5	-0.2616183
193	0x3cf22a95	0.02956132
194	0x3dbb7288	0.091527045
195	0xbdbcb2c0	-0.09213781
196	0xbdee0ead	-0.11623893
197	0x3e4e52e2	0.20148805
198	0x3da81e1f	0.0820887
199	0x3d821688	0.06351954
200	0x3eb2005f	0.34765908
201	0x3e22a73a	0.15884104
202	0x3d1bc27d	0.038027275
203	0xbe295f13	-0.16540174
204	0xbe8cd4d2	-0.2750612
205	0x3e1db2ea	0.15400282
206	0xbe0ab095	-0.13543923
207	0xbcc21c7a	-0.02369522
208	0xbe0a0763	-0.1347938
209	0xbe4ef2f8	-0.20209873
210	0x3d671c6a	0.056423582
211	0xbe88af4b	-0.26696238
212	0xbd5bc1a1	-0.053651456
213	0x3dea0b15	0.11427895
214	0x3d94c247	0.07263618
215	0x3dce55b4	0.1007494
216	0x3d49ac41	0.04923654
217	0xbc899c8a	-0.016798276
218	0x3dccb543	0.099955104
219	0x3cdd6e13	0.027030027
220	0x3db31ee4	0.08746126
221	0x3bb0dc88	0.005397383
222	0x3d79ba9f	0.06096899
223	0xbd212254	-0.03933938
224	0xbed3705a	-0.41296655
225	0x3d1937cf	0.03740674
226	0xbeeeb309	-0.46620968
227	0xbe1e4945	-0.15457638
228	0x3dc9b3df	0.09848761
229	0x3d276d81	0.040875915
230	0xbef3df76	-0.47631425
231	0x3cc067ab	0.023486933
232	0xbe77be45	-0.24193676
233	0x3e6ededd	0.23327203
234	0x3efd2276	0.49440354
235	0x3df0456d	0.11731992
236	0x3b06c797	0.0020565742
237	0xbe1a9b3c	-0.1509828
238	0xbd9fd746	-0.07804732
239	0x3e944eab	0.2896627
240	0xbe500f89	-0.20318426
241	0xbc069b23	-0.008215698
242	0x3a9a2128	0.0011759149
243	0xbe287f83	-0.16454892
244	0xbd2cc241	-0.042177442
245	0x3e0a946a	0.13533178
246	0xbe024d45	-0.12724788
247	0xbd9664a2	-0.07343413
248	0xbda17472	-0.07883538
249	0xbd239721	-0.03993905
250	0xbc1e8281	-0.009674669
251	0xbf13d3e3	-0.5774519
252	0x3e3f3c82	0.18675426
253	0xbeef1b62	-0.4670058
254	0xbee0d4d2	-0.4391237
255	0xbcc301a2	-0.02380449

net1.2.bias f4 [256]
0	0xbe850725	-0.25982013
1	0xbeb68750	-0.3565011
2	0x3e76257f	0.24037741
3	0xbd60a5e0	-0.05484569
4	0xbd81fe9b	-0.0634739
5	0xbd87ad88	-0.06624895
6	0xbd29f611	-0.041494433
7	0x3e680322	0.22657445
8	0x3ca35b6d	0.019941056
9	0x3afed968	0.0019443454
10	0xbe764856	-0.24051031
11	0xbea51b2f	-0.32247302
12	0x3ddfdc4a	0.10930689
13	0xbd8516a4	-0.06498459
14	0x3e901d0c	0.2814716
15	0x3e30450d	0.17213841
16	0x3d39426b	0.045229357
17	0x3d2326dd	0.039831985
18	0xbb7d387d	-0.0038638406
19	0xbd2e6321	-0.042575005
20	0xbf331099	-0.699472
21	0x3d130238	0.035890788
22	0x3cb0d6d1	0.021586807
23	0x3e099f89	0.13439764
24	0xbc71ec70	-0.014765844
25	0x3e9212a0	0.28529835
26	0xbd53708f	-0.051621016
27	0x3ce868d8	0.028370306
28	0xbe934cc0	-0.28769493
29	0x3c173331	0.009228514
30	0xbd7de332	-0.06198425
31	0xbd147bce	-0.03625088
32	0x3e947897	0.28998253
33	0x3e1da545	0.15395077
34	0xbde56245	-0.11200384
35	0xbe3dd968	-0.18539965
36	0x3e7ee134	0.24890596
37	0x3e2e6ee5	0.1703449
38	0x3e536cae	0.20646927
39	0x3db928b3	0.09040966
40	0xbe6c1708	-0.2305566
41	0xbd30acac	-0.043133423
42	0x3e5b848f	0.21437286
43	0x3de8e824	0.11372402
44	0xbf0541df	-0.52053636
45	0xbefcf3c2	-0.49404722
46	0xbe6f73ad	-0.2338397
47	0xbd735ac2	-0.059412725
48	0x3e9d5849	0.3073142
49	0x3d0e73ae	0.03477829
50	0x3dd17d8e	0.10229026
51	0xbd3f89be	-0.04676222
52	0xbc57c0e2	-0.013168545
53	0xbe781c7f	-0.2422962
54	0x3c94b4ec	0.018152677
55	0x3d20141a	0.03908167
56	0xbcd4c923	-0.025974816
57	0x3c976e4a	0.018485207
58	0x3e21bff1	0.15795876
59	0x3cc140ea	0.023590524
60	0xbd5ad909	-0.053429637
61	0xbda5e791	-0.081008084
62	0x3e2903ad	0.16505308
63	0xbe8f452f	-0.2798247
64	0xbd51667f	-0.05112314
65	0x3c356293	0.011070865
66	0x3e161882	0.14657786
67	0xbce7dccc	-0.028303526
68	0x3db77f59	0.089598365
69	0xbb75af77	-0.0037488618
70	0x3e8c3d01	0.27390292
71	0xbe917946	-0.28412837
72	0xbe4dae5f	-0.20086049
73	0xba857a0e	-0.001018347
74	0xbe971528	-0.29508328
75	0xbd0d6e9c	-0.034529313
76	0xbcba4550	-0.022738129
77	0xbdaf34bf	-0.085549824
78	0xbed94e4b	-0.42442545
79	0xbf0f748f	-0.5603723
80	0x3e908cca	0.28232414
81	0xbe273d21	-0.16331913
82	0xbc6c7656	-0.01443251
83	0xbf1a0e67	-0.60178226
84	0x3e2dde04	0.16979223
85	0xbd62438f	-0.05524021
86	0x3bb46db8	0.0055062436
87	0x3e50329e	0.20331809
88	0x3e2057fd	0.15658565
89	0x3e138eec	0.14409989
90	0xbd94753e	-0.07248925
91	0xbcda4e26	-0.026648592
92	0x3c6eb0f1	0.014568553
93	0xbd2c1fbb	-0.042022448
94	0x3c5afc39	0.013365799
95	0x3d5be796	0.053687654
96	0xbb4c92fe	-0.0031215544
97	0x3e78da68	0.24302065
98	0x3cc08e62	0.023505393
99	0xbeb3b9a7	-0.3510258
100	0x3d179f5c	0.03701721
101	0xbf09644f	-0.53668684
102	0xbdf14636	-0.1178097
103	0x3d1ba79b	0.038001638
104	0xbcba6eb8	-0.022757873
105	0x3e1b4c56	0.15165839
106	0x3be69a2a	0.0070374208
107	0x3d54781a	0.05187235
108	0x3d23643d	0.039890517
109	0xbd78f84c	-0.06078367
110	0xbc5e291d	-0.013559607
111	0xbd5d9530	-0.054097354
112	0xbcfe2a4d	-0.03102603
113	0x3e8b300d	0.27185097
114	0x3cf6e331	0.03013763
115	0x3e666c5a	0.2250227
116	0x3ea6092b	0.3242887
117	0xbeebcbf1	-0.46054032
118	0x3ce4a6ce	0.02791157
119	0xbcef7091	-0.02922848
120	0x3e6ea606	0.2330552
121	0x3ea0e0d9	0.31421545
122	0xbe3aaf44	-0.18230921
123	0xbc15340a	-0.009106645
124	0x3e767a3c	0.24070066
125	0x3e3f3411	0.18672206
126	0x3deb7cb0	0.11498392
127	0x3e982c3b	0.29721245
128	0x3e78f444	0.2431193
129	0xbc9c9321	-0.019113125
130	0x3e5db243	0.21650033
131	0x3e2d7dda	0.1694254
132	0x3e410975	0.18851264
133	0xbe1d86bf	-0.15383433
134	0x3b896249	0.0041926247
135	0x3eb7b402	0.35879523
136	0x3e909985	0.28242126
137	0xbe00ea6d	-0.12589426
138	0xbc9e93f8	-0.019357666
139	0xbd8c1426	-0.068397805
140	0xbeb49731	-0.352716
141	0xbb9babd3	-0.0047507077
142	0x3c1aa7b4	0.009439398
143	0x3c72c8d0	0.014818385
144	0xbdd97bd2	-0.1061932
145	0x3dc91821	0.09819055
146	0xbee65c9d	-0.44992533
147	0xbf018b90	-0.5060358
148	0x3e8c7dd2	0.27439743
149	0x3e2bff6d	0.16796656
150	0x3e7b99ff	0.24570464
151	0x3dcc76f7	0.09983628
152	0xbeae19dd	-0.34004107
153	0xbe5ce3ae	-0.21571228
154	0xbd6b15ee	-0.05739396
155	0x3e8419e4	0.25801003
156	0x3e8fc96c	0.2808336
157	0xbbf5a640	-0.007496625
158	0xbe68c02a	-0.22729555
159	0x3c38c63b	0.011277731
160	0xbd35e85c	-0.04441105
161	0xbd2cddbc	-0.04220365
162	0xbeaabee2	-0.33348757
163	0x3e94863a	0.29008657
164	0x3d4c6d75	0.049909074
165	0xbd276ad1	-0.040873352
166	0x3e4b06f7	0.19826876
167	0xbef5f04d	-0.48034897
168	0x3da2a40f	0.07941448
169	0xbd8128bc	-0.063065976
170	0x3e86e698	0.26347804
171	0x3e8040c1	0.25049403
172	0x3d758d03	0.059948932
173	0xbd957f7e	-0.07299708
174	0x3e2ee785	0.17080505
175	0x3b0bcf00	0.0021333098
176	0xbcd59a33	-0.026074504
177	0xbd477de3	-0.04870404
178	0xbc888a1b	-0.016667416
179	0x3ca969d3	0.020680344
180	0xbd84ffff	-0.0649414
181	0xbd9f1ee3	-0.07769563
182	0x3e86b7b9	0.26312044
183	0xbd898fc2	-0.06716873
184	0x3e2dbd6b	0.16966788
185	0x3d09ff0d	0.0336905
186	0xbd8bf955	-0.06834666
187	0x3e1c07b1	0.15237309
188	0xbc261717	-0.010137341
189	0xbe5c588c	-0.21518153
190	0xbbeb6216	-0.0071833236
191	0x3e3bb3eb	0.18330352
192	0xbcfe6119	-0.03105216
193	0xbd203fdd	-0.039123405
194	0xbd03a16e	-0.032136373
195	0xbd7f38df	-0.062310096
196	0xbd602c91	-0.05473
197	0x3d08c529	0.03339115
198	0x3c9e1bda	0.01930039
199	0x3da5a5ac	0.0808824
200	0xbd19f705	-0.03758909
201	0xbcc0d8ef	-0.023540942
202	0x3d00df68	0.031463057
203	0xbd96f755	-0.073713936
204	0x3d60221a	0.05472002
205	0xbd29ae4b	-0.041425984
206	0x3e761f55	0.2403539
207	0xbc19ef31	-0.009395407
208	0x3e4a7909	0.19772734
209	0x3c82f763	0.015987104
210	0xbf1fee52	-0.6247302
211	0x3c7e3ed8	0.015517913
212	0x3e65b55f	0.22432469
213	0xbd515220	-0.05110371
214	0xbc4d38cb	-0.0125257475
215	0xbeacc4dc	-0.33743942
216	0x3e198242	0.14991096
217	0x3e1ad58d	0.15120526
218	0xbd9a5b23	-0.07536914
219	0x3e8a2a62	0.2698546
220	0x3d131da6	0.035916947
221	0xbee97a46	-0.456011
222	0xbe8bb276	-0.27284592
223	0x3cdc5dbd	0.026900167
224	0x3e2c8f4f	0.16851543
225	0xbde42f42	-0.11141826
226	0xbd8d3bb2	-0.068961516
227	0xbd0cbffd	-0.03436278
228	0xbedb792a	-0.42865878
229	0x3e467f65	0.19384535
230	0x3de1ee49	0.110317774
231	0x3e60a6f9	0.21938695
232	0xbed0a306	-0.40749377
233	0x3d08c2e4	0.033388987
234	0xbd36638e	-0.044528536
235	0xbdd18143	-0.10229733
236	0xbd80cc6f	-0.062889926
237	0x3e365b18	0.17808187
238	0xbd8a71fe	-0.067600235
239	0xbf0a42e3	-0.5400831
240	0xbd82076c	-0.06349072
241	0x3d9ecd1b	0.077539645
242	0xbd2d21ae	-0.042268448
243	0x3e5cd6bb	0.21566288
244	0x3e637131	0.22211148
245	0xbec8b91c	-0.39203727
246	0x3e81254d	0.2522377
247	0xbdac9c59	-0.084282584
248	0x3e4fd8ee	0.20297596
249	0xbe2c881f	-0.16848801
250	0x3d258580	0.04041052
251	0x3d25f207	0.04051402
252	0x3d0db51d	0.03459655
253	0x3e45562b	0.19271152
254	0xbd24885d	-0.04016911
255	0x3d2d30f0	0.042283

net1.4.weight f4 [1, 256]
0	0x3dbd955b	0.09257003
1	0x3ef00e9e	0.46886152
2	0xbf928cb3	-1.1449188
3	0x3ad10043	0.0015945513
4	0xbbcdf3db	-0.0062851734
5	0xbc78bacb	-0.015181254
6	0x3c89a524	0.016802378
7	0xbde05bb6	-0.109549925
8	0xbab66bff	-0.0013917683
9	0xbd10e601	-0.0353756
10	0x3d4559ab	0.048181217
11	0x3e0a8de6	0.13530692
12	0xbf87f8f0	-1.0622845
13	0x3c0df31f	0.008663922
14	0xbdfcf31f	-0.12351059
15	0xbde24af7	-0.11049455
16	0xbc49c936	-0.012316039
17	0x3b9fbff8	0.0048751794
18	0x39840201	0.00025178495
19	0xbcae59ee	-0.021283116
20	0x3f0bde6e	0.54636276
21	0xbf3c48ca	-0.7354857
22	0x3d4f490b	0.05060677
23	0xbe047502	-0.1293526
24	0x3d0ee674	0.034887746
25	0xbe27fea8	-0.16405737
26	0x3d141ff9	0.036163304
27	0xbce08f7e	-0.027412172
28	0x3de99961	0.11406208
29	0xbd0ba4e0	-0.034092784
30	0xbcf40407	-0.029787077
31	0x3d05190d	0.032494593
32	0xbe33ce20	-0.17559099
33	0xbdd4bd84	-0.1038771
34	0x38c4b77d	9.380186e-05
35	0x3a480295	0.0007629779
36	0xbdf71865	-0.120652
37	0xbde67e02	-0.11254503
38	0xbdedbb3e	-0.11607979
39	0xbdc0593b	-0.09392019
40	0xbaa5f321	-0.0012660959
41	0x3ba8c71a	0.005150688
42	0xbdcddd88	-0.10052019
43	0xbfec399d	-1.8455082
44	0x3ed04efb	0.40685257
45	0x3edff2ee	0.43740028
46	0x3f6a138e	0.9143609
47	0xbd26c541	-0.04071546
48	0xbe2c1fcd	-0.16809006
49	0x3d1e4062	0.03863562
50	0xbf7b3a4b	-0.98135823
51	0xbcbafd49	-0.022825854
52	0x3cd70e78	0.026252016
53	0x3ee56cc4	0.44809544
54	0x3c2071f3	0.009792793
55	0x3d08eb32	0.033427425
56	0xbc85d97b	-0.016339054
57	0xbc542101	-0.012947322
58	0xbdb735ff	-0.08945846
59	0x3ca46a52	0.020070229
60	0x3efb0881	0.49029925
61	0xbc0c3352	-0.008557158
62	0xbe173659	-0.14766826
63	0x3f021406	0.50811803
64	0x3a33f8d7	0.0006865388
65	0xbb000a0d	-0.001953724
66	0xbdd8f61e	-0.10593818
67	0x3d58d960	0.05294168
68	0xbfdeab42	-1.7396014
69	0x3c51e7ff	0.01281166
70	0xbe0711ed	-0.13190432
71	0x3ece2a18	0.4026649
72	0x3e3103de	0.17286631
73	0xbc7620df	-0.0150224855
74	0x3f05c2c7	0.5225033
75	0x3c90b073	0.017662263
76	0x3b93b9a6	0.004508215
77	0xbd4f3992	-0.050592013
78	0x3f0345e7	0.5127854
79	0x3eb492d5	0.35268274
80	0xbe352956	-0.1769155
81	0x3f07d45f	0.5305843
82	0x3dd80611	0.10548032
83	0x3f1b6bbc	0.60711265
84	0xbdcdbd11	-0.10045827
85	0xbcd20300	-0.025636196
86	0xbc9d074e	-0.019168522
87	0xbe0be09d	-0.13659902
88	0xbe1accb4	-0.1511715
89	0xbf998663	-1.1994137
90	0xbbc5aa97	-0.006032299
91	0xbcad37dd	-0.021144802
92	0xbd295b70	-0.041346967
93	0x3c6c274d	0.014413667
94	0xba841ff2	-0.0010080321
95	0x3d03d586	0.032186054
96	0xbd23bc72	-0.039974637
97	0xbe21ad80	-0.15788841
98	0xbca2e34d	-0.019883776
99	0x3eafcdab	0.343366
100	0x3bb05358	0.005381029
101	0x3f318437	0.6934237
102	0x3f5bde41	0.8588601
103	0x3d5130b6	0.051071845
104	0xbc1edf7c	-0.0096968375
105	0xbdf7eb2d	-0.12105403
106	0x3ba989c7	0.005173895
107	0xb9949e38	-0.00028346642
108	0xbb34b7dc	-0.002757541
109	0xbd12a01b	-0.03579722
110	0x3b83b5d1	0.004019477
111	0x3b393324	0.0028259242
112	0x3c52b82b	0.012861292
113	0xbe2fd70e	-0.1717188
114	0xbd340e25	-0.0439588
115	0xbdf7450c	-0.120737165
116	0xbec07f04	-0.37596905
117	0xbfbff1aa	-1.4995625
118	0x3cee3a6b	0.02908059
119	0xbc3f2498	-0.0116664395
120	0xbdfb4796	-0.12269513
121	0xbe3150c8	-0.17315972
122	0x3f0436ea	0.5164629
123	0x3a3cdc66	0.0007204473
124	0xbe201f71	-0.15636994
125	0xbe04d86b	-0.12973182
126	0xbf303127	-0.68825
127	0xbe63d6c7	-0.222499
128	0xbdf82ff1	-0.12118519
129	0x3cd7cb06	0.026341926
130	0xbe086553	-0.13319902
131	0xbe123326	-0.14277324
132	0xbe01fd31	-0.12694241
133	0x3f3c491b	0.7354905
134	0x3d01b074	0.03166242
135	0xbf90f8d4	-1.1325936
136	0xbe16531e	-0.14680144
137	0xc002636e	-2.0373187
138	0xbe95b269	-0.2923768
139	0xbd2ec2f0	-0.042666376
140	0x3d9a9b50	0.07549155
141	0x3c0b5c86	0.008505946
142	0x3c317f65	0.010833596
143	0x3c454a6f	0.012041672
144	0x3efa7ff2	0.4892574
145	0x3f0ad29c	0.54227614
146	0x3edbe143	0.429453
147	0x3ee8c0cd	0.45459595
148	0xbe033169	-0.12811817
149	0xbe14f390	-0.14546037
150	0xbe1740e3	-0.14770846
151	0x3f01ba60	0.5067501
152	0x3f0dd3b2	0.55401146
153	0x3c206e71	0.009791956
154	0x3b85850c	0.0040746983
155	0xbe35a44d	-0.17738457
156	0xbe1e2cc3	-0.15446763
157	0xbc055bf0	-0.008139595
158	0x3c8fcb69	0.017553048
159	0x3b03c80b	0.0020108249
160	0x3d5a4f22	0.053298123
161	0x3bb11c15	0.005404959
162	0x3e6a785a	0.22897473
163	0xbe2b599f	-0.16733406
164	0xbc0199ec	-0.007910233
165	0xbd3302ef	-0.04370397
166	0xbf8721da	-1.0557206
167	0x3ebd4c44	0.3697225
168	0xbf19f7d1	-0.6014376
169	0xbd1e0dde	-0.038587444
170	0xbe2f6334	-0.17127687
171	0xbe03a2ba	-0.12855044
172	0x3cea1f31	0.028579326
173	0xbb22ecb1	-0.0024860317
174	0xbdc36482	-0.09540655
175	0x3c43ced8	0.011951171
176	0xbcb04f73	-0.02152226
177	0xbbde339e	-0.0067810556
178	0x3c07e07a	0.0082932655
179	0xbc2131ab	-0.009838502
180	0xbcddfda1	-0.027098479
181	0x3ca0dade	0.019635614
182	0xbdeed260	-0.116612196
183	0xbcd5e572	-0.026110385
184	0xbe078a46	-0.13236341
185	0xbcd8b916	-0.026455443
186	0xbb1afc5a	-0.0023648948
187	0xbe1dfec9	-0.15429224
188	0xbc00305d	-0.007824031
189	0x3f167902	0.58778393
190	0xbcfb08de	-0.030643877
191	0xbe0f0e3d	-0.13970275
192	0xbd1c0c80	-0.03809786
193	0x3c262c23	0.010142359
194	0x3d27537c	0.0408511
195	0xbcf8916b	-0.030342778
196	0xbc977623	-0.01848895
197	0x3bfe470b	0.007759934
198	0xbca0ec17	-0.019643826
199	0x3fe99ae5	1.8250395
200	0xbcec8b70	-0.028875083
201	0xbba41df8	-0.0050084554
202	0x3ce4b678	0.02791904
203	0x3d31bc54	0.043392494
204	0xbd28e7b7	-0.041236605
205	0xbcf05829	-0.029338913
206	0xbea33679	-0.31877497
207	0xbd290aa1	-0.041269902
208	0xbe00df7e	-0.12585256
209	0x3c7179b0	0.014738485
210	0x3eeb5690	0.4596448
211	0x3c0422bc	0.008064922
212	0xbe0d1781	-0.13778497
213	0xbccd7330	-0.02507934
214	0x3baa64f9	0.005200025
215	0xbce5f5f7	-0.028071387
216	0xbe063b48	-0.13108552
217	0xbe09cfdc	-0.13458198
218	0xbc43ca33	-0.0119500635
219	0x3fb7d433	1.4361633
220	0xbf1e54e2	-0.6184827
221	0x3ef92dab	0.48667654
222	0x3eeb19d6	0.4591815
223	0x3b5a7d1c	0.003333873
224	0xbe1a1dd6	-0.15050444
225	0x3ea483d7	0.32131836
226	0xbb10d815	-0.0022101451
227	0xbbca2970	-0.0061694905
228	0x3ef2647b	0.47342286
229	0xbded97d8	-0.116012275
230	0xbd9c5769	-0.0763386
231	0xbe397fae	-0.18115112
232	0x3bb00640	0.005371839
233	0x3cfa1391	0.030526908
234	0x3daea5ea	0.08527739
235	0x3e8fdf95	0.28100267
236	0x3d2f35a2	0.042775758
237	0xbda9e459	-0.08295507
238	0xbc05a860	-0.0081578195
239	0x3ea874de	0.32901663
240	0xbd0e4745	-0.034735937
241	0xbf87d7c7	-1.0612725
242	0x3e00ac36	0.12565693
243	0xbe0e3266	-0.13886413
244	0xc00f8549	-2.24251
245	0x3e24b7fa	0.16085806
246	0xbe087130	-0.13324428
247	0x3c1553a9	0.009114184
248	0xbe3dcbaa	-0.18534723
249	0x3adb69a8	0.0016739862
250	0x3c48694a	0.012232134
251	0x3bc7900a	0.006090169
252	0xbca42726	-0.020038199
253	0xbf8d852a	-1.1056263
254	0x3c6d489f	0.014482646
255	0xbc77e6ef	-0.015130742

net2.0.weight f4 [256, 7]
0	0xbf1b65cd	-0.6070221
1	0xbd23e2c0	-0.040011168
2	0xbe5619e4	-0.20908314
3	0xbf100e15	-0.5627149
4	0x3e0bbfdf	0.13647412
5	0xbe01d3a4	-0.1267839
6	0xbd2e73f8	-0.042591065
7	0xbe4b56a6	-0.19857273
8	0xbeb9018d	-0.36133996
9	0x3d04cfea	0.032424845
10	0x3f072415	0.5278943
11	0x3eba0b91	0.3633695
12	0xbd646f3c	-0.055770144
13	0x3e5b8457	0.21437202
14	0xbe3edb0a	-0.18638244
15	0x3e1730d0	0.14764714
16	0xbe97bfe9	-0.29638603
17	0x3f15264c	0.5826156
18	0x3f1a185b	0.60193413
19	0x3d0e535e	0.034747474
20	0xbc3a5c20	-0.011374503
21	0x3dba9e3a	0.091122106
22	0xbecb6cc5	-0.39731422
23	0x3e7a407f	0.24438666
24	0x3f3f380e	0.7469491
25	0xbf0bca1b	-0.54605263
26	0xbd15970c	-0.036521003
27	0x3d04f6bd	0.03246187
28	0xbeb2f5b3	-0.3495308
29	0xbe25fa60	-0.16208792
30	0x3c468b8d	0.012118232
31	0xbf8e4e0f	-1.1117572
32	0xbf104c53	-0.5636646
33	0x3d7eff74	0.062255338
34	0xbdb13eba	-0.08654542
35	0xbe1942bb	-0.14966862
36	0xbe8bacd1	-0.27280286
37	0xbee4bdf2	-0.44676167
38	0xbf6687a9	-0.9005075
39	0x3e862930	0.262033
40	0x3de112dc	0.10989925
41	0x3b8daec0	0.0043238103
42	0x3e4f460c	0.20241565
43	0xbc944ca7	-0.018102957
44	0xbe8848ec	-0.26618135
45	0xbea2863c	-0.31743038
46	0x3e769fa6	0.24084339
47	0x3cd3d63f	0.025858996
48	0x3d6ffb54	0.058589295
49	0x3e147212	0.1449664
50	0x3ca5e8e8	0.02025266
51	0xbea21c84	-0.3166238
52	0x3f61b5c0	0.88167953
53	0xbebf3282	-0.37343222
54	0xbcf4e2af	-0.029893247
55	0x3b6b6e88	0.0035924036
56	0x3deab421	0.11460138
57	0xbea40f04	-0.32042706
58	0xbeb152aa	-0.3463338
59	0x3f5c60e0	0.8608532
60	0xbed63c5e	-0.41842932
61	0x3e0283ab	0.1274554
62	0x3c83b19c	0.016075902
63	0xbe52cda2	-0.20586255
64	0x3eb216fd	0.34783164
65	0x3d49c1f0	0.04925722
66	0xbf281814	-0.6566174
67	0xbddaac5d	-0.10677407
68	0x3c03f9fb	0.008055205
69	0xbbc19cc2	-0.0059085796
70	0xbdf2fdd6	-0.118648216
71	0xbf0135c2	-0.5047265
72	0x3e94b298	0.29042506
73	0xbdde30c4	-0.10849145
74	0xbca8b841	-0.020595672
75	0xbd6539a3	-0.05596317
76	0xbd08c563	-0.033391368
77	0xbdd8ae61	-0.10580135
78	0x3ec22eae	0.3792624
79	0xbc0dc1f2	-0.008652197
80	0x3ed3d45a	0.4137295
81	0x3fbb8702	1.4650576
82	0xbd1e407c	-0.038635716
83	0x3d65d4c0	0.056111097
84	0xbe4f2567	-0.20229112
85	0x3ea37fb4	0.31933367
86	0xbd5beb91	-0.05369145
87	0x3e86fb16	0.26363438
88	0x3e59b9ee	0.21262333
89	0x3df7890a	0.12086685
90	0xbd344a75	-0.04401632
91	0x3e0d4e23	0.13799338
92	0xbe954207	-0.29151937
93	0xbdaa7567	-0.08323174
94	0xbf4926fe	-0.7857512
95	0x3ed34c71	0.41269258
96	0xbd9ce134	-0.076601416
97	0x3e59ba4c	0.21262473
98	0x3dc51ff0	0.09625232
99	0xbe6115ac	-0.21980923
100	0xbe231253	-0.15924959
101	0xbf4cd4ca	-0.8001219
102	0x3dc707e2	0.097183004
103	0xbcf5fc41	-0.03002751
104	0xbd4d4c06	-0.05012133
105	0x3d93feff	0.07226371
106	0xbe6a9f00	-0.22912216
107	0xbe9820db	-0.29712567
108	0x3f912f3d	1.1342541
109	0x3dbf5390	0.0934211
110	0x3c7ce0e9	0.015434482
111	0x3c64bc0f	0.013960852
112	0x3e702f1c	0.23455471
113	0xbf082dc7	-0.5319485
114	0x3d8cabfd	0.06868742
115	0x3e954213	0.29151973
116	0xbee083ee	-0.43850654
117	0x3dd160a5	0.102235116
118	0xbd727d0b	-0.05920128
119	0x3d08c68b	0.03339247
120	0xbcfb5d91	-0.030684264
121	0xbeae0105	-0.33985153
122	0xbe8a29ac	-0.26984918
123	0xbf371ac6	-0.7152523
124	0x3b56d634	0.0032781484
125	0xbdfc8a72	-0.12331094
126	0xbf11de0e	-0.56979454
127	0xbb811e11	-0.003940352
128	0x3cbaa0ed	0.022781814
129	0xbf6d743f	-0.927555
130	0xbed3a26f	-0.41334864
131	0xbe1a77dd	-0.15084787
132	0x3b4aeab1	0.003096264
133	0x3ea98f70	0.33117247
134	0x3e87563c	0.2643298
135	0x3ec9f4ac	0.39444482
136	0xbcf3addf	-0.029745994
137	0xbf319b19	-0.69377285
138	0x3d8b48dc	0.06801006
139	0x3d477010	0.048690856
140	0xbd725047	-0.05915859
141	0x3eb0232a	0.34401828
142	0x3e153786	0.14571962
143	0x3e8d86bc	0.27641857
144	0x3f35425a	0.7080437
145	0xbdc12097	-0.09430044
146	0xbe22f459	-0.15913524
147	0xbe8d55f7	-0.27604648
148	0xbf201410	-0.6253061
149	0xbeed9224	-0.4640056
150	0xbf014ec1	-0.50510794
151	0xbf257b02	-0.6464082
152	0x3e9c2072	0.30493504
153	0x3cb981a0	0.022644818
154	0xbea4e207	-0.32203695
155	0x3ed0e4b6	0.40799493
156	0xbccf1056	-0.025276344
157	0x3eec141c	0.46109092
158	0x3ee39468	0.44449162
159	0xbddbd00f	-0.107330434
160	0xbd2540ba	-0.04034493
161	0xbeb8297d	-0.35969153
162	0x3e84dea4	0.2595111
163	0x3e6df17d	0.23236652
164	0x3ea0e11f	0.31421754
165	0x3f8d6d2c	1.1048942
166	0x3ce1e7e8	0.027576402
167	0x3c0f42a2	0.008743914
168	0x3e4de195	0.20105584
169	0x3e4e7583	0.20162015
170	0xbe830c23	-0.25595197
171	0x3ed5bb79	0.41744593
172	0xbf2dda83	-0.6791155
173	0xbd86f266	-0.065892026
174	0x3cc0a5c1	0.023516538
175	0x3e470677	0.1943606
176	0xbe51644e	-0.2044842
177	0x3e80bf47	0.25145933
178	0xbf3202f9	-0.69535786
179	0x3ea0e7aa	0.31426746
180	0xbcac72bc	-0.021050803
181	0xbd955195	-0.07290951
182	0xbd549300	-0.051898003
183	0x3ea2def2	0.3181072
184	0xbcfe4843	-0.031040316
185	0x3f3cccac	0.73749804
186	0x3e69afd1	0.22820975
187	0x3d8dc959	0.0692317
188	0xbdd183e5	-0.10230235
189	0xbc222d0e	-0.009898437
190	0x3db1dcc6	0.08684687
191	0xbe2a488f	-0.16629241
192	0x3ef8ae9d	0.4857072
193	0xbe9c91a9	-0.3057988
194	0xbd5f272f	-0.054480728
195	0xbdb8f92f	-0.09031903
196	0xbf073a01	-0.5282288
197	0xbdc1d19c	-0.09463808
198	0xbe6e38c7	-0.23263846
199	0x3c4e0d35	0.012576391
200	0x3d6ea077	0.0582585
201	0xbd3b61f7	-0.045747723
202	0x3be24140	0.006904751
203	0xbe939bb4	-0.2882973
204	0xbebb7677	-0.3661382
205	0x3d9dd08a	0.07705791
206	0x3e883116	0.2659995
207	0xbe59f8c4	-0.21286303
208	0x3de52feb	0.1119078
209	0xbd1dc8bc	-0.038521513
210	0xbdabab83	-0.08382323
211	0x3d4e40c0	0.05035472
212	0xbe0ddd34	-0.13853914
213	0xbec3ffdc	-0.38281143
214	0xbf15c316	-0.585008
215	0x3e812a17	0.25227425
216	0x3e1810f0	0.14850211
217	0x3e0de6a5	0.13857515
218	0x3e6fef62	0.23431161
219	0xbd1e18f4	-0.038598016
220	0x3e29978d	0.16561718
221	0x3ede047b	0.43362793
222	0x3d9b88c1	0.07594443
223	0xbc1264db	-0.008935179
224	0xbcca884a	-0.02472319
225	0xbdb12e3c	-0.08651397
226	0x3e2726f9	0.1632346
227	0xbf59987a	-0.84998286
228	0xbf1253b5	-0.57158977
229	0xbdb62002	-0.08892824
230	0x3c36c413	0.011155146
231	0x3e5a5c58	0.21324289
232	0xbebc1b4e	-0.36739582
233	0x3dd14a8c	0.10219297
234	0xbdb395f0	-0.08768833
235	0xbd9e268d	-0.07722197
236	0x3e2257c9	0.158538
237	0xbcb377d8	-0.021907732
238	0xbebeca11	-0.3726354
239	0x3ec4f8a6	0.38470954
240	0xbcf30f88	-0.029670492
241	0x3c01c928	0.007921495
242	0x3e7d728b	0.24750726
243	0x3e17d572	0.14827517
244	0x3e39f2cf	0.1815903
245	0xbddeee88	-0.1088534
246	0x3d0c64a3	0.034275662
247	0x3eab2c14	0.33432066
248	0xbc567933	-0.01309042
249	0x3df2e310	0.11859715
250	0xbe4141cb	-0.18872754
251	0xbd88969c	-0.066693515
252	0x3e2d92c3	0.16950516
253	0x3df1283f	0.117752545
254	0x3dacf792	0.08445658
255	0xbefee028	-0.49780393

net2.0.bias f4 [256]
0	0x3db096ea	0.086225346
1	0xbeaaa45c	-0.3332852
2	0xbf0807d5	-0.5313695
3	0xbf04452a	-0.51668036
4	0x3e746c04	0.2386933
5	0x3e889091	0.26672795
6	0xbf31d8d8	-0.694715
7	0xbe3ea968	-0.18619311
8	0xbeb0fe40	-0.34568977
9	0xbd73d64a	-0.059530534
10	0x3e26f040	0.16302586
11	0xbef00a4f	-0.46882865
12	0xbe95cb56	-0.29256696
13	0x3ea5fab3	0.3241783
14	0x3f0c706b	0.54859036
15	0xbedd2535	-0.4319245
16	0x3ef053a0	0.469388
17	0x3eb9a8a1	0.36261466
18	0x3eb3d6da	0.35124856
19	0xbf019855	-0.50623065
20	0xbf48d7d5	-0.78454334
21	0x3e3dfd1b	0.18553583
22	0xbe9a79c9	-0.3017104
23	0xbec317f6	-0.38104218
24	0x3f24fafa	0.6444546
25	0x3da09cd6	0.07842414
26	0xbd425071	-0.047439996
27	0x3f1a6b5c	0.6032007
28	0xbeca5bc5	-0.3952314
29	0xbf14eec9	-0.5817686
30	0x3e291c6e	0.16514751
31	0x3ed66579	0.41874292
32	0x3d04f6a2	0.03246177
33	0x3f01a146	0.5063671
34	0xbea3bdf5	-0.31980863
35	0x3f0c50a5	0.54810554
36	0x3f20584e	0.6263474
37	0x3eb01e46	0.34398097
38	0x3ec983c7	0.3935835
39	0xbe6897d3	-0.22714166
40	0xbe284bf0	-0.16435218
41	0xbe29fbb3	-0.16599922
42	0x3ef8c61c	0.48588645
43	0x3f09e399	0.5386291
44	0x3ece59c5	0.40302864
45	0x3e4cd38b	0.20002572
46	0xbe75f1e3	-0.24018054
47	0xbe5c32d7	-0.21503769
48	0xbda15e4c	-0.07879314
49	0x3e69ce0b	0.22832505
50	0xbf2d3632	-0.6766082
51	0xbee59eea	-0.44847804
52	0x3f06bdac	0.52633166
53	0x3e54fd60	0.2079978
54	0x3e888fb0	0.26672125
55	0xbee9db84	-0.4567529
56	0xbf6379ab	-0.88857526
57	0xbf23c465	-0.6397155
58	0x3f37f6c9	0.7186094
59	0x3f159192	0.5842525
60	0x3f172763	0.59044474
61	0xbf17c5b0	-0.5928602
62	0xbf76f76c	-0.96471286
63	0xbf5c6678	-0.86093855
64	0xbd4cc794	-0.04999502
65	0xbdbd1e1e	-0.0923426
66	0x3f21dc5e	0.6322688
67	0x3ee68511	0.45023397
68	0x3e800021	0.25000098
69	0x3ee844d4	0.45365012
70	0x3f1b6c56	0.6071218
71	0x3f062064	0.52393174
72	0xbe4697fd	-0.19393916
73	0x3f1dd901	0.61659247
74	0x3ed32556	0.41239423
75	0xbf29fb3b	-0.6639897
76	0xbc649102	-0.013950588
77	0xbd79f00b	-0.06101994
78	0x3eebc927	0.46051905
79	0x3f0d8dd5	0.55294544
80	0x3f384acc	0.7198913
81	0xbf1840df	-0.59473985
82	0xbde5ebdb	-0.112266265
83	0x3e50d8ec	0.20395249
84	0x3f395b50	0.72404957
85	0xbf082799	-0.5318542
86	0xbefd283d	-0.49444762
87	0x3edbaf7e	0.42907327
88	0xbf059bdd	-0.52190953
89	0xbf02c4ce	-0.5108155
90	0xbf0de032	-0.5542022
91	0xbf1591de	-0.584257
92	0x3ee94dcf	0.45567176
93	0xbe2f520b	-0.1712114
94	0xbea87e52	-0.32908875
95	0x3e9d2471	0.30691865
96	0xbea4e7e6	-0.32208174
97	0x3e88f422	0.2674876
98	0x3f39e8f0	0.7262106
99	0x3f27b15d	0.6550501
100	0x3f439891	0.7640467
101	0x3f17763b	0.5916478
102	0x3ef884b9	0.4853876
103	0x3ed47283	0.41493616
104	0x3f1a5da7	0.6029915
105	0xbefe9288	-0.4972117
106	0x3e6adb95	0.22935326
107	0x3e60dfa6	0.21960315
108	0x3f1e809f	0.6191501
109	0xbe92d6a8	-0.28679395
110	0x3d80ad5a	0.06283064
111	0x3f2a8be7	0.66619724
112	0xbe71566e	-0.23568127
113	0xbf0287b1	-0.509883
114	0xbd93f87f	-0.07225131
115	0xbf0ee1da	-0.5581337
116	0x3dde1529	0.1084388
117	0xbec71c4b	-0.38888773
118	0xbf0ac7ec	-0.54211307
119	0x3f005ac7	0.50138515
120	0x3e6bdcae	0.23033401
121	0x3f29f7c6	0.663937
122	0xbeb9f4bb	-0.36319527
123	0xbd8ccc49	-0.06874902
124	0x3ebf1144	0.3731786
125	0x3e8464f9	0.25858286
126	0xbe93efe3	-0.28893957
127	0xbe4af1dd	-0.19818826
128	0x3f15c098	0.58497
129	0xbf26ad00	-0.6510773
130	0xbf239d2f	-0.6391172
131	0xbefa0df1	-0.4883876
132	0xbe878d75	-0.2647511
133	0x3ee27a66	0.44234008
134	0xbe9cc4eb	-0.30618986
135	0xbeee1331	-0.46499017
136	0xbe52b8c0	-0.20578289
137	0xbf4a3016	-0.78979623
138	0xbe7b8cb1	-0.24565388
139	0x3e57027c	0.20997041
140	0xbf14eb8d	-0.5817192
141	0xbea82bfc	-0.32846057
142	0x3ee31e76	0.44359177
143	0x3e936f94	0.28796065
144	0x3efeed7f	0.4979057
145	0x3f4420b9	0.7661243
146	0x3f179c13	0.59222525
147	0x3f2c126c	0.6721561
148	0x3d2a7982	0.041619785
149	0xbf2fb812	-0.68640244
150	0x3f19ca7f	0.6007461
151	0x3ed4fd59	0.4159954
152	0xbe9ccf88	-0.30627084
153	0xbf3167f8	-0.6929927
154	0x3f4b16c8	0.79331636
155	0x3f22ab48	0.63542604
156	0x3f083790	0.5320978
157	0xbf1e7071	-0.6189032
158	0xbedd0e6b	-0.43175063
159	0x3ed71601	0.42008975
160	0x3f02fe84	0.5116961
161	0xbeac822e	-0.3369307
162	0x3f17dc03	0.59320086
163	0xbefa4036	-0.48877114
164	0xbefeefbe	-0.49792284
165	0xbe6dca9f	-0.23221825
166	0x3f066051	0.5249072
167	0xbea7d3e8	-0.3277886
168	0xbe8845c8	-0.2661574
169	0x3dece375	0.115668215
170	0x3d0e7609	0.034780536
171	0x3eb56f7f	0.35436627
172	0x3e91e6cb	0.28496394
173	0x3e17de1b	0.1483082
174	0x3f1406f4	0.5782311
175	0x3f097371	0.53691775
176	0xbf1b8ca6	-0.6076149
177	0x3d50f1a8	0.05101171
178	0x3f1c844b	0.61139363
179	0x3e42130b	0.18952577
180	0xbf171436	-0.59015214
181	0xbeaa23f8	-0.33230567
182	0x3e2fffb3	0.17187385
183	0x3ef9aabd	0.48763075
184	0xbd6840e8	-0.056702524
185	0x3e889a06	0.2668001
186	0x3f23bd36	0.6396059
187	0x3eca4002	0.3950196
188	0xbf63f97a	-0.89052546
189	0xbe8dbfe4	-0.27685463
190	0xbf2728c8	-0.652966
191	0xbd405c74	-0.04696317
192	0x3dd29863	0.10282972
193	0xbef30081	-0.47461322
194	0xbdb30845	-0.08741812
195	0x3f07e7ac	0.5308788
196	0xbe09de0a	-0.13463607
197	0x3ec88335	0.39162603
198	0xbe78d0e7	-0.2429844
199	0xbf22d545	-0.63606673
200	0x3e8d1265	0.27553096
201	0xbee53098	-0.44763637
202	0x3da3d165	0.07998923
203	0x3d6b804b	0.057495397
204	0x3eec9704	0.46208966
205	0xbefcd33f	-0.49379918
206	0x3ee8965e	0.4542722
207	0x3ed1780c	0.409119
208	0xbcce6bc9	-0.02519788
209	0xbe0f4e9b	-0.1399483
210	0xbf01b7a1	-0.5067082
211	0x3ee7c1bf	0.45265004
212	0xbee46fbb	-0.44616494
213	0xbe45888f	-0.19290374
214	0xbc3e1fd5	-0.011604269
215	0xbf35ba31	-0.7098723
216	0x3ee31a61	0.44356063
217	0x3ec46270	0.38356352
218	0xbed922fe	-0.4240951
219	0xbeac7b7d	-0.33687964
220	0x3e0f76e4	0.14010197
221	0xbf00f066	-0.5036682
222	0xbe4f650d	-0.20253392
223	0xbf1f7f65	-0.62303764
224	0xbe9bade3	-0.30406103
225	0x3f1530af	0.5827741
226	0xbda66a57	-0.081257515
227	0x3f350f48	0.7072644
228	0xbf30c183	-0.69045275
229	0x3ed88904	0.42292035
230	0x3debd40e	0.115150556
231	0x3eca2bff	0.3948669
232	0x3e220277	0.15821253
233	0xbe7cf38a	-0.24702278
234	0x3f2723f3	0.6528923
235	0x3ec72199	0.3889282
236	0xbf160523	-0.5860159
237	0xbecbb3f3	-0.39785728
238	0xbed31a66	-0.41231078
239	0xbe6190b5	-0.22027858
240	0xbe64bbce	-0.22337267
241	0x3eeaa910	0.4583211
242	0xbea041ae	-0.3130011
243	0x3f1101bc	0.5664327
244	0x3e30677d	0.17226978
245	0xbe3db2d1	-0.18525244
246	0x3f2d07d7	0.6759009
247	0xbf546b1b	-0.8297593
248	0xbdece44e	-0.11566983
249	0xbd274a21	-0.04084218
250	0x3f02815d	0.5097864
251	0x3f172030	0.5903349
252	0xbf06f20d	-0.5271309
253	0xbf344198	-0.7041259
254	0x3f116c61	0.56806
255	0xbe750c95	-0.23930581
