tau_data/seed0/SAC_STL_critic_400000.pth (torch, 549013 bytes, 10 tensors)

net1.0.weight f4 [256, 7]
0.09323144 0.10688159 0.005354521 -0.34334472 -0.62694067 0.29695567 0.1593947 -0.20344406
-0.33260867 0.10716807 -0.41629785 -0.15304063 -0.121868 -0.060609758 0.25995374 -0.0960636
-0.09664988 0.26515067 0.39922526 -0.010179825 -0.02803396 0.5407498 -0.20745674 0.25083628
0.007984703 -0.53598106 0.052358393 0.01532943 -0.12004183 -0.10517549 0.24853553 -0.6787872
-0.071342066 0.08460314 -0.020006817 0.38476375 -0.3046023 0.37517017 -0.05792602 0.44410387
0.11279834 -0.0061104894 0.37640572 -0.30390587 0.23071364 -0.27865693 0.64540136 -0.00799557
0.02577128 -0.08204224 -0.26917407 -0.4289839 -0.52755094 -0.013533775 -0.06569656 0.021710476
-0.12900983 0.020335559 -0.24772009 0.4178597 -0.42184177 0.32041818 0.37538564 -0.18465877
-0.05429349 0.26858395 -0.49788758 -0.7191222 -0.1912212 0.033319544 0.40162304 -0.34481797
-0.23927812 0.19892946 0.29386202 0.118733354 -0.06691756 0.23254924 -0.1284035 -0.39930066
0.40694022 -0.15220036 0.1369717 -0.14604065 0.13733852 -0.27219677 0.057005174 1.1630155
-0.18173343 -0.00042254274 -0.018747633 0.07331064 0.033455305 -0.28144282 0.9207906 1.6238257
-0.09537215 -0.0682447 0.38103998 -0.1151988 0.02410548 0.049335428 0.8680906 -0.0004993831
0.06550163 0.288169 -0.0149124535 0.10965888 0.46906722 -1.2583375 0.12584276 0.011770559
-0.073598735 0.14948152 0.03269813 -0.4565347 -0.8989793 -0.00046818846 0.008134086 -0.1203949
0.25287277 -0.4400934 0.22342148 -0.018000033 0.019389419 0.0051022293 -0.61411077 0.19257352
-0.28554657 -0.49797678 0.67973924 -0.038791824 0.017613383 -0.17973757 0.029981976 0.3851055
-0.30562428 0.91750664 -0.0075898957 0.06742956 -0.22365034 0.011934681 -0.0047953012 -0.4547437
-0.82883394 0.040695757 -0.2195656 0.26057303 -0.19171874 -0.16039824 -0.3687542 0.33927423
0.09212133 -0.01574445 -0.32669714 0.16659084 0.29270488 0.7048116 0.22248332 0.1360858
-0.028101854 0.28631097 0.19373383 0.11036601 -0.90729696 0.6282815 0.10139981 0.04432091
-0.50270385 -0.44504118 -0.39243189 -0.36360767 0.27854517 -0.092234835 -0.050241873 -0.29091665
-0.24784417 0.5669828 -0.83041036 0.067280084 0.08258269 -0.035002716 -0.5496362 0.7083116
0.053277783 0.29637742 0.109640226 0.122643195 -0.041235056 -0.037224047 0.29568225 -0.16218217
0.74662936 0.7118632 0.07214359 -0.03374368 -0.21895994 -0.643518 0.12628733 -0.38593477
-0.34904748 0.022718899 0.039655898 0.052069347 0.16316967 -0.18987282 0.29478317 0.11777444
0.22691768 -0.03122021 0.015312351 -0.328081 0.1477967 -0.40570554 -0.2466415 -0.09840306
0.11277865 0.15500213 0.24713151 -0.0057500326 -0.23377888 0.0045445305 0.11762122 0.09310849
0.0911328 0.5204648 -0.4719818 -0.18707778 -0.56769377 -0.000110737 0.035564538 -0.11895547
-0.2593067 0.051799458 -0.90473366 -0.5131065 -0.11232596 0.00087780226 -0.4490304 -0.4106099
0.16678473 0.56749755 0.22618222 -0.133976 0.19292276 0.012070973 -0.112304546 -0.06775236
0.20474488 -0.68578094 -0.21032412 0.10266706 0.17381312 -0.56320477 -0.060743146 -1.1756732
00000000: 20f0 be3d bce4 da3d fa74 af3b e1ca afbe
00000010: 2f7f 20bf 930a 983e 5d38 233e a453 50be
00000020: af4b aabe ef7a db3d fe24 d5be afb6 1cbe
00000030: ee95 f9bd f041 78bd a818 853e febc c4bd
00000040: 5ff0 c5bd d4c1 873e 4167 cc3e 48c9 26bc
00000050: 7aa7 e5bc 946e 0a3f 8a6f 54be 9d6d 803e
00000060: 46d2 023c 0e36 09bf c175 563d 4a28 7b3c
00000070: 7ed8 f5bd 3f66 d7bd 1980 7e3e ffc4 2dbf
00000080: ca1b 92bd 6944 ad3d 56e5 a3bc c1ff c43e
00000090: d5f4 9bbe 4e16 c03e d643 6dbd 9561 e33e
000000a0: d102 e73d 803a c8bb 40b8 c03e 8d99 9bbe
000000b0: 3240 6c3e 1fac 8ebe 0639 253f daff 02bc
000000c0: 4b1e d33c c305 a8bd 2fd1 89be c7a3 dbbe
000000d0: 940d 07bf c4bc 5dbc eb8b 86bd 2bda b13c
000000e0: 271b 04be c296 a63c 56aa 7dbe b5f1 d53e
000000f0: a5fb d7be da0d a43e 8c32 c03e 3017 3dbe
00000100: da62 5ebd d683 893e 1feb febe 6418 38bf
00000110: 7ecf 43be 137a 083d 89a1 cd3e fb8b b0be
00000120: 5305 75be 2ab4 4b3e 1575 963e 792a f33d
00000130: 130c 89bd 6321 6e3e 357c 03be 2371 ccbe
00000140: 785a d03e 69da 1bbe 4f42 0c3e ae8b 15be
00000150: 78a2 0c3e 605d 8bbe 427e 693d b1dd 943f
00000160: 5418 3abe ba88 ddb9 a394 99bc e423 963d
00000170: 6e08 093d 4619 90be efb8 6b3f 85d9 cf3f
00000180: 7952 c3bd e1c3 8bbd ac17 c33e 59ed ebbd
00000190: db78 c53c f213 4a3d 303b 5e3f 08e9 02ba
000001a0: b825 863d e38a 933e 5d53 74bc d694 e03d
000001b0: 9429 f03e 3411 a1bf eddc 003e 4dd9 403c
000001c0: efba 96bd af11 193e 79ee 053d ebbe e9be
000001d0: 8223 66bf 3177 f5b9 d444 053c 9a91 f6bd
000001e0: 8a78 813e ec53 e1be 9ac8 643e ce74 93bc
000001f0: 8fd6 9e3c 9a30 a73b 5d36 1dbf fe31 453e
00000200: 2933 92be d0f6 febe 6403 2e3f 2de4 1ebd
00000210: f149 903c 200d 38be c39c f53c 8c2c c53e
00000220: c97a 9cbe b7e1 6a3f a9b4 f8bb 8218 8a3d
00000230: 9804 65be ae89 433c e721 9dbb 2bd4 e8be
00000240: 762e 54bf 98b0 263d ced5 60be d469 853e
00000250: eb51 44be 703f 24be 5acd bcbe 5ab5 ad3e
00000260: 1caa bc3d 81fa 80bc d944 a7be ca96 2a3e
00000270: 6add 953e 886e 343f abd2 633e 135a 0b3e
00000280: dc35 e6bc 5a97 923e 2962 463e 9307 e23d
00000290: 9d44 68bf 0ed7 203f b4aa cf3d d889 353d
000002a0: 33b1 00bf 70dc e3be d5ec c8be c92a babe
000002b0: 799d 8e3e 9ee5 bcbd 6cca 4dbd 07f3 94be
000002c0: ddca 7dbe c925 113f c695 54bf 24ca 893d
000002d0: 1d21 a93d 025f 0fbd f5b4 0cbf e953 353f
000002e0: ce39 5a3d c8be 973e 0e8b e03d 5b2c fb3d
000002f0: 17e6 28bd 3e78 18bd aa63 973e 1513 26be
00000300: 1a23 3f3f ab3c 363f 05c0 933d d036 0abd
00000310: 0937 60be 98bd 24bf 7751 013e 3e99 c5be
00000320: 5ab6 b2be fc1c ba3c 396e 223d ab46 553d
00000330: f315 273e 056e 42be d2ed 963e ba33 f13d
00000340: 1c5d 683e 87c1 ffbc a8e0 7a3c 3cfa a7be
00000350: 0558 173e a3b8 cfbe 978f 7cbe 8b87 c9bd
00000360: 7ef8 e63d e1b8 1e3e 0b10 7d3e c56a bcbb
00000370: bb63 6fbe 49ea 943b 65e3 f03d aaaf be3d
00000380: d5a3 ba3d 2e3d 053f 99a7 f1be 5191 3fbe
00000390: 6154 11bf 793b e8b8 1fac 113d ed9e f3bd
000003a0: d9c3 84be ab2b 543d a09c 67bf f35a 03bf
000003b0: 270b e6bd 501c 663a 50e7 e5be 763b d2be
000003c0: 9ec9 2a3e 8547 113f 509c 673e 0131 09be
000003d0: 8b8d 453e 55c5 453c edff e5bd c0c1 8abd
000003e0: a4a8 513e 578f 2fbf 355f 57be 1c43 d23d
000003f0: 11fc 313e 302e 10bf cecd 78bd 767c 96bf

net1.0.bias f4 [256]
0.0784727 0.5845447 0.26217028 -0.56516 0.36087963 -0.102626316 -0.19362304 0.53522706
-0.7290777 0.66816753 0.1145132 0.3880909 -0.41208944 0.22490823 -0.30935544 -0.35936305
-0.17078508 0.38578758 -0.5126984 -0.63360655 0.47210768 0.056047693 -0.17017476 -0.29705298
-0.4200316 0.16227803 -0.3694219 -0.56466836 -0.5036567 0.3808303 0.24900208 -0.5226535
-0.056725387 0.06292713 0.30121464 0.5201632 0.09067778 0.23032628 -0.23383653 0.8360455
0.6749001 -0.4352162 0.017853294 -0.17106383 -0.2908212 -0.70468324 0.014014562 -0.73658234
0.5443428 0.19771272 0.602293 -0.50691754 0.4805661 -0.28871822 0.5247847 0.35792452
-0.10717887 0.29676086 -0.14113876 0.19324663 -0.26693806 0.58775836 0.70779616 -0.46064305
-0.64752895 0.34178367 -0.8429223 0.52005833 -0.30256626 0.33975354 0.17475505 0.5732271
-0.5674231 -0.29093698 0.117787056 -0.12032879 0.6213761 0.5344515 0.2793489 0.42726764
-0.4864378 -0.59318864 0.5723443 -0.22321117 -0.42681992 0.31920525 0.6580187 -0.07170106
0.65886354 0.5063918 -0.020280663 0.09495548 -0.9159809 -0.4931049 0.9700136 0.77552253
0.22880483 0.55798507 0.4865927 -0.41136414 -0.093280934 -0.6246647 0.026992584 0.4742236
0.19166762 -1.0122403 0.20880473 -0.6352339 0.071229145 0.756596 -0.5202344 0.6904222
-0.55577236 -0.7151247 0.048836794 -0.30147988 -0.44924557 0.28493497 0.3782851 0.42303464
-0.93962055 -0.08094248 -0.24334545 0.5864602 0.28350815 -0.52162385 0.64888805 0.5734078
0.53293425 0.28333813 -0.13146892 -0.21163109 -0.52635485 -0.47529408 0.16045168 0.35426524
0.5681788 0.5154615 -0.27961993 0.63640445 -0.6364218 0.5751232 0.43403286 -0.638859
0.38348022 -0.53241074 -0.55698895 -0.6612002 -0.37784317 0.39880112 0.47862822 -0.119619675
0.32704332 -0.6169905 0.5283142 -0.79545003 0.5760372 -0.44666418 0.18853754 -0.36642495
-1.0179405 0.6589877 0.08498357 -0.46047705 0.5080749 0.074163795 0.43292138 0.59501845
-0.36043438 0.80496645 0.28600603 -1.1695756 0.09143183 -0.09622115 -0.3090513 -0.4419101
-0.3913659 -0.20683745 -0.55210364 0.558721 0.65471244 -0.3723517 -0.93617004 0.26595178
0.099077605 0.6139918 -0.5010919 -0.40861812 0.46549997 0.43218133 -0.67725706 -0.08944089
0.058760908 0.76791555 -0.29241988 0.45532623 0.4652244 -0.28082398 -0.2859563 0.39209735
-0.19627827 -0.25331682 0.20030954 0.82988846 0.5850342 -0.43817768 0.13733862 0.8980131
0.03458129 -0.84263545 0.22449785 0.37294176 0.5560603 -0.672206 -0.6697607 -0.09224587
0.6319605 0.62759334 0.50075775 -0.3267225 0.37689534 -0.5664893 0.3405307 0.32711264
-0.22879145 0.35990754 -0.17143284 0.38354063 0.19422948 0.30553192 0.63678855 -0.75392425
-0.27165702 0.41644225 -0.45575938 0.07371831 -0.64536107 0.33988163 0.43493286 -0.38903144
-0.8912958 0.18204112 -0.11305148 0.25418323 0.3091651 0.5705223 -0.9151515 -0.71695256
0.4180785 0.44024706 -0.031096429 -0.38728496 -0.51952976 0.029399745 0.6473863 0.33078575
00000000: 4cb6 a03d b9a4 153f 2f3b 863e 53ae 10bf
00000010: 37c5 b83e bf2d d2bd 1e45 46be a404 093f
00000020: d6a4 3abf 070d 2b3f e685 ea3d dab3 c63e
00000030: 63fd d2be 584e 663e d663 9ebe 6ffe b7be
00000040: 49e2 2ebe f385 c53e 3440 03bf 0a34 22bf
00000050: 19b8 f13e 4492 653d 4b42 2ebe 5417 98be
00000060: 620e d7be 362c 263e de24 bdbe 1b8e 10bf
00000070: a5ef 00bf 30fc c23e 67fa 7e3e 9fcc 05bf
00000080: e158 68bd f0df 803d ce38 9a3e 6a29 053f
00000090: 46b5 b93d a7da 6b3e d872 6fbe 1407 563f
000000a0: 41c6 2c3f a8d4 debe 1241 923c 5b2b 2fbe
000000b0: 84e6 94be 1f66 34bf 559d 653c a990 3cbf
000000c0: 0d5a 0b3f 3475 4a3e e02f 1a3f 59c5 01bf
000000d0: c30c f63e e0d2 93be 4a58 063f e241 b73e
000000e0: 9880 dbbd 0af1 973e ae86 10be 72e2 453e
000000f0: 1bac 88be 5577 163f 2132 353f 68d9 ebbe
00000100: 75c4 25bf 45fe ae3e c1c9 57bf 8b22 053f
00000110: f7e9 9abe 2df4 ad3e fdf2 323e 03bf 123f
00000120: a442 11bf b1f5 94be 573a f13d f16e f6bd
00000130: 8112 1f3f d0d1 083f d206 8f3e d3c2 da3e
00000140: 600e f9be 36db 17bf 2885 123f 7891 64be
00000150: 2488 dabe df6e a33e ea73 283f 01d8 92bd
00000160: 48ab 283f e5a2 013f a223 a6bc 0578 c23d
00000170: b97d 6abf 3f78 fcbe d052 783f a588 463f
00000180: d04b 6a3e 1cd8 0e3f ae22 f93e 529e d2be
00000190: 130a bfbd 07ea 1fbf 8d1f dd3c 70cd f23e
000001a0: 8444 443e 1791 81bf e8d0 553e b09e 22bf
000001b0: 96e0 913d 47b0 413f 152e 05bf 82bf 303f
000001c0: 1947 0ebf 6a12 37bf 1709 483d 925b 9abe
000001d0: 8403 e6be ffe2 913e 96ae c13e ff97 d83e
000001e0: f98a 70bf 2cc5 a5bd 8d2f 79be 4122 163f
000001f0: fb27 913e 2489 05bf 871d 263f dbca 123f
00000200: 616e 083f b211 913e ca9f 06be d2b5 58be
00000210: 31bf 06bf bf59 f3be 724d 243e 4162 b53e
00000220: 2a74 113f 49f5 033f 582a 8fbe 67eb 223f
00000230: 8aec 22bf 463b 133f 8e39 de3e 438c 23bf
00000240: 8557 c43e 124c 08bf d496 0ebf 6b44 29bf
00000250: a974 c1be a92f cc3e c20e f53e 29fb f4bd
00000260: 3972 a73e 17f3 1dbf 993f 073f 9da2 4bbf
00000270: 2d77 133f 2bb1 e4be fc0f 413e 0d9c bbbe
00000280: e04b 82bf 6bb3 283f de0b ae3d a6c3 ebbe
00000290: 3211 023f 30e3 973d dfa7 dd3e 2153 183f
000002a0: db8a b8be 4812 4e3f 626f 923e a7b4 95bf
000002b0: 9c40 bb3d 980f c5bd f93b 9ebe 0a42 e2be
000002c0: 1c61 c8be 32cd 53be aa56 0dbf 5708 0f3f
000002d0: 3c9b 273f e2a4 bebe d7a8 6fbf d52a 883e
000002e0: 33e9 ca3d 912e 1d3f 8f47 00bf 6536 d1be
000002f0: 0356 ee3e df46 dd3e b860 2dbf c92c b7bd
00000300: 47af 703d 1d96 443f 0fb8 95be 8520 e93e
00000310: e431 ee3e 29c8 8fbe dd68 92be fcc0 c83e
00000320: 2cfd 48be beb2 81be f21d 4d3e 9273 543f
00000330: cdc4 153f d358 e0be 7fa2 0c3e 30e4 653f
00000340: 1ca5 0d3d f5b6 57bf c4e2 653e 39f2 be3e
00000350: f859 0e3f b115 2cbf 7075 2bbf 67eb bcbd
00000360: 2ac8 213f f5a9 203f a931 003f 2c48 a7be
00000370: 6df8 c03e 7105 11bf 0a5a ae3e 4f7b a73e
00000380: 4e48 6abe cd45 b83e 178c 2fbe 705f c43e
00000390: 18e4 463e ae6e 9c3e 9304 233f 2e01 41bf
000003a0: a116 8bbe eb37 d53e 4b59 e9be a0f9 963d
000003b0: 6236 25bf f704 ae3e 85af de3e 212f c7be
000003c0: f62b 64bf fd68 3a3e 8987 e7bd 4e24 823e
000003d0: e34a 9e3e c00d 123f 5e47 6abf 348a 37bf
000003e0: 630e d63e 1068 e13e f0bd febc 374a c6be
000003f0: e7ff 04bf bcd7 f03c 1cbb 253f c05c a93e

net1.2.weight f4 [256, 256]
-0.53057 -0.09045558 0.059416775 0.099885605 0.02911272 0.068190835 0.101396434 -0.37217072
0.06744003 -0.07820536 -0.007285259 -0.18469 0.18448623 -0.39386997 0.30267552 0.18198605
-0.168712 0.1514897 0.15992104 0.08812641 -0.2550629 -0.039580956 0.002363317 -0.33960503
0.033995844 -0.021276265 0.14909577 0.45033848 0.07605872 -0.21485414 -0.018686924 -0.84608746
0.38854218 -0.048786823 0.034149118 -0.10459432 -0.097964734 -0.15130481 0.06316184 -0.018470122
-0.10062432 -0.0003313905 -0.034658145 0.13001911 0.10018914 0.27323398 -0.067494296 -0.04533566
-0.10775624 0.011046501 -0.3477703 0.06923492 -0.28487825 0.085803896 -0.40406728 -0.03353322
-0.067873314 -0.021600397 0.04702031 -0.24219763 0.1760778 -0.06693087 -0.24061285 0.03962499
0.040825263 0.052253 0.10423234 0.011703128 0.23148634 0.046146315 -0.08288086 -0.081976786
0.1150406 -0.05694978 -0.15728231 0.039308757 0.017731026 0.032209456 -0.08445307 -0.04341094
0.025584362 0.22135451 -0.043227717 0.09368482 0.2620055 -0.14086138 0.021373166 0.039982397
-0.013472713 -0.18570754 -0.21106692 0.2861693 0.18261318 -0.0973514 -0.027446816 -0.011045017
-0.06474842 0.03629548 -0.1145138 -0.583858 0.044995986 -0.13787782 -0.11632957 -0.0992013
-0.28314248 -1.2764472 0.06866511 0.1941701 -0.21917772 -0.06485836 0.115964115 -0.7589874
-0.3087927 -0.2685086 -0.06559055 0.10658091 0.0607068 -0.02089587 -0.23416819 0.07116512
-0.6050032 0.08514064 -0.34258026 -0.049904652 -0.4077024 0.12365972 -0.11357152 -0.21730343
-0.017095117 -0.12021085 -0.091771066 -0.010721757 -0.06648816 -0.6003135 -0.068909846 -0.0032736403
-0.18049721 0.029732546 0.030348664 -0.0664497 0.09560121 -0.1326325 -0.103913136 0.0671688
-0.090873346 0.016528174 0.12618667 -0.024769142 -0.056486767 -0.051232595 -0.21043538 -0.2370318
-0.14957711 -0.16385706 -0.36518222 0.21066174 -0.08558649 0.45158145 0.07612104 -0.00976867
-0.2018775 -0.1373663 0.16958477 -0.08320603 -0.3124453 0.038764674 0.020916553 -0.37970173
0.119575955 -0.02878891 0.06750079 -0.7267946 -0.0014370581 0.007771191 -0.0017596808 -0.009061875
0.21557108 -0.023335835 -0.21658836 -0.95650095 0.01949739 0.058898333 0.008003694 0.040413123
-0.04449034 -0.1798116 0.10921192 0.29532018 -0.23958376 0.13722429 0.11513939 0.07824253
-0.2616183 0.02009657 0.091527045 -0.10530369 -0.13033263 0.18245958 0.0820887 0.050533686
0.338147 0.14639738 0.025020637 -0.18444943 -0.277199 0.1407514 -0.14961682 -0.040951338
-0.1347938 -0.20209873 0.043064747 -0.28030637 -0.068537146 0.10145813 0.07263618 0.08808327
0.034412 -0.016798276 0.08599242 0.013982352 0.07381969 0.005397383 0.04761828 -0.052866396
-0.41296655 0.023040876 -0.46620968 -0.16877392 0.09848761 0.027193258 -0.48993546 0.023486933
-0.24193676 0.22374746 0.48234805 0.10401091 0.0020565742 -0.1739213 -0.0912359 0.27787718
-0.20318426 -0.02360781 0.0011759149 -0.16454892 -0.058278617 0.12180079 -0.12724788 -0.07343413
-0.091852084 -0.053419933 -0.009674669 -0.58693564 0.1742466 -0.4794887 -0.45190668 -0.03751867
00000000: 6fd3 07bf c640 b9bd 015f 733d d390 cc3d
00000010: cd7d ee3c a3a7 8b3d efa8 cf3d 298d bebe
00000020: 001e 8a3d 222a a0bd 2fb9 eebb 601f 3dbe
00000030: f5e9 3c3e 53a9 c9be 49f8 9a3e 8d5a 3a3e
00000040: d7c2 2cbe 1e20 1b3e 57c2 233e 9f7b b43d
00000050: 9b97 82be a41f 22bd e1e1 1a3b b6e0 adbe
00000060: 3a3f 0b3d 904b aebc 90ac 183e c492 e63e
00000070: adc4 9b3d b902 5cbe 5215 99bc 3099 58bf
00000080: 00ef c63e b1d4 47bd f2df 0b3d 8c35 d6bd
00000090: bca1 c8bd a6ef 1abe ff5a 813d a74e 97bc
000000a0: 2014 cebd 7bbe adb9 b3f5 0dbd bb23 053e
000000b0: f72f cd3d 53e5 8b3e 733a 8abd e3b1 39bd
000000c0: 4eaf dcbd 62fc 343c f30e b2be 0acb 8d3d
000000d0: 90db 91be f4b9 af3d e8e1 cebe 215a 09bd
000000e0: 2a01 8bbd 51f3 b0bc 5e98 403d a802 78be
000000f0: bd4d 343e 0d13 89bd 3763 76be d04d 223d
00000100: 6438 273d 3e07 563d c477 d53d 7abe 3f3c
00000110: c10a 6d3e eb03 3d3d 71bd a9bd 72e3 a7bd
00000120: 689a eb3d 2c44 69bd 9d0e 21be 3802 213d
00000130: a840 913c 10ee 033d bbf5 acbd abcf 31bd
00000140: 4c96 d13c c2aa 623e 8c0f 31bd d4dd bf3d
00000150: 9625 863e f73d 10be c716 af3c 95c4 233d
00000160: a7bc 5cbc 1e2a 3ebe ed21 58be c884 923e
00000170: f3fe 3a3e 2c60 c7bd 25d8 e0bc 29f6 34bc
00000180: d29a 84bd 92aa 143d 3686 eabd b877 15bf
00000190: b64d 383d d82f 0dbe 333e eebd 0d2a cbbd
000001a0: 0df8 90be 9f62 a3bf 4ba0 8c3d 87d4 463e
000001b0: 2070 60be 76d4 84bd 987e ed3d 004d 42bf
000001c0: 141a 9ebe f679 89be 5754 86bd 1847 da3d
000001d0: b2a7 783d d12d abbc c9c9 6fbe 05bf 913d
000001e0: 7de1 1abf 375e ae3d ae66 afbe d268 4cbd
000001f0: 5ebe d0be 4f41 fd3d 2f98 e8bd ca84 5ebe
00000200: 0f0b 8cbc 1b31 f6bd 78f2 bbbd 4faa 2fbc
00000210: f22a 88bd 25ae 19bf 9b20 8dbd 928a 56bb
00000220: 43d4 38be ab91 f33c c39d f83c c816 88bd
00000230: 91ca c33d d0d0 07be 69d0 d4bd cc8f 893d
00000240: ce1b babd 1866 873c 1437 013e a8e8 cabc
00000250: ab5e 67bd 45d9 51bd 5f7c 57be 77b8 72be
00000260: be2a 19be 25ca 27be 2af9 babe b6b7 573e
00000270: f847 afbd af35 e73e 59e5 9b3d c60c 20bc
00000280: fab8 4ebe c0a9 0cbe a1a7 2d3e ec67 aabd
00000290: d5f8 9fbe b5c7 1e3d 3159 ab3c 4468 c2be
000002a0: 3de4 f43d b8d6 ebbc db3d 8a3d 360f 3abf
000002b0: ab5b bcba 7aa5 fe3b 17a5 e6ba 4278 14bc
000002c0: aabe 5c3e cb2a bfbc 57c9 5dbe 3fdd 74bf
000002d0: feb8 9f3c 613f 713d ed21 033c 3b88 253d
000002e0: 813b 36bd 8820 38be 80aa df3d 3534 973e
000002f0: 7255 75be 8684 0c3e 33ce eb3d 9f3d a03d
00000300: d5f2 85be 90a1 a43c 8872 bb3d 76a9 d7bd
00000310: eb75 05be afd6 3a3e 1f1e a83d 69fc 4e3d
00000320: 9b21 ad3e 32e9 153e 14f8 cc3c 50e0 3cbe
00000330: 07ed 8dbe 2321 103e 2735 19be 97bc 27bd
00000340: 6307 0abe f8f2 4ebe a964 303d 5184 8fbe
00000350: 345d 8cbd 48c9 cf3d 47c2 943d 0065 b43d
00000360: 99f3 0c3d 8a9c 89bc cb1c b03d 3c16 653c
00000370: c72e 973d 88dc b03b 630b 433d 6f8a 58bd
00000380: 5a70 d3be 38c0 bc3c 09b3 eebe 12d3 2cbe
00000390: dfb3 c93d 65c4 de3c d2d8 fabe ab67 c03c
000003a0: 45be 77be 0e1e 653e 53f6 f63e ac03 d53d
000003b0: 97c7 063b 6d18 32be e3d9 babd eb45 8e3e
000003c0: 890f 50be 2a65 c1bc 2821 9a3a 837f 28be
000003d0: 8fb5 6ebd b172 f93d 454d 02be a264 96bd
000003e0: f21c bcbd dcce 5abd 8182 1ebc 6a41 16bf
000003f0: b36d 323e 8b7f f5be 5060 e7be 2dad 19bd

net1.2.bias f4 [256]
-0.2739173 -0.3840103 0.27133822 -0.05484569 -0.0634739 -0.06624895 -0.041494433 0.20395303
0.019941056 0.0019443454 -0.24051031 -0.32859877 0.048000187 -0.06498459 0.2615524 0.1506778
0.045229357 0.039831985 -0.0038638406 -0.042575005 -0.73100126 0.018328397 0.021586807 0.09304339
-0.014765844 0.27110255 -0.051621016 0.028370306 -0.28769493 0.009228514 -0.06198425 -0.03625088
0.27705857 0.13016379 -0.11200384 -0.18539965 0.22918606 0.14869848 0.1856574 0.06564667
-0.2305566 -0.043133423 0.1889425 0.05994352 -0.6250785 -0.5169128 -0.15717988 -0.059412725
0.2936578 0.03477829 0.12661093 -0.04676222 -0.013168545 -0.2509752 0.018152677 0.030344237
-0.025974816 0.018485207 0.13069914 0.023590524 -0.053337976 -0.081008084 0.149636 -0.28176668
-0.05112314 0.0015857992 0.1234832 -0.037828006 0.05462344 -0.0037488618 0.25564992 -0.31590232
-0.27220598 -0.001018347 -0.29888391 -0.034529313 -0.022738129 -0.085549824 -0.48399088 -0.61625296
0.2692556 -0.23139313 -0.01443251 -0.59894294 0.14464553 -0.05524021 0.0055062436 0.18604536
0.14148964 0.15877111 -0.07248925 -0.026648592 0.014568553 -0.042022448 0.013365799 0.053687654
-0.0031215544 0.22836965 0.023505393 -0.3419712 0.03701721 -0.53715897 -0.06591744 0.038001638
-0.022757873 0.13200845 0.0070374208 0.05187235 0.039890517 -0.06078367 -0.013559607 -0.054097354
-0.03102603 0.25885224 0.03013763 0.20474693 0.39039886 -0.49367204 0.02791157 -0.02922848
0.21336287 0.30107242 -0.1507415 -0.009106645 0.22590168 0.16833098 0.092967845 0.2871841
0.22271422 -0.019113125 0.19863325 0.15292414 0.17068484 -0.10858742 -0.0020328064 0.4091217
0.26623598 -0.17285441 -0.012127549 -0.068397805 -0.34880257 -0.0047507077 0.009439398 0.0005151284
-0.12884255 0.10387687 -0.52436817 -0.49684072 0.25595966 0.15195979 0.22985533 0.11846552
-0.34957045 -0.21571228 -0.066916086 0.24505919 0.26596165 -0.007496625 -0.22729555 0.011277731
-0.04441105 -0.013093359 -0.3393565 0.27648598 0.040383015 -0.040873352 0.10503567 -0.48034897
0.04496254 -0.063065976 0.25019485 0.2317149 0.059948932 -0.07299708 0.14465494 -0.004148457
-0.026074504 -0.056560837 -0.016667416 0.020680344 -0.0649414 -0.083966866 0.24203122 -0.06716873
0.15196225 0.0336905 -0.06834666 0.13749942 -0.019657124 -0.25156164 -0.0071833236 0.1669348
-0.13031818 -0.039123405 -0.032136373 -0.062310096 -0.05473 0.03339115 0.01930039 0.08821122
-0.03758909 -0.023540942 0.023388138 -0.073713936 0.04768117 -0.041425984 0.19207855 -0.009395407
0.17856297 0.015987104 -0.6824891 0.015517913 0.20710076 -0.05110371 -0.0125257475 -0.34696212
0.13229206 0.13372494 -0.07536914 0.2660921 0.037688453 -0.51177675 -0.279001 0.017378397
0.15321091 -0.08879158 -0.068961516 -0.03436278 -0.39923522 0.17290987 0.080870464 0.2235039
-0.40749377 0.033388987 -0.044528536 -0.047586545 -0.062889926 0.15167049 -0.067600235 -0.532414
-0.06349072 0.12672886 -0.042268448 0.19907466 0.24498588 -0.44481018 0.23441406 -0.084282584
0.19079566 -0.16848801 0.04041052 0.04051402 0.03459655 0.20253904 -0.047409255 0.042283
00000000: e33e 8cbe ff9c c4be d8ec 8a3e e0a5 60bd
00000010: 9bfe 81bd 88ad 87bd 11f6 29bd 10d9 503e
00000020: 6d5b a33c 68d9 fe3a 5648 76be 193e a8be
00000030: d89b 443d a416 85bd 32ea 853e 484b 1a3e
00000040: 6b42 393d dd26 233d 7d38 7dbb 2163 2ebd
00000050: e622 3bbf 6f25 963c d1d6 b03c 888d be3d
00000060: 70ec 71bc f4cd 8a3e 8f70 53bd d868 e83c
00000070: c04c 93be 3133 173c 32e3 7dbd ce7b 14bd
00000080: 9fda 8d3e a849 053e 4562 e5bd 68d9 3dbe
00000090: c0af 6a3e 6a44 183e f91c 3e3e c371 863d
000000a0: 0817 6cbe acac 30bd 257a 413e 5687 753d
000000b0: 2505 20bf 6654 04bf c3f3 20be c25a 73bd
000000c0: 515a 963e ae73 0e3d 4ca6 013e be89 3fbd
000000d0: e2c0 57bc d27f 80be ecb4 943c 7a94 f83c
000000e0: 23c9 d4bc 4a6e 973c ffd5 053e ea40 c13c
000000f0: ec78 5abd 91e7 a5bd 2e3a 193e b943 90be
00000100: 7f66 51bd 97da cf3a c3e4 fc3d 8af1 1abd
00000110: d4bc 5f3d 77af 75bb 8ce4 823e f3bd a1be
00000120: 955e 8bbe 0e7a 85ba 5007 99be 9c6e 0dbd
00000130: 5045 babc bf34 afbd a7cd f7be c1c2 1dbf
00000140: dfdb 893e 52f2 6cbe 5676 6cbc 5354 19bf
00000150: f51d 143e 8f43 62bd b86d b43b ad82 3e3e
00000160: a9e2 103e e594 223e 3e75 94bd 264e dabc
00000170: f1b0 6e3c bb1f 2cbd 39fc 5a3c 96e7 5b3d
00000180: fe92 4cbb bcd9 693e 628e c03c d916 afbe
00000190: 5c9f 173d 4083 09bf b9ff 86bd 9ba7 1b3d
000001a0: b86e babc 392d 073e 2a9a e63b 1a78 543d
000001b0: 3d64 233d 4cf8 78bd 1d29 5ebc 3095 5dbd
000001c0: 4d2a febc 4888 843e 31e3 f63c 2ea9 513e
000001d0: 5ce2 c73e 95c2 fcbe cea6 e43c 9170 efbc
000001e0: cc7b 5a3e 2a26 9a3e fb5b 1abe 0a34 15bc
000001f0: c552 673e f55e 2c3e ed65 be3d cb09 933e
00000200: 320f 643e 2193 9cbc 8466 4b3e 2598 1c3e
00000210: 02c8 2e3e 1563 debd d538 05bb 6678 d13e
00000220: 1550 883e bf00 31be a1b2 46bc 2614 8cbd
00000230: 4096 b2be d3ab 9bbb b4a7 1a3c af09 073a
00000240: 4def 03be 65bd d43d fe3c 06bf e861 febe
00000250: 250d 833e 599b 1b3e 325f 6b3e 0d9e f23d
00000260: e6fa b2be aee3 5cbe 4d0b 89bd ccf0 7a3e
00000270: 202c 883e 40a6 f5bb 2ac0 68be 3bc6 383c
00000280: 5ce8 35bd 8785 56bc 23c0 adbe 928f 8d3e
00000290: a968 253d d16a 27bd f11c d73d 4df0 f5be
000002a0: a42a 383d bc28 81bd 8a19 803e ac46 6d3e
000002b0: 038d 753d 7e7f 95bd 6d20 143e c8ef 87bb
000002c0: 339a d5bc 56ac 67bd 1b8a 88bc d369 a93c
000002d0: ffff 84bd d2f6 abbd 08d7 773e c28f 89bd
000002e0: fe9b 1b3e 0dff 093d 55f9 8bbd a6cc 0c3e
000002f0: fa07 a1bc b0cc 80be 1662 ebbb f5f0 2a3e
00000300: 2172 05be dd3f 20bd 6ea1 03bd df38 7fbd
00000310: 912c 60bd 29c5 083d da1b 9e3c 16a8 b43d
00000320: 05f7 19bd efd8 c0bc 7b98 bf3c 55f7 96bd
00000330: 554d 433d 4bae 29bd 3db0 443e 31ef 19bc
00000340: 36d9 363e 63f7 823c 9bb7 2ebf d83e 7e3c
00000350: 3912 543e 2052 51bd cb38 4dbc 05a5 b1be
00000360: 9277 073e 31ef 083e 235b 9abd 393d 883e
00000370: 355f 1a3d cd03 03bf 38d9 8ebe 245d 8e3c
00000380: 52e3 1c3e 5cd8 b5bd b23b 8dbd fdbf 0cbd
00000390: 8f68 ccbe 490f 313e 6a9f a53d 35de 643e
000003a0: 06a3 d0be e4c2 083d 8e63 36bd 1cea 42bd
000003b0: 6fcc 80bd 824f 1b3e fe71 8abd 494c 08bf
000003c0: 6c07 82bd 36c5 013e ae21 2dbd 3ada 4b3e
000003d0: 94dd 7a3e 29be e3be 3d0a 703e 599c acbd
000003e0: f05f 433e 1f88 2cbe 8085 253d 07f2 253d
000003f0: 1db5 0d3d 6566 4f3e 3530 42bd f030 2d3d

net1.4.weight f4 [1, 256]
0.08753147 0.5459069 -1.05843 0.0015945513 -0.0062851734 -0.015181254 0.016802378 -0.08174077
-0.0013917683 -0.0353756 0.048181217 0.15377602 -1.6675932 0.008663922 -0.098611265 -0.08400891
-0.012316039 0.0048751794 0.00025178495 -0.021283116 1.1465888 -1.0685964 0.05060677 -0.21438605
0.034887746 -0.14394452 0.036163304 -0.027412172 0.11406208 -0.034092784 -0.029787077 0.032494593
-0.1561286 -0.07409973 9.380186e-05 0.0007629779 -0.09801325 -0.0820516 -0.08999156 -0.042734675
-0.0012660959 0.005150688 -0.06739135 -2.019399 1.2531865 0.70653725 1.2177547 -0.04071546
-0.14892335 0.03863562 -1.5117314 -0.022825854 0.026252016 0.5071372 0.009792793 0.029559027
-0.016339054 -0.012947322 -0.05006349 0.020070229 0.50026953 -0.008557158 -0.12658869 0.5475498
0.0006865388 0.0074952254 -0.075405665 0.04394589 -2.3458455 0.01281166 -0.10878081 0.52112067
0.27172863 -0.0150224855 0.64569426 0.017662263 0.004508215 -0.050592013 0.53949165 0.8124249
-0.15750472 0.62913257 0.10548032 0.8115535 -0.06927226 -0.025636196 -0.019168522 -0.11526939
-0.1319208 -1.20219 -0.006032299 -0.021144802 -0.041346967 0.014413667 -0.0010080321 0.032186054
-0.039974637 -0.13800476 -0.019883776 0.5344656 0.005381029 1.6668632 1.2507212 0.051071845
-0.0096968375 -0.09751869 0.005173895 -0.00028346642 -0.002757541 -0.03579722 0.004019477 0.0028259242
0.012861292 -0.1542925 -0.0439588 -0.09382118 -0.5991408 -2.1641028 0.02908059 -0.0116664395
-0.09335616 -0.15680143 0.52165455 0.0007204473 -0.13186394 -0.104510985 -0.806301 -0.20643423
-0.09434159 0.026341926 -0.109426185 -0.11640256 -0.10575716 0.8783787 0.039209217 -1.2086325
-0.1225155 -2.7116215 -0.41685072 -0.042666376 0.20016786 0.008505946 0.010833596 -0.008266646
0.5095985 0.6554484 0.4908329 0.9186925 -0.10785872 -0.12276385 -0.12639324 0.52835
0.5444978 0.009791956 -0.005449382 -0.1590976 -0.13437417 -0.008139595 0.017553048 0.0020108249
0.053298123 0.29635584 0.9219419 -0.15220307 0.0015646828 -0.04370397 -1.1519952 0.3697225
-0.7453679 -0.038587444 -0.15068825 -0.10097959 0.028579326 -0.0024860317 -0.061580896 0.0035821623
-0.02152226 0.0041026333 0.0082932655 -0.009838502 -0.027098479 0.024742682 -0.089824006 -0.026110385
-0.10712844 -0.026455443 -0.0023648948 -0.13254213 0.001678872 0.8373149 -0.030643877 -0.12238678
-0.5947245 0.010142359 0.0408511 -0.030342778 -0.01848895 0.007759934 -0.019643826 2.160115
-0.028875083 -0.0050084554 0.021666704 0.043392494 -0.032800704 -0.029338913 -0.51186043 -0.041269902
-0.1015199 0.014738485 1.0879954 0.008064922 -0.11552617 -0.02507934 0.005200025 -0.018551035
-0.11009211 -0.11325965 -0.0119500635 1.4347361 -0.61088425 0.6790351 0.57736355 -0.0061916485
-0.13047203 0.3599726 -0.0022101451 -0.0061694905 0.7954685 -0.08885013 -0.0297137 -0.17300901
0.005371839 0.030526908 0.08527739 0.32165408 0.042775758 -0.0417085 -0.0081578195 0.3901902
-0.034735937 -1.0323973 0.12565693 -0.11215589 -2.3323002 1.119288 -0.1082847 0.009114184
-0.1693474 0.0016739862 0.012232134 0.006090169 -0.020038199 -1.1064847 0.007672549 -0.015130742
00000000: b343 b33d 8ec0 0b3f a27a 87bf 4300 d13a
00000010: dbf3 cdbb cbba 78bc 24a5 893c b467 a7bd
00000020: ff6b b6ba 01e6 10bd ab59 453d 7677 1d3e
00000030: b273 d5bf 1ff3 0d3c b4f4 c9bd dd0c acbd
00000040: 36c9 49bc f8bf 9f3b 0102 8439 ee59 aebc
00000050: 6cc3 923f c4c7 88bf 0b49 4f3d 0488 5bbe
00000060: 74e6 0e3d 3166 13be f91f 143d 7e8f e0bc
00000070: 6199 e93d e0a4 0bbd 0704 f4bc 0d19 053d
00000080: 2de0 1fbe 99c1 97bd 7db7 c438 9502 483a
00000090: 2cbb c8bd ab0a a8bd 7f4d b8bd 8e0a 2fbd
000000a0: 21f3 a5ba 1ac7 a83b 7a04 8abd d53d 01c0
000000b0: 6a68 a03f a0df 343f 63df 9b3f 41c5 26bd
000000c0: 5d7f 18be 6240 1e3d 6a80 c1bf 49fd babc
000000d0: 780e d73c bed3 013f f371 203c c625 f23c
000000e0: 7bd9 85bc 0121 54bc 600f 4dbd 526a a43c
000000f0: aa11 003f 5233 0cbc 77a0 01be 392c 0c3f
00000100: d7f8 333a 829a f53b 496e 9abd 9b00 343d
00000110: 5522 16c0 ffe7 513c 79c8 debd 2a68 053f
00000120: 0420 8b3e df20 76bc 384c 253f 73b0 903c
00000130: a6b9 933b 9239 4fbd 201c 0a3f 14fb 4f3f
00000140: eb48 21be d50e 213f 1106 d83d f8c1 4f3f
00000150: 9dde 8dbd 0003 d2bc 4e07 9dbc 5c12 ecbd
00000160: 3f16 07be 5de1 99bf 97aa c5bb dd37 adbc
00000170: 705b 29bd 4d27 6c3c f21f 84ba 86d5 033d
00000180: 72bc 23bd 1f51 0dbe 4de3 a2bc bdd2 083f
00000190: 5853 b03b c65b d53f a217 a03f b630 513d
000001a0: 7cdf 1ebc e1b7 c7bd c789 a93b 389e 94b9
000001b0: dcb7 34bb 1ba0 12bd d1b5 833b 2433 393b
000001c0: 2bb8 523c dafe 1dbe 250e 34bd 5225 c0bd
000001d0: 4b61 19bf a980 0ac0 6b3a ee3c 9824 3fbc
000001e0: 8431 bfbd 8e90 20be 278b 053f 66dc 3c3a
000001f0: 5707 07be db09 d6bd be69 4ebf 7f63 53be
00000200: 2a36 c1bd 06cb d73c d61a e0bd 7764 eebd
00000210: 3697 d8bd 6ddd 603f d899 203d 78b4 9abf
00000220: 68e9 fabd 358b 2dc0 756d d5be f0c2 2ebd
00000230: cef8 4c3e 865c 0b3c 657f 313c d470 07bc
00000240: 0c75 023f 77cb 273f 734e fb3e 6f2f 6b3f
00000250: 08e5 dcbd 9d6b fbbd 3b6d 01be f241 073f
00000260: 3564 0b3f 716e 203c bb90 b2bb 7bea 22be
00000270: 6299 09be f05b 05bc 69cb 8f3c 0bc8 033b
00000280: 224f 5a3d f4bb 973e 6204 6c3f 1fdb 1bbe
00000290: 0b16 cd3a ef02 33bd 9474 93bf 444c bd3e
000002a0: 6ed0 3ebf de0d 1ebd 054e 1abe 63ce cebd
000002b0: 311f ea3c b1ec 22bb 403c 7cbd b6c2 6a3b
000002c0: 734f b0bc 626f 863b 7ae0 073c ab31 21bc
000002d0: a1fd ddbc 2ab1 ca3c a6f5 b7bd 72e5 d5bc
000002e0: 2866 dbbd 16b9 d8bc 5afc 1abb 20b9 07be
000002f0: 990d dc3a 455a 563f de08 fbbc eca5 fabd
00000300: dd3f 18bf 232c 263c 7c53 273d 6b91 f8bc
00000310: 2376 97bc 0b47 fe3b 17ec a0bc 533f 0a40
00000320: 708b ecbc f81d a4bb 5f7e b13c 54bc 313d
00000330: 085a 06bd 2958 f0bc 4909 03bf a10a 29bd
00000340: aae9 cfbd b079 713c 6f43 8b3f bc22 043c
00000350: fc98 ecbd 3073 cdbc f964 aa3b 57f8 97bc
00000360: f977 e1bd adf4 e7bd 33ca 43bc 6fa5 b73f
00000370: e962 1cbf 3fd5 2d3f 19ce 133f 50e3 cabb
00000380: 769a 05be 544e b83e 15d8 10bb 7029 cabb
00000390: d3a3 4b3f 0ff7 b5bd 256a f3bc 4629 31be
000003a0: 4006 b03b 9113 fa3c eaa5 ae3d d8af a43e
000003b0: a235 2f3d 88d6 2abd 60a8 05bc 03c7 c73e
000003c0: 4547 0ebd 9825 84bf 36ac 003e fdb1 e5bd
000003d0: 6844 15c0 d444 8f3f 5ec4 ddbd a953 153c
000003e0: 6869 2dbe a869 db3a 4a69 483c 0a90 c73b
000003f0: 2627 a4bc 4aa1 8dbf 026a fb3b efe6 77bc

net2.0.weight f4 [256, 7]
-0.7016622 -0.121725574 -0.20926198 -0.7093094 0.18396582 0.0044770977 -0.07265291 -0.23657592
-0.46978885 0.10860611 0.7696088 0.4397636 -0.031693526 0.026991036 -0.21453637 0.145882
-0.32108763 0.4999206 0.6857175 -0.039959386 -0.06531854 0.12265614 -0.14552021 0.3405795
0.8416425 -0.41829783 -0.021935945 -0.017488888 -0.43697616 -0.07303278 0.0022052333 -1.2003113
-0.65432113 0.04669103 -0.018798979 -0.23751208 -0.60222405 -0.56232053 -0.791307 0.2802331
0.015610292 -0.016741479 0.34446195 -0.039811768 -0.2968081 -0.31761912 -0.074810065 0.0061376914
0.012218915 0.11142585 0.01884497 -0.3346878 0.88313466 -0.5453664 0.041207887 -0.06547659
0.16828975 -0.37952405 -0.34041166 0.77575237 -0.5014769 0.2469095 -0.042522762 -0.2422429
0.42074054 0.06180629 -0.7276547 -0.02036683 -0.0465209 0.034974497 -0.18816675 -0.42786235
0.3616692 0.025380265 -0.19865452 -0.05799604 0.0671668 -0.14876185 0.35803327 -0.01189901
0.28404343 1.4937881 -0.042640913 0.0024995208 -0.22319323 0.36691678 -0.048401184 0.46318257
0.5232858 0.14117102 -0.027562328 0.21333754 -0.36050695 -0.0528289 -0.6218995 0.64928865
-0.062146246 0.02524655 0.13442081 -0.21362138 -0.14121298 -0.86322635 0.029116737 0.01136043
-0.06986432 -0.021853669 -0.31338447 -0.36666608 1.0760576 0.0009898136 0.06509089 0.007230208
0.23006509 -0.58008564 -0.04019165 0.38158303 -0.6522509 -0.014086276 0.004648167 0.05455629
-0.04068843 -0.28475627 -0.20979308 -0.796738 -0.031080987 -0.07861441 -0.77417773 -0.13220981
-0.03259826 -0.8927421 -0.3911415 -0.07781458 -0.08074405 0.3225477 0.22249886 0.42967528
-0.08762822 -0.6533169 0.09215638 0.10581712 -0.024514196 0.26929012 0.17353182 0.38519984
0.5336797 -0.14504503 -0.24536617 -0.25039655 -0.71675986 -0.57162464 -0.54651207 -0.7641919
0.26619393 -0.0013921355 -0.42990354 0.51144236 0.023807453 0.26992458 0.45111763 0.038109854
-0.06679591 -0.4058973 0.22396055 0.22456054 0.22009777 1.3399267 0.04467667 -0.026716948
0.13821936 0.2260981 -0.2267989 0.38347152 -0.79027104 -0.07454201 0.056074418 0.2651504
-0.21490929 0.17615658 -0.7329078 0.35340267 -0.166015 -0.0951846 0.00012607672 0.14708968
-0.03828919 0.87720317 0.36941206 0.030457856 -0.0933559 -0.06007589 0.047758855 -0.20708835
0.43000853 -0.47655436 -0.064896636 0.012812449 -0.541973 -0.12503657 -0.3122229 -0.11963727
-0.52540904 -0.017412899 -0.053929716 -0.20941113 -0.5748124 0.031283032 0.34021813 -0.34757066
0.017149443 0.11673569 -0.076236516 0.030276734 -0.1270054 -0.43314153 -0.37541312 0.3463808
0.117875785 0.0943244 0.15347092 -0.053071078 0.092599265 0.43292794 0.1695093 -0.005082423
0.0442923 0.004563209 0.111709565 -1.0368876 -0.53605014 -0.0011693984 0.110790595 0.14041753
-0.36171213 0.082989715 -0.030311666 0.00047387328 0.10386272 0.041994534 -0.38875225 0.4610311
-0.02720868 0.08140038 0.16596253 0.030739672 0.16336982 -0.12663388 -0.116370305 0.29354542
-0.24731456 0.061640177 -0.2588015 0.021002814 0.14254571 0.13805184 0.077208355 -0.57828325
00000000: 22a0 33bf 424b f9bd c648 56be 4d95 35bf
00000010: 8961 3c3e 9eb4 923b 0dcb 94bd f540 72be
00000020: 2a88 f0be e16c de3d 1505 453f b228 e13e
00000030: 12d1 01bd 4e1c dd3c 6caf 5bbe 1762 153e
00000040: 9965 a4be 98f5 ff3e 2f8b 2f3f 74ac 23bd
00000050: bac5 85bd 2433 fb3d 4003 15be 7060 ae3e
00000060: e275 573f 222b d6be 03b3 b3bc db44 8fbc
00000070: 57bb dfbe 3692 95bd ad85 103b cda3 99bf
00000080: 9781 27bf 183f 3f3d 5100 9abc 5e36 73be
00000090: 5b2b 1abf 3df4 0fbf 1893 4abf b67a 8f3e
000000a0: 4fc2 7f3c 6d25 89bc 515d b03e aa11 23bd
000000b0: 3bf7 97be f99e a2be 0536 99bd b01e c93b
000000c0: d831 483c 3c33 e43d c460 9a3c 335c abbe
000000d0: 1d15 623f 229d 0bbf 9ac9 283d 9718 86bd
000000e0: 2654 2c3e fa50 c2be 704a aebe b597 463f
000000f0: ca60 00bf d8d5 7c3e 592c 2ebd 860e 78be
00000100: 4e6b d73e 9828 7d3d 9447 3abf 57d8 a6bc
00000110: b38c 3ebd 6b41 0f3d c9ae 40be c610 dbbe
00000120: b52c b93e 46ea cf3c 176c 4bbe 418d 6dbd
00000130: bf8e 893d 0755 18be 2350 b73e 11f4 42bc
00000140: 246e 913e 7334 bf3f 3da8 2ebd 00cf 233b
00000150: c48c 64be 84dc bb3e 5240 46bd 4426 ed3e
00000160: 0ff6 053f 238f 103e 64ca e1bc 2875 5a3e
00000170: 5e94 b8be 1e63 58bd ce34 1fbf c837 263f
00000180: 108d 7ebd dad1 ce3c 9ca5 093e 90bf 5abe
00000190: 239a 10be 67fc 5cbf 3986 ee3c 1921 3a3c
000001a0: 0615 8fbd 7706 b3bc ee73 a0be a8bb bbbe
000001b0: 41bc 893f a2bc 813a 5f4e 853d 61eb ec3b
000001c0: 2f96 6b3e 7e80 14bf 00a0 24bd da5e c33e
000001d0: eaf9 26bf 20ca 66bc a74f 983b 6b76 5f3d
000001e0: e9a8 26bd 93cb 91be ffd3 56be 06f7 4bbf
000001f0: 8e9d febc 9700 a1bd 8330 46bf 0262 07be
00000200: c185 05bd bf8a 64bf b343 c8be 405d 9fbd
00000210: 235d a5bd f924 a53e bed6 633e 66fe db3e
00000220: 6d76 b3bd c73f 27bf 7cbc bc3d a5b6 d83d
00000230: ffd1 c8bc 65e0 893e 53b2 313e ea38 c53e
00000240: 3c9f 083f af86 14be 4541 7bbe fa33 80be
00000250: 937d 37bf fe55 12bf 37e8 0bbf 15a2 43bf
00000260: 924a 883e 5178 b6ba 511c dcbe e3ed 023f
00000270: d907 c33c 8e33 8a3e e4f8 e63e 1419 1c3d
00000280: 4bcc 88bd c5d1 cfbe ea55 653e 33f3 653e
00000290: 4f61 613e b882 ab3f e2fe 363d 80dd dabc
000002a0: 6089 0d3e 4386 673e f93d 68be 6156 c43e
000002b0: 344f 4abf 7ba9 98bd 4aae 653d cbc1 873e
000002c0: 2e11 5cbe 6462 343e d89f 3bbf 32f1 b43e
000002d0: d6ff 29be 25f0 c2bd 7633 0439 ad9e 163e
000002e0: 20d5 1cbd 6390 603f 9423 bd3e c182 f93c
000002f0: 6131 bfbd 2312 76bd ca9e 433d f80e 54be
00000300: 142a dc3e effe f3be 87e8 84bd 4eeb 513c
00000310: bebe 0abf 9609 00be aedb 9fbe 6304 f5bd
00000320: 3581 06bf 7fa5 8ebc 68e5 5cbd df6f 56be
00000330: e826 13bf a322 003d 1231 ae3e c8f4 b1be
00000340: fd7c 8c3c 1f13 ef3d e421 9cbd ea06 f83c
00000350: b40d 02be bac4 ddbe 2636 c0be d358 b13e
00000360: dc68 f13d 272d c13d 7b27 1d3e 0f61 59bd
00000370: afa4 bd3d bba8 dd3e d993 2d3e 748a a6bb
00000380: d86b 353d f986 953b fcc7 e43d bcb8 84bf
00000390: 953a 09bf 8046 99ba 2ee6 e23d 9dc9 0f3e
000003a0: 5532 b9be 83f6 a93d 2c50 f8bc 3272 f839
000003b0: fab5 d43d 7602 2c3d 890a c7be 450c ec3e
000003c0: bde4 debc 3eb5 a63d 15f2 293e c4d1 fb3c
000003d0: 6b4a 273e 50ac 01be 8e53 eebd 964b 963e
000003e0: 0740 7dbe 697a 7c3d a181 84be 180e ac3c
000003f0: 81f7 113e 765d 0d3e 6a1f 9e3d 5f0a 14bf

net2.0.bias f4 [256]
0.14665462 -0.22794238 -0.5281573 -0.57809126 0.29147804 0.20217368 -0.78134733 -0.21721438
-0.34945422 -0.061389778 0.1962743 -0.5135635 -0.31921563 0.32920095 0.49976084 -0.474126
0.32885227 0.3612734 0.3397509 -0.5279503 -0.8585955 0.2774793 -0.2694361 -0.27969134
0.53382695 -0.041904073 -0.039200954 0.6041253 -0.34276754 -0.42595673 0.1365567 0.34671065
0.11676983 0.5177165 -0.33868352 0.546819 0.57807 0.2318982 0.34113416 -0.17316422
-0.22054061 -0.13471167 0.43187287 0.45189875 0.31309676 0.0449682 -0.26885197 -0.25691697
-0.0744194 0.22016034 -0.70688957 -0.49816823 0.5501502 0.22773077 0.32841364 -0.49768895
-1.0035583 -0.7525933 0.81499964 0.50708854 0.63915086 -0.55952924 -0.9809547 -0.9295987
-0.105440535 -0.12393058 0.536484 0.48006096 0.24674837 0.37092972 0.71441835 0.5514165
-0.072464086 0.6471717 0.36980337 -0.69081724 -0.1534338 -0.11359701 0.52023554 0.5881515
0.7397402 -0.73466396 -0.029667182 0.30325028 0.72339356 -0.5490978 -0.48805898 0.3707819
-0.51835114 -0.58001494 -0.59558684 -0.7110722 0.44116297 -0.34841198 -0.5274986 0.29060993
-0.1995971 0.066989236 0.7066111 0.62215537 0.78581154 0.6853795 0.41919425 0.52974856
0.48843735 -0.60068095 0.2931372 0.24157174 0.5919429 -0.34308323 -0.030398382 0.6923247
-0.21402049 -0.55884045 -0.012035918 -0.50363463 0.07667244 -0.28362107 -0.4909915 0.54843366
0.031731147 0.6196024 -0.4396638 -0.09566887 0.293378 0.31938213 -0.37943745 -0.18320793
0.58087623 -0.64108753 -0.5681258 -0.45372796 -0.28359324 0.44620243 -0.19151637 -0.42966715
-0.16034159 -0.8834207 -0.33533233 0.16696851 -0.5928632 -0.43230593 0.27695334 0.22791904
0.5190666 0.82421786 0.55573094 0.7369819 -0.058324277 -0.68190736 0.596619 0.517248
-0.17202835 -0.6477197 0.8507229 0.6026403 0.44853482 -0.5281744 -0.39060932 0.3940395
0.6035597 -0.35200444 0.56358933 -0.5593598 -0.50271 -0.4046948 0.52893686 -0.37586644
-0.32193422 -0.0300715 0.009223332 0.34061542 0.16972539 0.031459283 0.51697844 0.47674763
-0.64006925 0.027530164 0.63363063 0.21442175 -0.5733164 -0.2746384 0.11674756 0.33293226
-0.043743778 0.33286557 0.6093476 0.45642427 -1.0427452 -0.3425868 -0.81794673 0.04096247
0.059256993 -0.42810154 0.010570417 0.5500093 -0.051157393 0.3416188 -0.13611235 -0.7930784
0.30492008 -0.5188618 0.029452832 0.14319472 0.36948168 -0.69295776 0.5036638 0.24865016
-0.05280747 -0.2063952 -0.5345346 0.37723854 -0.47841182 -0.2133086 0.00026505959 -0.805822
0.47928998 0.38036457 -0.5548806 -0.36060444 0.1592302 -0.570339 -0.32540494 -0.59253985
-0.39153445 0.57665616 -0.24620095 0.6661374 -0.58885926 0.35300833 0.060281225 0.4397786
0.073464945 -0.40023872 0.68234193 0.27084863 -0.42649058 -0.13639715 -0.2662258 -0.2838118
-0.31290165 0.46664795 -0.38409063 0.49603286 0.11859929 -0.14717261 0.72232294 -1.0710267
-0.18536052 -0.13150114 0.47637674 0.6239124 -0.5299146 -0.69931173 0.60507596 -0.49303657
00000000: a12c 163e ba69 69be 5135 07bf cafd 13bf
00000010: 9c3c 953e 9e06 4f3e 6106 48bf 726d 5ebe
00000020: aaeb b2be d973 7bbd 21fc 483e e678 03bf
00000030: 3b70 a3be 078d a83e a7e0 ff3e a5c0 f2be
00000040: 535f a83e d4f8 b83e d4f3 ad3e c027 07bf
00000050: eacc 5bbf c411 8e3e 87f3 89be b433 8fbe
00000060: e2a8 083f 9ba3 2bbd 2e91 20bd f5a7 1a3f
00000070: 3a7f afbe 0017 dabe 85d5 0b3e 0f84 b13e
00000080: 0525 ef3d 1289 043f ed67 adbe 54fc 0b3f
00000090: 65fc 133f b976 6d3e 23a9 ae3e f651 31be
000000a0: 66d5 61be dbf1 09be 711e dd3e 465f e73e
000000b0: 384e a03e 9330 383d f7a6 89be 9f8a 83be
000000c0: 3369 98bd b671 613e b7f6 34bf e80f ffbe
000000d0: a5d6 0c3f 4132 693e d525 a83e 16d1 febe
000000e0: 9974 80bf f4a9 40bf d1a3 503f 8ed0 013f
000000f0: 649f 233f 4f3d 0fbf d91f 7bbf 2efa 6dbf
00000100: 35f1 d7bd 51cf fdbd 0457 093f 8dca f53e
00000110: 9bab 7c3e 80ea bd3e 1fe4 363f a229 0d3f
00000120: 0d68 94bd 0bad 253f de56 bd3e 66d9 30bf
00000130: c01d 1dbe 8da5 e8bd 282e 053f 1991 163f
00000140: 9d5f 3d3f f012 3cbf 9708 f3bc 9f43 9b3e
00000150: 5230 393f ac91 0cbf dee2 f9be 20d7 bd3e
00000160: a9b2 04bf dc7b 14bf 6178 18bf d408 36bf
00000170: 1de0 e13e 0e63 b2be 260a 07bf d3ca 943e
00000180: 2f63 4cbe a731 893d 77e4 343f 9345 1f3f
00000190: f22a 493f 0875 2f3f a1a0 d63e 9a9d 073f
000001a0: 7614 fa3e 3ac6 19bf 1416 963e 955e 773e
000001b0: 9289 173f 9ba8 afbe 0706 f9bc 313c 313f
000001c0: 3028 5bbe 2b10 0fbf 4d32 45bc 33ee 00bf
000001d0: 7106 9d3d c836 91be 3d63 fbbe 2666 0c3f
000001e0: 85f8 013d 439e 1e3f 9d1b e1be 0aee c3bd
000001f0: a435 963e 0e86 a33e a045 c2be dc9a 3bbe
00000200: 4eb4 143f 501e 24bf b170 11bf 084f e8be
00000210: 2233 91be a574 e43e de1c 44be 55fd dbbe
00000220: 9630 24be dc27 62bf aeb0 abbe cbf9 2a3e
00000230: e2c5 17bf 3457 ddbe d4cc 8d3e 9c63 693e
00000240: 8ce1 043f f1ff 523f 6244 0e3f d9aa 3c3f
00000250: 70e5 6ebd 7b91 2ebf 06bc 183f 5d6a 043f
00000260: 3328 30be f5d0 25bf fac8 593f a246 1a3f
00000270: 5ba6 e53e 7036 07bf f2fd c7be 8cbf c93e
00000280: e382 1a3f ed39 b4be 6447 103f 3432 0fbf
00000290: 9ab1 00bf 2834 cfbe 6868 073f 9171 c0be
000002a0: 90d4 a4be 8258 f6bc 751d 173c 2565 ae3e
000002b0: 7ecc 2d3e 73db 003d b358 043f 4418 f43e
000002c0: 94db 23bf f086 e13c 9e35 223f 6091 5b3e
000002d0: ddc4 12bf 689d 8cbe 5819 ef3d 1976 aa3e
000002e0: ad2c 33bd 5b6d aa3e 34fe 1b3f 71b0 e93e
000002f0: ad78 85bf 8967 afbe f564 51bf 43c8 273d
00000300: 76b7 723d 2030 dbbe 8b2f 2d3c 69cd 0c3f
00000310: 6a8a 51bd a9e8 ae3e 0961 0bbe 3007 4bbf
00000320: 7c1e 9c3e 20d4 04bf 1147 f13c a3a1 123e
00000330: b42c bd3e ae65 31bf 1cf0 003f 269e 7e3e
00000340: a54c 58bd 4359 53be 42d7 08bf 6925 c13e
00000350: 65f2 f4be 926d 5abe b2f7 8a39 5a4a 4ebf
00000360: 7f65 f53e 25bf c23e a80c 0ebf 25a1 b8be
00000370: 3e0d 233e bd01 12bf 7a9b a6be b1b0 17bf
00000380: 3477 c8be bd9f 133f 1a1c 7cbe fb87 2a3f
00000390: 7bbf 16bf 82bd b43e 72e9 763d a92a e13e
000003a0: ca74 963d 17ec ccbe f6ad 2e3f acac 8a3e
000003b0: f95c dabe b2ab 0bbe c04e 88be c84f 91be
000003c0: a534 a0be 7bec ee3e 87a7 c4be 05f8 fd3e
000003d0: 2fe4 f23d 6bb4 16be 28ea 383f 6717 89bf
000003e0: 26cf 3dbe 3ca8 06be a7e7 f33e b9b8 1f3f
000003f0: 7ca8 07bf 1806 33bf 42e6 1a3f 4a6f fcbe

net2.2.weight f4 [256, 256]
-0.014537647 0.027880086 0.12127818 -0.008514329 -0.037684955 -0.04857774 -0.040161602 -0.052571632
-0.03616221 -0.20800698 0.048325248 -0.20936166 -0.43542576 -0.03722252 -0.100792706 -0.091256164
0.018601744 -0.30854297 -0.09592493 -0.032955736 -0.31300968 0.024275882 -0.039962016 -0.13328418
-0.1212807 -0.0041111773 -0.23772484 -0.17087385 0.085730456 -0.07267799 -0.39131826 -0.5520554
0.041430734 0.026913708 -0.34423456 0.0063754315 -0.10062143 0.055953752 -0.025899589 -0.38180518
-0.3655628 -0.1541026 -0.09504691 -0.13462317 0.02691714 -0.09756078 0.0861603 -0.104137674
-0.029073471 0.09073336 -0.0809056 -0.038940877 -0.11159817 0.03010384 -0.08646699 -0.020569248
0.07312218 -0.036053263 -0.104310624 0.12952746 -0.019141234 -0.3677592 0.080024116 0.0330134
-0.15506315 -0.42205414 -0.12155351 0.01587107 -0.05722099 0.02354282 -0.058798272 -0.029158434
-0.038103055 -0.059999693 -0.015292716 -0.1121325 -0.029444404 -0.030379308 -0.0057308413 -0.112984926
-0.11431273 -0.5062256 0.10820307 0.020814177 -0.1878662 -0.2579217 0.039841842 0.03917946
0.057791 -0.18016298 -0.19390206 0.019252025 0.03360902 -0.15130848 -0.029353356 -0.09384631
-0.1072496 -0.015801728 0.017084781 -0.13605124 -0.022029763 0.071648285 -0.22592846 -0.0031065505
-0.18230136 -0.26175123 0.019678932 -0.1446546 0.042584617 -0.04676575 -0.15173429 -0.41359144
0.093682595 0.09902479 -0.27432016 -0.09680582 0.046800114 -0.19071664 0.18667684 0.08887993
-0.06582025 -0.10851479 -8.020647e-05 0.07307424 -0.01799464 0.31669432 0.02265262 -0.034744177
0.020538425 0.05240447 -0.43691716 0.03403035 0.04066561 -0.16494016 0.03691806 -0.02967462
-0.0050357897 0.082596205 -0.15687308 -0.04206683 -0.2985671 -0.3231562 -0.2427222 -0.33937207
-0.042643018 -0.09999965 -0.049751412 -0.11188115 0.007084386 0.025580717 -0.014333331 0.06891455
-0.027230166 0.098843746 0.011199675 -0.19324785 -0.10174158 0.010063475 0.0608215 -0.26292536
0.10154865 -0.032117262 -0.11379744 -0.24890569 0.0959365 -0.6322731 -0.00592566 0.0029189554
-0.15213987 -0.12986426 -0.061654992 -0.09691298 -0.0028582644 -0.14394642 -0.0492025 -0.37915272
0.0013399957 -0.18126158 -0.079598054 -0.14282216 0.010505977 -0.11788407 -0.036260296 -0.40236512
0.05143005 -0.20813517 -0.1485939 -0.12235887 0.035324484 0.049891748 -0.53398687 0.07897595
0.003817182 -0.034829866 0.16577938 -0.01949769 -0.06997273 -0.030758794 0.00799668 -0.08013644
-0.013372711 -0.076597035 -0.23143297 0.025544498 -0.08200304 0.055611815 -0.14797698 -0.3357238
-0.015364363 -0.25490105 0.003642692 -0.00404952 -0.011802023 0.05254763 -0.2032446 -0.010574475
-0.00354522 -0.12233704 0.08639555 0.1004952 0.0460104 -0.18585779 -0.029729025 -0.03971396
0.10342417 -0.0243614 -0.1694102 -0.0012436338 -0.08563756 0.024634656 0.067558646 -0.05526409
-0.67029244 -0.1384409 -0.25446782 0.040596645 0.08420274 0.06949646 0.08615482 -0.48941872
0.089274116 -0.059880603 0.08301522 -0.034048792 -0.04306184 -0.12804087 -0.056078747 -0.13189338
-0.09848104 0.08060974 -0.0010518988 0.014549629 0.015978513 -0.20203534 0.00091643573 -0.033519078
00000000: 502f 6ebc c764 e43c b260 f83d af7f 0bbc
00000010: 8a5b 1abd 74f9 46bd 7e80 24bd 5a55 57bd
00000020: d31e 14bd c8ff 54be b2f0 453d e762 56be
00000030: 20f0 debe a476 18bd 686c cebd 83e4 babd
00000040: af62 983c 58f9 9dbe 4a74 c4bd 98fc 06bd
00000050: ce42 a0be 37de c63c 36af 23bd a67b 08be
00000060: 0462 f8bd 0eb7 86bb 246e 73be 8ef9 2ebe
00000070: 7393 af3d 33d8 94bd de5a c8be 8153 0dbf
00000080: 46b3 293d 237a dc3c 833f b0be ffe8 d03b
00000090: 9c12 cebd c32f 653d 602b d4bc f87b c3be
000000a0: 0c2b bbbe 12cd 1dbe f4a7 c2bd a8da 09be
000000b0: 5681 dc3c f2cd c7bd d074 b03d 2246 d5bd
000000c0: 7d2b eebc 69d2 b93d d6b1 a5bd 7880 1fbd
000000d0: 958d e4bd 549c f63c 9b15 b1bd d780 a8bc
000000e0: 15c1 953d 96ac 13bd cfa0 d5bd d9a2 043e
000000f0: 14ce 9cbc ef4a bcbe afe3 a33d 0f39 073d
00000100: e0c8 1ebe 7b17 d8be 0cf1 f8bd 0c04 823c
00000110: 8f60 6abd dfdc c03c 75d6 70bd abdd eebc
00000120: f311 1cbd 3dc2 75bd 4d8e 7abc b9a5 e5bd
00000130: 6435 f1bc 07de f8bc c8c9 bbbb a464 e7bd
00000140: cb1c eabd 0098 01bf 9299 dd3d 7e82 aa3c
00000150: ff5f 40be 500e 84be 3331 233d a47a 203d
00000160: 41b6 6c3d a57c 38be 438e 46be 6cb6 9d3c
00000170: 9da9 093d 9cf0 1abe 7376 f0bc 7f32 c0bd
00000180: aea5 dbbd a072 81bc 62f5 8b3c 0451 0bbe
00000190: c377 b4bc 56bc 923d ca59 67be 4597 4bbb
000001a0: 35ad 3abe 4204 86be b635 a13c 5620 14be
000001b0: 356d 2e3d 718d 3fbd 3c60 1bbe 42c2 d3be
000001c0: a9dc bf3d 82cd ca3d b173 8cbe 2142 c6bd
000001d0: 7ab1 3f3d 394b 43be 3728 3f3e ae06 b63d
000001e0: c4cc 86bd 013d debd 8534 a8b8 f2a7 953d
000001f0: 7f69 93bc c225 a23e fd91 b93c e94f 0ebd
00000200: 3340 a83c 12a6 563d 9bb3 dfbe 6963 0b3d
00000210: fc90 263d 13e6 28be 6437 173d 3018 f3bc
00000220: 4403 a5bb 3328 a93d 56a3 20be 454e 2cbd
00000230: c9dd 98be bb74 a5be 2b8c 78be 2dc2 adbe
00000240: 72aa 2ebd 9ecc ccbd 23c8 4bbd f221 e5bd
00000250: 2324 e83b a78e d13c 59d6 6abc 1223 8d3d
00000260: cc11 dfbc 976e ca3d d77e 373c c4e2 45be
00000270: e45d d0bd 46e1 243c f71f 793d 279e 86be
00000280: bdf8 cf3d 648d 03bd a20e e9bd 22e1 7ebe
00000290: 5b7a c43d a6dc 21bf 0a2c c2bb f24b 3f3b
000002a0: 8eca 1bbe 23fb 04be f289 7cbd 507a c6bd
000002b0: b851 3bbb b166 13be 9088 49bd 4e20 c2be
000002c0: cba2 af3a a39c 39be 4e04 a3bd f93f 12be
000002d0: 4321 2c3c 346d f1bd ad85 14bd cd02 cebe
000002e0: 51a8 523d 6321 55be 0029 18be 4a97 fabd
000002f0: 68b0 103d 4a5b 4c3d 5db3 08bf 25be a13d
00000300: b029 7a3b c3a9 0ebd 12c2 293e 9fb9 9fbc
00000310: dd4d 8fbd def9 fbbc 8204 033c 931e a4bd
00000320: 3719 5bbc e8de 9cbd c4fc 6cbe b242 d13c
00000330: 36f1 a7bd 37c9 633d 4787 17be fde3 abbe
00000340: cfba 7bbc 6482 82be 3bba 6e3b d6b1 84bb
00000350: 465d 41bc 2f3c 573d 5a1f 50be 9040 2dbc
00000360: ec56 68bb d88b fabd 26f0 b03d 6dd0 cd3d
00000370: 6775 3c3d 8151 3ebe 498a f3bc 1bab 22bd
00000380: 0dd0 d33d 8f91 c7bc de79 2dbe 6d01 a3ba
00000390: bf62 afbd 9ece c93c 305c 8a3d 995c 62bd
000003a0: 4998 2bbf 74c3 0dbe 9b49 82be ab48 263d
000003b0: 7c72 ac3d 2954 8e3d f071 b03d 1795 fabe
000003c0: 59d5 b63d 5d45 75bd e203 aa3d bf76 0bbd
000003d0: 9d61 30bd 251d 03be d4b2 65bd 0f0f 07be
000003e0: 6db0 c9bd b816 a53d dedf 89ba 9161 6e3c
000003f0: 5fe5 823c 5ae2 4ebe f63c 703a 4d4b 09bd
