tau_data/seed0/SAC_STL_critic_500000.pth (torch, 549013 bytes, 10 tensors)

net1.0.weight f4 [256, 7]
0.12788776 0.12994792 -0.040743195 -0.43627205 -0.5805707 0.26818493 0.18788719 -0.2597012
-0.2464848 0.14354742 -0.29486045 -0.26434296 -0.13888419 -0.02248984 0.09413281 -0.090464234
-0.03852075 0.2601544 0.31331798 -0.083190605 -0.07833393 0.45366952 -0.2155849 0.19682416
0.022067107 -0.60996693 0.11913923 0.04839022 -0.052099995 -0.21710254 0.2921834 -0.86412966
-0.16391286 0.15580608 -0.037197508 0.37099335 -0.35112858 0.26594535 -0.14869976 0.30312726
0.16456033 0.00030818736 0.30704528 -0.30671614 0.22793755 -0.36710337 0.5449454 0.08619797
-0.10547311 -0.115351774 -0.23650545 -0.43450987 -0.60987735 -0.08530334 -0.0030593171 -0.124413304
-0.07300299 0.16524695 -0.26088414 0.59417933 -0.5620107 0.3024474 0.2622338 -0.19353053
-0.093187414 0.27255738 -0.51231116 -0.858218 -0.016160803 0.019149898 0.37233552 -0.2733846
-0.31085142 0.13766356 0.2056817 0.19519006 -0.060702253 0.19820057 -0.11775356 -0.4404011
0.48349062 -0.10786804 0.10394638 -0.07697244 0.2131931 -0.34036648 0.19572408 1.0435092
-0.31324527 0.00829098 0.029662473 0.017992018 0.009989524 -0.25977913 0.78431934 1.7239223
0.031073423 -0.06496718 0.34256217 -0.19479395 -0.015592684 0.09043121 0.9070569 -0.08178854
0.052541457 0.24823903 0.010862648 0.008293698 0.3031364 -1.3922575 0.029033061 0.009660282
-0.06005629 0.15425712 0.11435548 -0.43887502 -1.0455061 -0.062434833 0.09106365 -0.16700211
0.2258873 -0.46203887 0.17788845 -0.18016884 0.025943102 -0.09428211 -0.5828607 0.1683048
-0.29152307 -0.28615567 0.7450648 -0.14317796 -0.06922538 -0.13162817 -0.08453519 0.3941675
-0.51790684 0.952495 0.07935967 0.018665856 -0.22162609 0.08776434 -0.029131582 -0.30805683
-1.0251582 -0.014154698 -0.25608093 0.2391814 -0.1854959 -0.17312352 -0.6229771 0.20664851
-0.009065557 -0.047922205 -0.30941895 0.13460848 0.362527 0.6653258 0.09519489 0.10573699
-0.04645615 0.23226458 0.17025264 0.1235622 -1.0026582 0.62517804 0.04102011 -0.048039038
-0.5446411 -0.24507034 -0.21574049 -0.23366953 0.4343308 -0.001871687 -0.09115382 -0.31479073
-0.33316037 0.584764 -0.76297104 0.011866176 -0.01157979 0.015019164 -0.58661366 0.63182586
0.04305769 0.06202036 0.6790596 0.050572407 0.0003370879 -0.03795462 0.22948414 -0.10311047
0.69113636 0.87124693 0.13596778 -0.043061893 -0.14052542 -1.0999117 0.25620687 -0.48808014
-0.019999847 0.0053276224 0.060295947 0.007635046 0.11967722 -0.13630116 0.2204883 0.11016619
0.14674991 -0.099812925 -0.07336548 -0.35607427 0.17689602 -0.26212862 -0.2922117 -0.2087589
0.12668471 0.10889644 0.17335963 -0.0048971944 -0.5519033 -0.07591991 0.27630278 -0.027631044
0.07087122 0.5408551 -0.4807055 -0.36613297 -0.51760477 0.03545207 0.008014872 -0.29127976
-0.23366904 0.037536416 -1.16147 -0.36454913 0.028200148 0.06327009 -0.5983176 -0.36237544
0.013844635 0.5301756 0.12281544 0.050041113 0.095363066 -0.08958007 -0.060990255 -0.060608216
0.21837814 -0.7906293 -0.22871734 -0.0027006543 0.09800314 -0.565559 -0.09311252 -1.4702183
00000000: 02f5 023e 1111 053e 56e2 26bd 0d5f dfbe
00000010: 48a0 14bf 894f 893e 8065 403e 8ef7 84be
00000020: 8366 7cbe 18fe 123e f3f7 96be f657 87be
00000030: a837 0ebe 9d3c b8bc b4c8 c03d 5045 b9bd
00000040: efc7 1dbd f532 853e 376b a03e d65f aabd
00000050: 8a6d a0bd 5f47 e83e 4ac2 5cbe 468c 493e
00000060: 14c6 b43c cb26 1cbf 45ff f33d d334 463d
00000070: ce66 55bd 2150 5ebe 1099 953e 9a37 5dbf
00000080: c6d8 27be a18b 1f3e 6a5c 18bd d7f2 bd3e
00000090: 20c7 b3be fd29 883e c044 18be 7f33 9b3e
000000a0: 8182 283e 3594 a139 0a35 9d3e e609 9dbe
000000b0: 7668 693e f9f4 bbbe 8b81 0b3f 9088 b03d
000000c0: 4902 d8bd 8d3d ecbd 7c2e 72be 1478 debe
000000d0: ec20 1cbf 84b3 aebd d37e 48bb 67cc febd
000000e0: 9782 95bd 7f36 293e 9b92 85be 231c 183f
000000f0: efdf 0fbf 63da 9a3e 8243 863e de2c 46be
00000100: 0bd9 bebd a48c 8b3e d326 03bf 2db4 5bbf
00000110: a963 84bc 3fe0 9c3c c3a2 be3e 11f9 8bbe
00000120: eb27 9fbe adf7 0c3e 399e 523e e7df 473e
00000130: eda2 78bd 17f5 4a3e c728 f1bd 417c e1be
00000140: 158c f73e ebe9 dcbd d7e1 d43d baa3 9dbd
00000150: 4b4f 5a3e 8444 aebe e56b 483e b691 853f
00000160: af61 a0be e4d6 073c b7fe f23c ff63 933c
00000170: 1aab 233c c501 85be 27c9 483f 7ca9 dc3f
00000180: b18d fe3c 830d 85bd 4f64 af3e 1178 47be
00000190: 7578 7fbc 0034 b93d e234 683f c080 a7bd
000001a0: b635 573d 5f32 7e3e 3ff9 313c 4ae2 073c
000001b0: b234 9b3e 7e35 b2bf bed6 ed3c 2946 1e3c
000001c0: 96fd 75bd 94f5 1d3e 3533 ea3d 3ab4 e0be
000001d0: 25d3 85bf abbb 7fbd 947f ba3d 9a02 2bbe
000001e0: 004f 673e 5c90 ecbe 6428 363e 2e7e 38be
000001f0: a186 d43c fb16 c1bd 5c36 15bf 1858 2c3e
00000200: 8342 95be ff82 92be 91bc 3e3f 3e9d 12be
00000210: 09c6 8dbd 89c9 06be c920 adbd 53d0 c93e
00000220: 8b95 04bf b6d6 733f 5387 a23d 23e9 983c
00000230: f3f1 62be cabd b33d 5ba5 eebc a0b9 9dbe
00000240: 6238 83bf 1be9 67bc 0a1d 83be f8eb 743e
00000250: a3f2 3dbe 4b47 31be 6d7b 1fbf ab9b 533e
00000260: b487 14bc 134a 44bd 296c 9ebe ced6 093e
00000270: 249d b93e cb52 2a3f 8af5 c23d a38c d83d
00000280: ce48 3ebd c4d6 6d3e b556 2e3e 2e0e fd3d
00000290: 1b57 80bf ab0b 203f b404 283d 95c4 44bd
000002a0: 996d 0bbf b8f3 7abe 13eb 5cbe 1147 6fbe
000002b0: 9b60 de3e 6553 f5ba dbae babd 402c a1be
000002c0: ff93 aabe 18b3 153f 1252 43bf 596a 423c
000002d0: 29b9 3dbc f112 763c 502c 16bf 57bf 213f
000002e0: 435d 303d 1009 7e3d dad6 2d3f 0325 4f3d
000002f0: 2cbb b039 4e76 1bbd e4fd 6a3e 952b d3bd
00000300: 50ee 303f 0a0a 5f3f 233b 0b3e ab61 30bd
00000310: e5e5 0fbe e8c9 8cbf 8c2d 833e a4e5 f9be
00000320: b8d6 a3bc 5693 ae3b e2f8 763d 682f fa3b
00000330: 5519 f53d 8892 0bbe afc7 613e d09e e13d
00000340: 9c45 163e b86a ccbd a440 96bd 5e4f b6be
00000350: 3b24 353e b935 86be c69c 95be e5c4 55be
00000360: a3b9 013e 1905 df3d 3085 313e a578 a0bb
00000370: 8949 0dbf e67b 9bbd 8f77 8d3e 805a e2bc
00000380: ee24 913d 7b75 0a3f 081f f6be c875 bbbe
00000390: bf81 04bf 3136 113d cf50 033c 9f22 95be
000003a0: f046 6fbe c9bf 193d 0dab 94bf 2fa6 babe
000003b0: ff03 e73c c093 813d 582b 19bf 4689 b9be
000003c0: 9cd4 623c 97b9 073f a986 fb3d e9f7 4c3d
000003d0: b64d c33d c175 b7bd ebd0 79bd 5240 78bd
000003e0: 859e 5f3e af66 4abf e134 6abe 76fd 30bb
000003f0: dfb5 c83d 7ac8 10bf c7b1 bebd 1d30 bcbf

net1.0.bias f4 [256]
0.031704128 0.53285384 0.116535746 -0.47753933 0.3522154 -0.09130712 -0.23493591 0.5451497
-0.8529825 0.5915399 0.021306064 0.3570915 -0.34609696 0.19418617 -0.3501555 -0.3381724
-0.28257054 0.48422343 -0.534469 -0.5893629 0.46466565 0.04465612 -0.086306676 -0.34551862
-0.61457103 0.1555781 -0.44041464 -0.56719244 -0.45288262 0.32053018 0.19682421 -0.5530875
-0.14235395 0.071198605 0.2719129 0.48167977 0.09480066 0.16289781 -0.26499996 0.89130026
0.6144589 -0.42182687 -0.09590784 0.026892403 -0.3589893 -0.7101037 0.08020204 -0.7282223
0.6052642 0.14816892 0.5709616 -0.56064504 0.49295732 -0.37501493 0.4631095 0.29645473
-0.058776114 0.3044374 -0.17696984 0.12897924 -0.3042589 0.5833457 0.7681886 -0.49059644
-0.6262979 0.35407397 -0.82743394 0.6055775 -0.2851775 0.32742164 0.27650437 0.5492361
-0.6552747 -0.31011122 0.04115073 -0.13739438 0.66030616 0.44896868 0.29580837 0.3898023
-0.49630362 -0.6502714 0.5561476 -0.22046342 -0.4060237 0.20479919 0.62177604 -0.09224246
0.6161424 0.4043989 -0.012782732 0.09931722 -1.0030957 -0.39304808 1.0308834 0.79891574
0.14067183 0.49347168 0.43270072 -0.45949998 0.08502664 -0.58000755 0.019186815 0.47755495
0.18997924 -1.0376874 0.25203276 -0.63761204 0.048493665 0.78534806 -0.41950792 0.6721581
-0.62574774 -0.7066262 0.03585544 -0.1767902 -0.43645033 0.27524674 0.38214082 0.44501087
-0.9999425 -0.0013336762 -0.3494582 0.5314855 0.2643163 -0.55403006 0.5978162 0.5660375
0.52601016 0.30734575 -0.12162347 -0.26423848 -0.6102287 -0.56399673 0.18349643 0.3234538
0.5284945 0.50550914 -0.34412766 0.61410916 -0.7016348 0.61275434 0.46835494 -0.63644165
0.34324774 -0.47176248 -0.6404918 -0.5920376 -0.3576059 0.43649912 0.4130321 -0.21334556
0.2743036 -0.6886724 0.522394 -0.81739664 0.61564225 -0.4629181 0.19290644 -0.32975706
-1.0144566 0.559782 0.061745882 -0.43453747 0.42798078 0.008215898 0.48392606 0.55476063
-0.4095101 0.7913527 0.2549535 -1.1208112 0.05363853 -0.060170796 -0.43006626 -0.5288215
-0.3939554 -0.2887339 -0.57668936 0.47915718 0.57591486 -0.39456746 -0.94221574 0.25114524
0.07737653 0.55238765 -0.4861642 -0.49472255 0.43360254 0.46082914 -0.7903773 -0.09995982
0.10419201 0.8658877 -0.27444836 0.41438845 0.4403482 -0.30649495 -0.25565353 0.25786296
-0.18463537 -0.23004812 0.18606223 0.81797314 0.65038645 -0.31393254 0.14706089 0.91785187
-0.00046855133 -0.8749662 0.15364175 0.3898838 0.6061666 -0.6633192 -0.654051 -0.08366208
0.6274923 0.6750854 0.4887077 -0.3307206 0.40599477 -0.6187041 0.2557553 0.29860276
-0.30531546 0.3646966 -0.10702253 0.38454905 0.26509035 0.3158099 0.54507524 -0.75510097
-0.26504228 0.4091712 -0.43787387 0.054352876 -0.5885317 0.33083656 0.37593907 -0.420232
-0.9098045 0.22175059 -0.32551777 0.17109036 0.35495043 0.5267443 -0.9968119 -0.6803959
0.36118746 0.24891509 -0.12612702 -0.31709936 -0.53413254 0.06076773 0.6419146 0.3519886
00000000: 30dc 013d 1c69 083f 4baa ee3d 0980 f4be
00000010: 9455 b43e 3aff babd 0a93 70be ee8e 0b3f
00000020: 105d 5abf 296f 173f 0e8a ae3c b2d4 b63e
00000030: 9f33 b1be bdd8 463e 9547 b3be ef24 adbe
00000040: 16ad 90be 22ec f73e f6d2 08bf 7de0 16bf
00000050: a8e8 ed3e 56e9 363d 8ec1 b0bd d1e7 b0be
00000060: 8754 1dbf de4f 1f3e 077e e1be 8633 11bf
00000070: 3be0 e7be 881c a43e 498c 493e 2497 0dbf
00000080: 3cc5 11be 93d0 913d 2b38 8b3e bb9e f63e
00000090: d926 c23d afce 263e 13ae 87be 412c 643f
000000a0: 2e4d 1d3f b1f9 d7be 546b c4bd 754d dc3c
000000b0: 72cd b7be 5bc9 35bf f840 a43d c76c 3abf
000000c0: 98f2 1a3f 98b9 173e 8a2a 123f 6f86 0fbf
000000d0: e764 fc3e f501 c0be b01c ed3e eac8 973e
000000e0: 39bf 70bd 38df 9b3e 9537 35be 2213 043e
000000f0: d3c7 9bbe 2556 153f 02a8 443f 752f fbbe
00000100: 0f55 20bf 2f49 b53e b6d2 53bf 2107 1b3f
00000110: c902 92be cfa3 a73e fb91 8d3e bd9a 0c3f
00000120: 15c0 27bf e6c6 9ebe ab8d 283d 1db1 0cbe
00000130: d309 293f 39df e53e 3274 973e 2b94 c73e
00000140: 821b febe 3078 26bf b05f 0e3f 2ac1 61be
00000150: 57e2 cfbe e1b6 513e b72c 1f3f 9de9 bcbd
00000160: 82bb 1d3f 5f0d cf3e aa6e 51bc d466 cb3d
00000170: 7165 80bf 993d c9be fdf3 833f be85 4c3f
00000180: 470c 103e 52a8 fc3e f38a dd3e 9543 ebbe
00000190: 7222 ae3d 607b 14bf ab2d 9d3c 1582 f43e
000001a0: eb89 423e f1d2 84bf 700a 813e 8b3a 23bf
000001b0: 4ba1 463d 920c 493f bec9 d6be 8e12 2c3f
000001c0: 0131 20bf 74e5 34bf 27dd 123d 7d08 35be
000001d0: 6b76 dfbe 24ed 8c3e f6a7 c33e 77d8 e33e
000001e0: 3bfc 7fbf bfce aeba 2fec b2be 6f0f 083f
000001f0: 7754 873e ead4 0dbf 7c0a 193f d5e7 103f
00000200: 9aa8 063f 6c5c 9d3e ba15 f9bd 444a 87be
00000210: f337 1cbf 1762 10bf 7de6 3b3e bd9b a53e
00000220: 6a4b 073f 0c69 013f 8031 b0be 4236 1d3f
00000230: 579e 33bf 78dd 1c3f 38cc ef3e d7ed 22bf
00000240: 2bbe af3e da8a f1be 45f7 23bf c78f 17bf
00000250: 1f18 b7be d07c df3e f278 d33e 4277 5abe
00000260: 8571 8c3e d64c 30bf 9dbb 053f e840 51bf
00000270: bb9a 1d3f 9a03 edbe 4489 453e ebd5 a8be
00000280: b7d9 81bf e04d 0f3f 40e9 7c3d b27b debe
00000290: 4c20 db3e f99b 063c 28c5 f73e cb04 0e3f
000002a0: 4fab d1be 1796 4a3f 4489 823e be76 8fbf
000002b0: 13b4 5b3d a775 76bd a531 dcbe d960 07bf
000002c0: 86b4 c9be eed4 93be eaa1 13bf 1754 f53e
000002d0: 286f 133f bf04 cabe 0d35 71bf 1c96 803e
000002e0: 9677 9e3d 4769 0d3f 84ea f8be 464c fdbe
000002f0: 2701 de3e ccf1 eb3e 2b56 4abf bcb7 ccbd
00000300: 9f62 d53d d1aa 5d3f 7f84 8cbe b92a d43e
00000310: 5275 e13e e8ec 9cbe 05e5 82be 9d06 843e
00000320: 0e11 3dbe bc91 6bbe 1987 3e3e b066 513f
00000330: ba7f 263f c4bb a0be 2197 163e 57f8 6a3f
00000340: e5a7 f5b9 c9fd 5fbf 4354 1d3e d99e c73e
00000350: bc2d 1b3f 49cf 29bf e36f 27bf 0657 abbd
00000360: 56a3 203f 66d2 2c3f e537 fa3e 3654 a9be
00000370: 8cde cf3e 6463 1ebf 5cf2 823e 76e2 983e
00000380: 4f52 9cbe 83b9 ba3e a12e dbbd 9de3 c43e
00000390: ecb9 873e d6b1 a13e 0d8a 0b3f 4c4e 41bf
000003a0: 9fb3 87be e37e d13e 0131 e0be 1fa1 5e3d
000003b0: 03aa 16bf 6963 a93e 167b c03e a628 d7be
000003c0: f3e8 68bf 9612 633e 44aa a6be 5032 2f3e
000003d0: 10bc b53e b7d8 063f 112f 7fbf 6d2e 2ebf
000003e0: 90ed b83e 99e3 7e3e 7127 01be d95a a2be
000003f0: e9bc 08bf 95e7 783d 8454 243f da37 b43e

net1.2.weight f4 [256, 256]
-0.53057 -0.09045558 0.059416775 0.099885605 0.02911272 0.068190835 0.101396434 -0.37217072
0.06744003 -0.07820536 -0.007285259 -0.18469 0.18448623 -0.39386997 0.30267552 0.18198605
-0.168712 0.1514897 0.15992104 0.08812641 -0.2550629 -0.039580956 0.002363317 -0.33960503
0.033995844 -0.021276265 0.14909577 0.45033848 0.07605872 -0.21485414 -0.018686924 -0.84608746
0.38854218 -0.048786823 0.034149118 -0.10459432 -0.097964734 -0.15130481 0.06316184 -0.018470122
-0.10062432 -0.0003313905 -0.034658145 0.13001911 0.10018914 0.27323398 -0.067494296 -0.04533566
-0.10775624 0.011046501 -0.3477703 0.06923492 -0.28487825 0.085803896 -0.40406728 -0.03353322
-0.067873314 -0.021600397 0.04702031 -0.24219763 0.1760778 -0.06693087 -0.24061285 0.03962499
0.040825263 0.052253 0.10423234 0.011703128 0.23148634 0.046146315 -0.08288086 -0.081976786
0.1150406 -0.05694978 -0.15728231 0.039308757 0.017731026 0.032209456 -0.08445307 -0.04341094
0.025584362 0.22135451 -0.043227717 0.09368482 0.2620055 -0.14086138 0.021373166 0.039982397
-0.013472713 -0.18570754 -0.21106692 0.2861693 0.18261318 -0.0973514 -0.027446816 -0.011045017
-0.06474842 0.03629548 -0.1145138 -0.583858 0.044995986 -0.13787782 -0.11632957 -0.0992013
-0.28314248 -1.2764472 0.06866511 0.1941701 -0.21917772 -0.06485836 0.115964115 -0.7589874
-0.3087927 -0.2685086 -0.06559055 0.10658091 0.0607068 -0.02089587 -0.23416819 0.07116512
-0.6050032 0.08514064 -0.34258026 -0.049904652 -0.4077024 0.12365972 -0.11357152 -0.21730343
-0.017095117 -0.12021085 -0.091771066 -0.010721757 -0.06648816 -0.6003135 -0.068909846 -0.0032736403
-0.18049721 0.029732546 0.030348664 -0.0664497 0.09560121 -0.1326325 -0.103913136 0.0671688
-0.090873346 0.016528174 0.12618667 -0.024769142 -0.056486767 -0.051232595 -0.21043538 -0.2370318
-0.14957711 -0.16385706 -0.36518222 0.21066174 -0.08558649 0.45158145 0.07612104 -0.00976867
-0.2018775 -0.1373663 0.16958477 -0.08320603 -0.3124453 0.038764674 0.020916553 -0.37970173
0.119575955 -0.02878891 0.06750079 -0.7267946 -0.0014370581 0.007771191 -0.0017596808 -0.009061875
0.21557108 -0.023335835 -0.21658836 -0.95650095 0.01949739 0.058898333 0.008003694 0.040413123
-0.04449034 -0.1798116 0.10921192 0.29532018 -0.23958376 0.13722429 0.11513939 0.07824253
-0.2616183 0.02009657 0.091527045 -0.10530369 -0.13033263 0.18245958 0.0820887 0.050533686
0.338147 0.14639738 0.025020637 -0.18444943 -0.277199 0.1407514 -0.14961682 -0.040951338
-0.1347938 -0.20209873 0.043064747 -0.28030637 -0.068537146 0.10145813 0.07263618 0.08808327
0.034412 -0.016798276 0.08599242 0.013982352 0.07381969 0.005397383 0.04761828 -0.052866396
-0.41296655 0.023040876 -0.46620968 -0.16877392 0.09848761 0.027193258 -0.48993546 0.023486933
-0.24193676 0.22374746 0.48234805 0.10401091 0.0020565742 -0.1739213 -0.0912359 0.27787718
-0.20318426 -0.02360781 0.0011759149 -0.16454892 -0.058278617 0.12180079 -0.12724788 -0.07343413
-0.091852084 -0.053419933 -0.009674669 -0.58693564 0.1742466 -0.4794887 -0.45190668 -0.03751867
00000000: 6fd3 07bf c640 b9bd 015f 733d d390 cc3d
00000010: cd7d ee3c a3a7 8b3d efa8 cf3d 298d bebe
00000020: 001e 8a3d 222a a0bd 2fb9 eebb 601f 3dbe
00000030: f5e9 3c3e 53a9 c9be 49f8 9a3e 8d5a 3a3e
00000040: d7c2 2cbe 1e20 1b3e 57c2 233e 9f7b b43d
00000050: 9b97 82be a41f 22bd e1e1 1a3b b6e0 adbe
00000060: 3a3f 0b3d 904b aebc 90ac 183e c492 e63e
00000070: adc4 9b3d b902 5cbe 5215 99bc 3099 58bf
00000080: 00ef c63e b1d4 47bd f2df 0b3d 8c35 d6bd
00000090: bca1 c8bd a6ef 1abe ff5a 813d a74e 97bc
000000a0: 2014 cebd 7bbe adb9 b3f5 0dbd bb23 053e
000000b0: f72f cd3d 53e5 8b3e 733a 8abd e3b1 39bd
000000c0: 4eaf dcbd 62fc 343c f30e b2be 0acb 8d3d
000000d0: 90db 91be f4b9 af3d e8e1 cebe 215a 09bd
000000e0: 2a01 8bbd 51f3 b0bc 5e98 403d a802 78be
000000f0: bd4d 343e 0d13 89bd 3763 76be d04d 223d
00000100: 6438 273d 3e07 563d c477 d53d 7abe 3f3c
00000110: c10a 6d3e eb03 3d3d 71bd a9bd 72e3 a7bd
00000120: 689a eb3d 2c44 69bd 9d0e 21be 3802 213d
00000130: a840 913c 10ee 033d bbf5 acbd abcf 31bd
00000140: 4c96 d13c c2aa 623e 8c0f 31bd d4dd bf3d
00000150: 9625 863e f73d 10be c716 af3c 95c4 233d
00000160: a7bc 5cbc 1e2a 3ebe ed21 58be c884 923e
00000170: f3fe 3a3e 2c60 c7bd 25d8 e0bc 29f6 34bc
00000180: d29a 84bd 92aa 143d 3686 eabd b877 15bf
00000190: b64d 383d d82f 0dbe 333e eebd 0d2a cbbd
000001a0: 0df8 90be 9f62 a3bf 4ba0 8c3d 87d4 463e
000001b0: 2070 60be 76d4 84bd 987e ed3d 004d 42bf
000001c0: 141a 9ebe f679 89be 5754 86bd 1847 da3d
000001d0: b2a7 783d d12d abbc c9c9 6fbe 05bf 913d
000001e0: 7de1 1abf 375e ae3d ae66 afbe d268 4cbd
000001f0: 5ebe d0be 4f41 fd3d 2f98 e8bd ca84 5ebe
00000200: 0f0b 8cbc 1b31 f6bd 78f2 bbbd 4faa 2fbc
00000210: f22a 88bd 25ae 19bf 9b20 8dbd 928a 56bb
00000220: 43d4 38be ab91 f33c c39d f83c c816 88bd
00000230: 91ca c33d d0d0 07be 69d0 d4bd cc8f 893d
00000240: ce1b babd 1866 873c 1437 013e a8e8 cabc
00000250: ab5e 67bd 45d9 51bd 5f7c 57be 77b8 72be
00000260: be2a 19be 25ca 27be 2af9 babe b6b7 573e
00000270: f847 afbd af35 e73e 59e5 9b3d c60c 20bc
00000280: fab8 4ebe c0a9 0cbe a1a7 2d3e ec67 aabd
00000290: d5f8 9fbe b5c7 1e3d 3159 ab3c 4468 c2be
000002a0: 3de4 f43d b8d6 ebbc db3d 8a3d 360f 3abf
000002b0: ab5b bcba 7aa5 fe3b 17a5 e6ba 4278 14bc
000002c0: aabe 5c3e cb2a bfbc 57c9 5dbe 3fdd 74bf
000002d0: feb8 9f3c 613f 713d ed21 033c 3b88 253d
000002e0: 813b 36bd 8820 38be 80aa df3d 3534 973e
000002f0: 7255 75be 8684 0c3e 33ce eb3d 9f3d a03d
00000300: d5f2 85be 90a1 a43c 8872 bb3d 76a9 d7bd
00000310: eb75 05be afd6 3a3e 1f1e a83d 69fc 4e3d
00000320: 9b21 ad3e 32e9 153e 14f8 cc3c 50e0 3cbe
00000330: 07ed 8dbe 2321 103e 2735 19be 97bc 27bd
00000340: 6307 0abe f8f2 4ebe a964 303d 5184 8fbe
00000350: 345d 8cbd 48c9 cf3d 47c2 943d 0065 b43d
00000360: 99f3 0c3d 8a9c 89bc cb1c b03d 3c16 653c
00000370: c72e 973d 88dc b03b 630b 433d 6f8a 58bd
00000380: 5a70 d3be 38c0 bc3c 09b3 eebe 12d3 2cbe
00000390: dfb3 c93d 65c4 de3c d2d8 fabe ab67 c03c
000003a0: 45be 77be 0e1e 653e 53f6 f63e ac03 d53d
000003b0: 97c7 063b 6d18 32be e3d9 babd eb45 8e3e
000003c0: 890f 50be 2a65 c1bc 2821 9a3a 837f 28be
000003d0: 8fb5 6ebd b172 f93d 454d 02be a264 96bd
000003e0: f21c bcbd dcce 5abd 8182 1ebc 6a41 16bf
000003f0: b36d 323e 8b7f f5be 5060 e7be 2dad 19bd

net1.2.bias f4 [256]
-0.2739173 -0.35104573 0.2676486 -0.05484569 -0.0634739 -0.075775385 -0.041494433 0.19761169
0.019941056 0.0019443454 -0.25003764 -0.42247888 -0.027544683 -0.06498459 0.26976094 0.14007704
0.045229357 0.039831985 -0.0038638406 -0.042575005 -0.787892 0.01863311 0.021586807 0.09195919
-0.014765844 0.29091594 -0.051621016 0.028370306 -0.28769493 -0.00029803495 -0.06198425 -0.03625088
0.29821214 0.050732125 -0.11200384 -0.18539965 0.23664065 0.11285863 0.18875317 0.010461545
-0.2305566 -0.043133423 0.15340866 0.043525737 -0.65783274 -0.46449924 -0.10739282 -0.059412725
0.3143398 0.03477829 0.097439766 -0.04676222 -0.013168545 -0.22260734 0.018152677 0.030344237
-0.025974816 0.018485207 0.044122875 0.023590524 -0.07734495 -0.081008084 0.16538191 -0.32175997
-0.05112314 0.0015857992 0.08599313 -0.037828006 0.02912297 -0.0037488618 0.26832908 -0.31427717
-0.27220598 -0.001018347 -0.26947004 -0.034529313 -0.022738129 -0.085549824 -0.48801452 -0.6103886
0.29042915 -0.25454864 -0.01443251 -0.61008114 0.06512065 -0.05524021 0.0055062436 0.20020153
0.15921877 0.09710198 -0.07248925 -0.026648592 0.014568553 -0.042022448 0.013365799 0.053687654
-0.0031215544 0.24772714 0.023505393 -0.30209377 0.03701721 -0.67793494 -0.026395999 0.038001638
-0.022757873 0.13721386 0.0070374208 0.05187235 0.039890517 -0.06078367 -0.013559607 -0.054097354
-0.03102603 0.28003052 0.021090252 0.20839119 0.4160654 -0.50172067 0.02791157 -0.02922848
0.20169361 0.32240042 -0.1413023 -0.009106645 0.2432648 0.17788352 0.077075295 0.31254977
0.22933264 -0.019113125 0.21064548 0.1673714 0.17630987 -0.035076525 -0.0020328064 0.4141905
0.28199902 -0.21547493 0.006801866 -0.068397805 -0.3574821 -0.0047507077 0.009439398 0.0005151284
-0.14270261 0.09340948 -0.5863062 -0.4909408 0.26774424 0.16766354 0.24625394 0.09625653
-0.30988663 -0.23624344 -0.066916086 0.26663733 0.2839363 -0.016976284 -0.22729555 0.008614034
-0.04441105 0.009509898 -0.3609188 0.29719448 0.040383015 -0.040873352 0.033622622 -0.48034897
0.025277937 -0.063065976 0.2706217 0.24104165 0.05042335 -0.07299708 0.08261332 -0.004148457
-0.026074504 -0.056560837 -0.016667416 0.020680344 -0.0649414 -0.083966866 0.24408811 -0.06716873
0.16076407 0.0336905 -0.06834666 0.15453883 -0.019657124 -0.29596114 -0.016705 0.18261133
-0.19137517 -0.039123405 -0.04028479 -0.062310096 -0.05473 0.03339115 0.01930039 0.10568838
-0.03758909 -0.023540942 0.023388138 -0.073713936 0.04768117 -0.041425984 0.21111271 -0.009395407
0.18705516 0.0066414485 -0.73907876 0.015517913 0.22076187 -0.05110371 -0.0125257475 -0.34696212
0.14464195 0.14726469 -0.07536914 0.24568027 0.041522447 -0.60219485 -0.2674082 0.017378397
0.17052232 -0.12158256 -0.068961516 -0.03436278 -0.28391093 0.16746764 0.01867791 0.23443332
-0.40749377 0.033388987 -0.044528536 -0.050542038 -0.062889926 0.051043354 -0.067600235 -0.5496159
-0.06349072 0.15584402 -0.042268448 0.21092175 0.242474 -0.44611064 0.24530971 -0.084282584
0.21328942 -0.17795607 0.04041052 0.04051402 0.03459655 0.22579268 -0.047409255 0.042283
00000000: e33e 8cbe 44bc b3be 3d09 893e e0a5 60bd
00000010: 9bfe 81bd 2030 9bbd 11f6 29bd b85a 4a3e
00000020: 6d5b a33c 68d9 fe3a ef04 80be 274f d8be
00000030: 63a5 e1bc a416 85bd 1b1e 8a3e 5b70 0f3e
00000040: 6b42 393d dd26 233d 7d38 7dbb 2163 2ebd
00000050: 4ab3 49bf 77a4 983c d1d6 b03c 1a55 bc3d
00000060: 70ec 71bc eff2 943e 8f70 53bd d868 e83c
00000070: c04c 93be 9341 9cb9 32e3 7dbd ce7b 14bd
00000080: 43af 983e 7dcc 4f3d 4562 e5bd 68d9 3dbe
00000090: ed51 723e 6d22 e73d 8348 413e e666 2b3c
000000a0: 0817 6cbe acac 30bd 2917 1d3e 0b48 323d
000000b0: ba67 28bf d8d2 edbe c4f0 dbbd c25a 73bd
000000c0: 25f1 a03e ae73 0e3d 808e c73d be89 3fbd
000000d0: e2c0 57bc 2ef3 63be ecb4 943c 7a94 f83c
000000e0: 23c9 d4bc 4a6e 973c 30ba 343d ea40 c13c
000000f0: 0767 9ebd 91e7 a5bd e059 293e b9bd a4be
00000100: 7f66 51bd 97da cf3a 2b1d b03d 8af1 1abd
00000110: 4b93 ee3c 77af 75bb 6e62 893e f0e8 a0be
00000120: 955e 8bbe 0e7a 85ba faf7 89be 9c6e 0dbd
00000130: 5045 babc bf34 afbd 0add f9be 6d42 1cbf
00000140: 21b3 943e 3354 82be 5676 6cbc 472e 1cbf
00000150: fa5d 853d 8f43 62bd b86d b43b a101 4d3e
00000160: 3f0a 233e 67dd c63d 3e75 94bd 264e dabc
00000170: f1b0 6e3c bb1f 2cbd 39fc 5a3c 96e7 5b3d
00000180: fe92 4cbb 2fac 7d3e 628e c03c 09ac 9abe
00000190: 5c9f 173d 258d 2dbf 6c3c d8bc 9ba7 1b3d
000001a0: b86e babc ca81 0c3e 2a9a e63b 1a78 543d
000001b0: 3d64 233d 4cf8 78bd 1d29 5ebc 3095 5dbd
000001c0: 4d2a febc 2960 8f3e 77c5 ac3c 8064 553e
000001d0: 8606 d53e c470 00bf cea6 e43c 9170 efbc
000001e0: c588 4e3e ab11 a53e 8db1 10be 0a34 15bc
000001f0: 681a 793e 1927 363e a7d9 9d3d 8606 a03e
00000200: 2dd6 6a3e 2193 9cbc 73b3 573e 6963 2b3e
00000210: 938a 343e 67ac 0fbd d538 05bb c710 d43e
00000220: 2d62 903e 76a5 5cbe 30e2 de3b 2614 8cbd
00000230: e507 b7be d3ab 9bbb b4a7 1a3c af09 073a
00000240: a220 12be 784d bf3d 2a18 16bf 985c fbbe
00000250: c615 893e feaf 2b3e fe29 7c3e 2522 c53d
00000260: 76a9 9ebe cde9 71be 4d0b 89bd b084 883e
00000270: 1960 913e d911 8bbc 2ac0 68be e121 0d3c
00000280: 5ce8 35bd 67cf 1b3c 59ca b8be e029 983e
00000290: a968 253d d16a 27bd e0b7 093d 4df0 f5be
000002a0: ad13 cf3c bc28 81bd ed8e 8a3e 9fd3 763e
000002b0: b788 4e3d 7e7f 95bd 2c31 a93d c8ef 87bb
000002c0: 339a d5bc 56ac 67bd 1b8a 88bc d369 a93c
000002d0: ffff 84bd d2f6 abbd 3cf2 793e c28f 89bd
000002e0: 569f 243e 0dff 093d 55f9 8bbd 6d3f 1e3e
000002f0: fa07 a1bc 3888 97be edd8 88bc 77fe 3a3e
00000300: daf7 43be dd3f 20bd aa01 25bd df38 7fbd
00000310: 912c 60bd 29c5 083d da1b 9e3c 2673 d83d
00000320: 05f7 19bd efd8 c0bc 7b98 bf3c 55f7 96bd
00000330: 554d 433d 4bae 29bd ee2d 583e 31ef 19bc
00000340: 638b 3f3e 82a0 d93b 4434 3dbf d83e 7e3c
00000350: 660f 623e 2052 51bd cb38 4dbc 05a5 b1be
00000360: 051d 143e 8ecc 163e 235b 9abd 9c93 7b3e
00000370: 7113 2a3d 7129 1abf bae9 88be 245d 8e3c
00000380: 679d 2e3e 4700 f9bd b23b 8dbd fdbf 0cbd
00000390: c65c 91be a37c 2b3e 6b02 993c 4a0f 703e
000003a0: 06a3 d0be e4c2 083d 8e63 36bd 2b05 4fbd
000003b0: 6fcc 80bd d612 513d fe71 8abd a1b3 0cbf
000003c0: 6c07 82bd 9395 1f3e ae21 2dbd dffb 573e
000003d0: 1b4b 783e 9d68 e4be 7832 7b3e 599c acbd
000003e0: 8b68 5a3e 1e3a 36be 8085 253d 07f2 253d
000003f0: 1db5 0d3d 3236 673e 3530 42bd f030 2d3d

net1.4.weight f4 [1, 256]
0.08753147 0.4439807 -0.9970584 0.0015945513 -0.0062851734 -0.0056537236 0.016802378 -0.024699152
-0.0013917683 -0.0353756 0.038670905 0.20153393 -1.9836148 0.008663922 -0.064939946 -0.017228669
-0.012316039 0.0048751794 0.00025178495 -0.021283116 0.98948795 -0.9172871 0.05060677 -0.34033662
0.034887746 -0.13015373 0.036163304 -0.027412172 0.11406208 -0.024581457 -0.029787077 0.032494593
-0.13820094 -0.04372849 9.380186e-05 0.0007629779 -0.059393167 -0.0058058663 -0.042469382 -0.18171582
-0.0012660959 0.005150688 -0.058810662 -1.918111 1.3265213 0.99547404 1.0663589 -0.04071546
-0.13564317 0.03863562 -1.6448143 -0.022825854 0.026252016 0.46288624 0.009792793 0.029559027
-0.016339054 -0.012947322 -0.20627119 0.020070229 0.4606372 -0.008557158 -0.08721374 0.5909333
0.0006865388 0.0074952254 -0.008388626 0.04394589 -2.4907393 0.01281166 -0.081820406 0.44109812
0.27172863 -0.0150224855 0.5643619 0.017662263 0.004508215 -0.050592013 0.43240273 1.0116096
-0.141348 0.58106804 0.10548032 0.844053 -0.045151267 -0.025636196 -0.019168522 -0.08942799
-0.10408529 -1.3750514 -0.006032299 -0.021144802 -0.041346967 0.014413667 -0.0010080321 0.032186054
-0.039974637 -0.12281352 -0.019883776 0.7699401 0.005381029 1.7468872 1.0517637 0.051071845
-0.0096968375 -0.047844026 0.005173895 -0.00028346642 -0.002757541 -0.03579722 0.004019477 0.0028259242
0.012861292 -0.1330074 -0.029106926 -0.047062255 -0.60119516 -2.1383061 0.02908059 -0.0116664395
-0.028005062 -0.14274402 0.5816998 0.0007204473 -0.09977691 -0.06470068 -1.0134686 -0.19914977
-0.060551077 0.026341926 -0.07773941 -0.08322967 -0.050945807 0.9907985 0.039209217 -1.1436967
-0.09626745 -2.4864948 -0.4339084 -0.042666376 0.2366142 0.008505946 0.010833596 -0.008266646
0.49043277 0.6452715 0.603186 1.0448433 -0.07791047 -0.09573639 -0.10117988 0.4768927
1.1662133 0.0065143495 -0.005449382 -0.14752926 -0.10707117 0.001213774 0.017553048 3.698174e-05
0.053298123 0.30867192 1.3544623 -0.13515735 0.0015646828 -0.04370397 -1.3124635 0.3697225
-0.70824903 -0.038587444 -0.13050267 -0.064299814 0.019075869 -0.0024860317 -0.09997261 0.0035821623
-0.02152226 0.0041026333 0.0082932655 -0.009838502 -0.027098479 0.024742682 -0.0425658 -0.026110385
-0.054345805 -0.026455443 -0.0023648948 -0.09919163 0.001678872 0.8501255 -0.024359632 -0.09326598
-1.1215122 0.010142359 0.03584871 -0.030342778 -0.01848895 0.007759934 -0.019643826 1.9381095
-0.028875083 -0.0050084554 0.021666704 0.043392494 -0.032800704 -0.029338913 -0.5239512 -0.041269902
-0.06308119 -0.005182966 1.3941957 0.008064922 -0.08319295 -0.02507934 0.005200025 -0.018551035
-0.07449585 -0.08539275 -0.0119500635 1.2566276 -0.5129189 0.61447996 0.5724815 -0.0061916485
-0.10450099 0.39854604 -0.0022101451 -0.0061694905 0.8601575 -0.024566684 -0.20875613 -0.15100062
0.005371839 0.030526908 0.08527739 0.29585284 0.042775758 -0.32398668 -0.0081578195 0.36982492
-0.034735937 -0.9465144 0.12565693 -0.06664899 -2.2879553 1.1900039 -0.06894214 0.009114184
-0.15337993 -0.007852088 0.012232134 0.006090169 -0.020038199 -1.0607378 0.007672549 -0.015130742
00000000: b343 b33d 7051 e33e 383f 7fbf 4300 d13a
00000010: dbf3 cdbb df42 b9bb 24a5 893c e055 cabc
00000020: ff6b b6ba 01e6 10bd 6265 1e3d e95e 4e3e
00000030: 17e7 fdbf 1ff3 0d3c 3cff 84bd 2323 8dbc
00000040: 36c9 49bc f8bf 9f3b 0102 8439 ee59 aebc
00000050: 154f 7d3f 54d3 6abf 0b49 4f3d 9a40 aebe
00000060: 74e6 0e3d 0547 05be f91f 143d 7e8f e0bc
00000070: 6199 e93d 0d5f c9bc 0704 f4bc 0d19 053d
00000080: 8c84 0dbe a51c 33bd 7db7 c438 9502 483a
00000090: 4046 73bd 233f bebb 60f4 2dbd b613 3abe
000000a0: 21f3 a5ba 1ac7 a83b 73e3 70bd a984 f5bf
000000b0: 73cb a93f 63d7 7e3f 737e 883f 41c5 26bd
000000c0: 0be6 0abe 6240 1e3d 4689 d2bf 49fd babc
000000d0: 780e d73c 6dff ec3e f371 203c c625 f23c
000000e0: 7bd9 85bc 0121 54bc c138 53be 526a a43c
000000f0: a4d8 eb3e 5233 0cbc 1e9d b2bd 6847 173f
00000100: d7f8 333a 829a f53b 7370 09bc 9b00 343d
00000110: 4668 1fc0 ffe7 513c 7591 a7bd 9dd7 e13e
00000120: 0420 8b3e df20 76bc 057a 103f 73b0 903c
00000130: a6b9 933b 9239 4fbd e463 dd3e 6c7c 813f
00000140: 88bd 10be e0c0 143f 1106 d83d db13 583f
00000150: 89f0 38bd 0003 d2bc 4e07 9dbc 0626 b7bd
00000160: ab2a d5bd af01 b0bf 97aa c5bb dd37 adbc
00000170: 705b 29bd 4d27 6c3c f21f 84ba 86d5 033d
00000180: 72bc 23bd a885 fbbd 4de3 a2bc cb1a 453f
00000190: 5853 b03b 009a df3f 31a0 863f b630 513d
000001a0: 7cdf 1ebc 19f8 43bd c789 a93b 389e 94b9
000001b0: dcb7 34bb 1ba0 12bd d1b5 833b 2433 393b
000001c0: 2bb8 523c 1833 08be a671 eebc 5ac4 40bd
000001d0: ede7 19bf 02da 08c0 6b3a ee3c 9824 3fbc
000001e0: df6a e5bc 7d2b 12be 47ea 143f 66dc 3c3a
000001f0: d657 ccbd ca81 84bd 57b9 81bf ebed 4bbe
00000200: 6804 78bd 06cb d73c d735 9fbd 5174 aabd
00000210: 8dac 50bd f8a4 7d3f d899 203d a764 92bf
00000220: de27 c5bd bb22 1fc0 3e29 debe f0c2 2ebd
00000230: fe4a 723e 865c 0b3c 657f 313c d470 07bc
00000240: 011a fb3e 8330 253f 666a 1a3f 6dbd 853f
00000250: 868f 9fbd 7111 c4bd 6637 cfbd 482b f43e
00000260: 7a46 953f 5376 d53b bb90 b2bb e911 17be
00000270: 2148 dbbd 7f17 9f3a 69cb 8f3c d71c 1b38
00000280: 224f 5a3d 3f0a 9e3e 055f ad3f b066 0abe
00000290: 0b16 cd3a ef02 33bd cefe a7bf 444c bd3e
000002a0: cf4f 35bf de0d 1ebd 7ea2 05be 9faf 83bd
000002b0: ff44 9c3c b1ec 22bb 71be ccbd b6c2 6a3b
000002c0: 734f b0bc 626f 863b 7ae0 073c ab31 21bc
000002d0: a1fd ddbc 2ab1 ca3c 7a59 2ebd 72e5 d5bc
000002e0: b599 5ebd 16b9 d8bc 5afc 1abb fb24 cbbd
000002f0: 990d dc3a d3a1 593f da8d c7bc 3c02 bfbd
00000300: b68d 8fbf 232c 263c 19d6 123d 6b91 f8bc
00000310: 2376 97bc 0b47 fe3b 17ec a0bc f913 f83f
00000320: 708b ecbc f81d a4bb 5f7e b13c 54bc 313d
00000330: 085a 06bd 2958 f0bc aa21 06bf a10a 29bd
00000340: b630 81bd dfd5 a9bb 0175 b23f bc22 043c
00000350: 1161 aabd 3073 cdbc f964 aa3b 57f8 97bc
00000360: 4891 98bd 65e2 aebd 33ca 43bc 2cd9 a03f
00000370: a74e 03bf 8f4e 1d3f 268e 123f 50e3 cabb
00000380: 9d04 d6bd 3a0e cc3e 15d8 10bb 7029 cabb
00000390: 4833 5c3f 1240 c9bc 2bc4 55be e89f 1abe
000003a0: 4006 b03b 9113 fa3c eaa5 ae3d 067a 973e
000003b0: a235 2f3d 95e1 a5be 60a8 05bc b159 bd3e
000003c0: 4547 0ebd c54e 72bf 36ac 003e 447f 88bd
000003d0: dc6d 12c0 0c52 983f 8931 8dbd a953 153c
000003e0: a10f 1dbe 0ba6 00bc 4a69 483c 0a90 c73b
000003f0: 2627 a4bc 42c6 87bf 026a fb3b efe6 77bc

net2.0.weight f4 [256, 7]
-0.7807715 0.060980707 -0.20905969 -0.6756018 0.2737427 -0.09274933 0.07130602 -0.24726693
-0.42672214 0.10163659 0.6735601 0.48451155 -0.0018354047 -0.06123457 -0.27411076 0.13443871
-0.29348046 0.47233173 0.99264735 -0.06506989 0.022807142 0.08097011 -0.1446621 0.36860666
0.8498776 -0.55180293 0.08554845 -0.06947644 -0.582247 -0.12095282 0.032248896 -1.1572025
-0.70548236 -0.036086272 -0.023223404 -0.4214463 -0.47317532 -0.4988949 -0.6414233 0.26605296
0.005858575 0.10449755 0.3536453 0.11234142 -0.2630165 -0.1885993 -0.087165274 -0.07523685
-0.113180265 0.0630377 0.08163265 -0.23847489 0.9709155 -0.74807835 0.10505733 -0.02951656
0.14554705 -0.30181217 -0.37975636 0.8151363 -0.57180846 0.2270529 -0.106639884 -0.23113805
0.371571 0.018052004 -0.8351391 0.18106847 -0.08677992 0.03066128 -0.19330594 -0.40010342
0.33078125 0.17800349 -0.31428763 -0.07606402 0.08382803 -0.07645306 0.3203135 -0.014440857
0.10831156 1.6654445 -0.03406847 0.029137317 -0.20774059 0.46400067 0.0035828205 0.48805156
0.5045285 0.13930623 0.029118301 0.19265555 -0.39258057 -0.025893785 -0.5298302 0.5131224
-0.12430568 0.015265767 0.018988522 -0.42936844 -0.21484603 -0.5733843 -0.028956084 0.11126952
-0.062121615 -0.15705161 -0.013038032 -0.37326312 0.9630616 0.33172852 -0.17706652 -0.21988237
0.11791439 -0.6020472 -0.12232338 0.5710421 -0.6660881 -0.09843154 0.06339155 0.017455092
0.04480094 -0.24244434 -0.10771889 -0.8562806 -0.07670719 -0.022354504 -0.74592465 -0.1408993
-0.016582979 -0.89118344 -0.32393765 -0.10242105 0.026416013 0.37047458 0.1850041 0.30710486
-0.16943312 -0.60986686 0.10438521 0.094467565 0.04031799 0.23192094 0.23333523 0.38633868
0.7073454 -0.09816134 -0.12186313 -0.40196812 -0.8200208 -0.6442279 -0.22706023 -0.59357494
0.318133 -0.15366232 -0.5256972 0.47733626 0.009945174 0.03934028 0.42498913 0.060576018
0.06718146 -0.30505958 0.09651351 0.19684872 0.3944998 1.4905398 0.093882106 0.077063575
0.05423629 0.2707407 -0.2852023 0.16994748 -0.739578 -0.099666275 -0.017854616 0.2143937
-0.24195872 0.23633713 -0.68179274 0.4170717 -0.023885587 -0.0909065 -0.04813402 0.038468808
5.126976e-06 0.86338294 0.46709538 -0.028996866 -0.011750406 -0.071742356 0.07881143 -0.19575287
0.6149796 -0.46627563 -0.12510462 0.045025863 -0.63679093 -0.056679823 -0.3877609 -0.004147587
-0.39292523 0.02320235 0.04207682 -0.04807924 -0.65455055 -0.0406429 0.3983865 -0.26029792
-0.009690589 -0.16345118 -0.10998759 0.09832597 -0.16880234 -0.61924666 -0.38127923 0.3294193
0.1567723 -0.012676914 0.12916867 -0.09588318 -0.010121371 0.3907947 0.13830231 -0.07739515
-0.010338687 0.01648351 0.14456949 -1.0227101 -0.7566329 -0.006457929 0.060832944 0.13454306
-0.37856862 0.055368826 0.20469135 0.031014891 0.031595193 0.076576106 -0.30831137 0.50161904
0.03848659 -0.37386152 0.32230547 0.07425998 0.04775442 -0.06927737 -0.3016096 0.2993045
-0.18320762 0.19491039 -0.13814719 0.063420564 0.09307239 0.102701135 0.00036253865 -0.6938308
00000000: a4e0 47bf e8c6 793d be13 56be 3df4 2cbf
00000010: 0128 8c3e 5cf3 bdbd e408 923d 8b33 7dbe
00000020: 537b dabe d826 d03d 6f6e 2c3f e611 f83e
00000030: f691 f0ba 1ad1 7abd 3f58 8cbe 4daa 093e
00000040: 1243 96be 77d5 f13e 231e 7e3f 5d43 85bd
00000050: 0bd6 ba3c a8d3 a53d 4d22 14be 03ba bc3e
00000060: 9491 593f f542 0dbf 0734 af3d aa49 8ebd
00000070: 240e 15bf 1db6 f7bd 6b17 043d 361f 94bf
00000080: 7e9a 34bf 33cf 13bd 023f bebc cfc7 d7be
00000090: 0944 f2be 276f ffbe 5134 24bf 1838 883e
000000a0: 4af9 bf3b d002 d63d ff10 b53e 4213 e63d
000000b0: 19aa 86be 2d20 41be b583 b2bd c715 9abd
000000c0: 0ecb e7bd e919 813d 052f a73d c332 74be
000000d0: eb8d 783f 1082 3fbf 4c28 d73d b6cc f1bc
000000e0: 490a 153e 2087 9abe 6d6f c2be c6ac 503f
000000f0: 0a62 12bf 8e80 683e 0366 dabd 74af 6cbe
00000100: 8e3e be3e cce1 933c adcb 55bf 036a 393e
00000110: acb9 b1bd 5d2d fb3c fef1 45be 5bda ccbe
00000120: 295c a93e 8c46 363e 4fea a0be 74c7 9bbd
00000130: 08ae ab3d 6c93 9cbd 2200 a43e 5899 6cbc
00000140: 73d2 dd3d 492d d53f 618b 0bbd 62b1 ee3c
00000150: f3b9 54be 7f91 ed3e c1cd 6a3b e5e1 f93e
00000160: c828 013f 4ba6 0e3e 8189 ee3c 7f47 453e
00000170: 5200 c9be 341f d4bc f4a2 07bf fd5b 033f
00000180: fa93 febd 451d 7a3c d18d 9b3c 2ed6 dbbe
00000190: 9900 5cbe 50c9 12bf 4f35 edbc 46e1 e33d
000001a0: 3c73 7ebd 23d2 20be 789d 55bc 581c bfbe
000001b0: 348b 763f 52d8 a93e ed50 35be d828 61be
000001c0: 1a7d f13d c41f 1abf ae84 fabd d12f 123f
000001d0: c084 2abf 7a96 c9bd 6ed3 813d fbfd 8e3c
000001e0: 3181 373d 5443 78be b99b dcbd 3535 5bbf
000001f0: a918 9dbd cb20 b7bc ebf4 3ebf e847 10be
00000200: 07d9 87bc 9924 64bf 28db a5be 21c2 d1bd
00000210: 6566 d83c d8ae bd3e b771 3d3e d93c 9d3e
00000220: e07f 2dbe 3c20 1cbf eac7 d53d 3678 c13d
00000230: 7a24 253d af7c 6d3e 6eef 6e3e 2fce c53e
00000240: 9714 353f d008 c9bd 6093 f9bd c4ce cdbe
00000250: e2ec 51bf 1fec 24bf 7a82 68be 87f4 17bf
00000260: 54e2 a23e a859 1dbe 1794 06bf 6b65 f43e
00000270: 15f1 223c 4623 213d 2d98 d93e 8f1e 783d
00000280: 6f96 893d c530 9cbe e0a8 c53d b692 493e
00000290: e1fb c93e 02ca be3f 4345 c03d 82d3 9d3d
000002a0: df26 5e3d 869e 8a3e 0906 92be b606 2e3e
000002b0: fc54 3dbf d51d ccbd d843 92bc 068a 5b3e
000002c0: 07c4 77be 5c02 723e f889 2ebf 6c8a d53e
000002d0: b5ab c3bc 302d babd 2e28 45bd 7891 1d3d
000002e0: 6308 ac36 aa06 5d3f 2027 ef3e d68a edbc
000002f0: c684 40bc a8ed 92bd e367 a13d 7173 48be
00000300: 4e6f 1d3f aebb eebe 6d1b 00be 0a6d 383d
00000310: bb04 23bf 1a29 68bd 9988 c6be 7be8 87bb
00000320: 7f2d c9be db12 be3c be58 2c3d bdee 44bd
00000330: a090 27bf 2b79 26bd 51f9 cb3e c545 85be
00000340: 47c5 1ebc bf5f 27be 2c41 e1bd 205f c93d
00000350: 85da 2cbe f386 1ebf 0837 c3be a6a9 a83e
00000360: eb88 203e d5b2 4fbc cb44 043e 675e c4bd
00000370: 1bd4 25bc 3e16 c83e 1f9f 0d3e 5981 9ebd
00000380: 9963 29bc 6d08 873c 060a 143e 2ae8 82bf
00000390: b2b2 41bf 099d d3bb f72b 793d a8c5 093e
000003a0: bfd3 c1be 6cca 623d 9c9a 513e f112 fe3c
000003b0: f669 013d efd3 9c3d fdda 9dbe 1b6a 003f
000003c0: 1da4 1d3d c76a bfbe 3905 a53e 9e15 983d
000003d0: 249a 433d 4be1 8dbd 936c 9abe 703e 993e
000003e0: c79a 3bbe 9796 473e 7576 0dbe a4e2 813d
000003f0: bd9c be3d f954 d23d 1d13 be39 e59e 31bf

net2.0.bias f4 [256]
0.16099498 -0.22731808 -0.5399007 -0.60735875 0.22596663 0.023631997 -0.81213135 -0.23934728
-0.32260796 -0.10301524 0.21319197 -0.48376378 -0.27716553 0.28867295 0.40150672 -0.62286574
0.3058998 0.33994007 0.42283967 -0.45540145 -0.8608949 0.18250097 -0.26551014 -0.2871229
0.45148784 -0.116418645 -0.012609488 0.5916189 -0.24399588 -0.42605907 0.10912277 0.23720427
0.12685294 0.47071296 -0.36709285 0.53560084 0.4716675 0.24712862 0.26240402 -0.3660202
-0.30243555 -0.12797274 0.40598893 0.3392548 0.1756092 0.065257505 -0.26866713 -0.28006354
-0.17690662 0.16679616 -0.7155344 -0.5765598 0.58507204 0.20091161 0.29265648 -0.5195224
-1.035112 -0.8222228 0.7986954 0.46347404 0.6928671 -0.5025389 -1.0334425 -0.98327816
-0.14644171 -0.185511 0.4057884 0.46607438 0.23764548 0.3879119 0.80114913 0.5296643
-0.12020953 0.6711029 0.3974036 -0.71015435 -0.21181127 -0.1402477 0.47891313 0.59258187
0.6815466 -0.7590006 0.00075579557 0.21573962 0.7248736 -0.57939106 -0.53783756 0.22674963
-0.5156318 -0.61500263 -0.6469448 -0.72159636 0.33097616 -0.29689112 -0.5270209 0.27951896
-0.23867364 0.22179782 0.62104714 0.50615585 0.76603484 0.6411299 0.35064986 0.5664358
0.326872 -0.7464042 0.27563667 0.15137973 0.4517404 -0.37628135 -0.15082218 0.71073884
-0.23526789 -0.5803867 -0.035725623 -0.5715858 0.09624679 -0.33742106 -0.4572207 0.4385443
0.005698095 0.6091883 -0.48636028 -0.09958397 0.21176891 0.30168816 -0.38929433 -0.26333523
0.5413241 -0.6945815 -0.55760694 -0.375079 -0.23001003 0.48614988 -0.18311937 -0.47500265
-0.19468719 -0.76714534 -0.3626147 0.15806508 -0.6624681 -0.49213558 0.25746164 0.18714128
0.5035162 0.8165868 0.47955173 0.7135916 -0.08391973 -0.5908273 0.61304694 0.5083402
-0.14099078 -0.69001245 0.8994106 0.5128123 0.36806688 -0.5208495 -0.3894548 0.44483373
0.6203801 -0.3364052 0.53777045 -0.71478146 -0.6001805 -0.4838446 0.4730827 -0.41831586
-0.3290949 -0.1346978 0.0143284425 0.25841835 0.14922217 0.0029370447 0.4582795 0.41129404
-0.535922 0.05257294 0.61320966 0.18518932 -0.6441085 -0.3473384 0.10912084 0.3257162
-0.10599532 0.35050935 0.56782943 0.6018293 -1.0055686 -0.34154272 -0.905614 0.10495272
-0.12057966 -0.47184843 0.0015107016 0.5409459 -0.013421904 0.20297675 -0.25467458 -0.824372
0.18382092 -0.59628636 0.023492228 0.14400136 0.3062248 -0.77764785 0.44421983 0.14329389
-0.064474106 -0.2516695 -0.5548055 0.29647106 -0.5611222 -0.17966355 0.016857537 -0.84154946
0.5725686 0.33388102 -0.55115765 -0.20363803 0.15176547 -0.6040498 -0.27723154 -0.59142655
-0.4063245 0.5728843 -0.27128378 0.5790513 -0.55574906 0.21719472 0.03023012 0.48747724
0.082545124 -0.54148406 0.5931671 0.25109223 -0.48008937 -0.22363089 -0.21538126 -0.27695724
-0.233935 0.4418126 -0.24089298 0.32625744 0.13735737 -0.10974318 0.69214445 -1.0854894
-0.33009672 -0.14390524 0.49213094 0.5982241 -0.4698851 -0.7027383 0.6462515 -0.52838457
00000000: dedb 243e 12c6 68be ef36 0abf dd7b 1bbf
00000010: cc63 673e e497 c13c d7e7 4fbf 7417 75be
00000020: df2c a5be a7f9 d2bd ff4e 5a3e e3af f7be
00000030: a4e8 8dbe f1cc 933e 4a92 cd3e 2174 1fbf
00000040: e69e 9c3e a00c ae3e 717e d83e 612a e9be
00000050: 9c63 5cbf 89e1 3a3e f2f0 87be c601 93be
00000060: 6a29 e73e e66c eebd 0798 4ebc 5674 173f
00000070: 0eda 79be 6a24 dabe c27b df3d ade5 723e
00000080: bde5 013e 4a01 f13e 98f3 bbbe 231d 093f
00000090: 677e f13e 490f 7d3e d259 863e 0067 bbbe
000000a0: d5d8 9abe 490b 03be c8dd cf3e ceb2 ad3e
000000b0: e6d2 333e baa5 853d bd8e 89be 7d64 8fbe
000000c0: 0227 35be 9dcc 2a3e 432d 37bf 6c99 13bf
000000d0: 48c7 153f c6bb 4d3e 12d7 953e 6cff 04bf
000000e0: 8d7e 84bf 327d 52bf 4d77 4c3f 784c ed3e
000000f0: bd5f 313f 64a6 00bf d847 84bf 1eb8 7bbf
00000100: d1f4 15be 98f6 3dbe 7fc3 cf3e 4da1 ee3e
00000110: 5659 733e 639c c63e 1c18 4d3f 1498 073f
00000120: 6a30 f6bd 66cd 2b3f 7c78 cb3e adcc 35bf
00000130: 0ee5 58be 189d 0fbe 1a34 f53e 72b3 173f
00000140: d779 2e3f dd4d 42bf 9520 463a d9ea 5c3e
00000150: 5191 393f f952 14bf b9af 09bf 0e31 683e
00000160: 7200 04bf d070 1dbf 2d9e 25bf 8aba 38bf
00000170: b575 a93e 1d02 98be d7ea 06bf 1c1d 8f3e
00000180: dd66 74be f81e 633e f2fc 1e3f 6e93 013f
00000190: dc1a 443f 1721 243f 6188 b33e f001 113f
000001a0: c45b a73e 5814 3fbf 4020 8d3e 4a03 1b3e
000001b0: 854a e73e f3a7 c0be 2171 1abe fbf2 353f
000001c0: 11ea 70be 3994 14bf 0855 12bd 7253 12bf
000001d0: 091d c53d 74c2 acbe d518 eabe e188 e03e
000001e0: 16b7 ba3b c4f3 1b3f 3704 f9be aef2 cbbd
000001f0: f3d9 583e df76 9a3e 9651 c7be e0d3 86be
00000200: 3794 0a3f 18d0 31bf 54bf 0ebf 5b0a c0be
00000210: c087 6bbe a3e8 f83e a583 3bbe 8c33 f3be
00000220: 145c 47be a363 44bf a2a8 b9be d0db 213e
00000230: 8297 29bf 32f9 fbbe 03d2 833e f7a1 3f3e
00000240: 70e6 003f d50b 513f ce87 f53e f0ad 363f
00000250: 1bde abbd 7540 17bf a5f0 1c3f 9522 023f
00000260: e35f 10be a8a4 30bf c63f 663f ab47 033f
00000270: 4373 bc3e 6556 05bf 9f66 c7be 3fc1 e33e
00000280: 3bd1 1e3f 4d3d acbe 53ab 093f ebfb 36bf
00000290: 6ea5 19bf 7bba f7be e537 f23e 7f2d d6be
000002a0: 207f a8be 38ee 09be d8c1 6a3c 694f 843e
000002b0: b2cd 183e 6f7b 403b 9ca3 ea3e 2295 d23e
000002c0: 2f32 09bf b956 573d 4ffb 1c3f 45a2 3d3e
000002d0: 4be4 24bf 57d6 b1be bf7a df3d 46c4 a63e
000002e0: 1314 d9bd f675 b33e 455d 113f 7c11 1a3f
000002f0: 79b6 80bf b0de aebe 52d6 67bf 74f1 d63d
00000300: 78f2 f6bd 1e96 f1be bc02 c63a 6e7b 0a3f
00000310: 8ce7 5bbc 23d9 4f3e b564 82be 0b0a 53bf
00000320: 8d3b 3c3e 39a6 18bf c672 c03c 1875 133e
00000330: 7fc9 9c3e ee13 47bf c870 e33e a2bb 123e
00000340: 000b 84bd d3da 80be bc07 0ebf 0ecb 973e
00000350: b4a5 0fbf b9f9 37be d118 8a3c c96f 57bf
00000360: db93 123f 74f2 aa3e ab18 0dbf 7d86 50be
00000370: 6868 1b3e 02a3 1abf 4bf1 8dbe bb67 17bf
00000380: c409 d0be 8ca8 123f b5e5 8abe b53c 143f
00000390: 9245 0ebf 4b68 5e3e 28a5 f73c 9e96 f93e
000003a0: 6b0d a93d b39e 0abf cdd9 173f 298f 803e
000003b0: 46ce f5be 7fff 64be e88c 5cbe 57cd 8dbe
000003c0: a88c 6fbe 4335 e23e a6ac 76be 370b a73e
000003d0: 69a7 0c3e 08c1 e0bd 6130 313f 51f1 8abf
000003e0: 7002 a9be e55b 13be 96f8 fb3e 3725 193f
000003f0: c894 f0be a8e6 33bf bd70 253f 3644 07bf

net2.2.weight f4 [256, 256]
-0.014537647 0.027880086 0.12127818 -0.008514329 -0.037684955 -0.04857774 -0.040161602 -0.052571632
-0.03616221 -0.20800698 0.048325248 -0.20936166 -0.43542576 -0.03722252 -0.100792706 -0.091256164
0.018601744 -0.30854297 -0.09592493 -0.032955736 -0.31300968 0.024275882 -0.039962016 -0.13328418
-0.1212807 -0.0041111773 -0.23772484 -0.17087385 0.085730456 -0.07267799 -0.39131826 -0.5520554
0.041430734 0.026913708 -0.34423456 0.0063754315 -0.10062143 0.055953752 -0.025899589 -0.38180518
-0.3655628 -0.1541026 -0.09504691 -0.13462317 0.02691714 -0.09756078 0.0861603 -0.104137674
-0.029073471 0.09073336 -0.0809056 -0.038940877 -0.11159817 0.03010384 -0.08646699 -0.020569248
0.07312218 -0.036053263 -0.104310624 0.12952746 -0.019141234 -0.3677592 0.080024116 0.0330134
-0.15506315 -0.42205414 -0.12155351 0.01587107 -0.05722099 0.02354282 -0.058798272 -0.029158434
-0.038103055 -0.059999693 -0.015292716 -0.1121325 -0.029444404 -0.030379308 -0.0057308413 -0.112984926
-0.11431273 -0.5062256 0.10820307 0.020814177 -0.1878662 -0.2579217 0.039841842 0.03917946
0.057791 -0.18016298 -0.19390206 0.019252025 0.03360902 -0.15130848 -0.029353356 -0.09384631
-0.1072496 -0.015801728 0.017084781 -0.13605124 -0.022029763 0.071648285 -0.22592846 -0.0031065505
-0.18230136 -0.26175123 0.019678932 -0.1446546 0.042584617 -0.04676575 -0.15173429 -0.41359144
0.093682595 0.09902479 -0.27432016 -0.09680582 0.046800114 -0.19071664 0.18667684 0.08887993
-0.06582025 -0.10851479 -8.020647e-05 0.07307424 -0.01799464 0.31669432 0.02265262 -0.034744177
0.020538425 0.05240447 -0.43691716 0.03403035 0.04066561 -0.16494016 0.03691806 -0.02967462
-0.0050357897 0.082596205 -0.15687308 -0.04206683 -0.2985671 -0.3231562 -0.2427222 -0.33937207
-0.042643018 -0.09999965 -0.049751412 -0.11188115 0.007084386 0.025580717 -0.014333331 0.06891455
-0.027230166 0.098843746 0.011199675 -0.19324785 -0.10174158 0.010063475 0.0608215 -0.26292536
0.10154865 -0.032117262 -0.11379744 -0.24890569 0.0959365 -0.6322731 -0.00592566 0.0029189554
-0.15213987 -0.12986426 -0.061654992 -0.09691298 -0.0028582644 -0.14394642 -0.0492025 -0.37915272
0.0013399957 -0.18126158 -0.079598054 -0.14282216 0.010505977 -0.11788407 -0.036260296 -0.40236512
0.05143005 -0.20813517 -0.1485939 -0.12235887 0.035324484 0.049891748 -0.53398687 0.07897595
0.003817182 -0.034829866 0.16577938 -0.01949769 -0.06997273 -0.030758794 0.00799668 -0.08013644
-0.013372711 -0.076597035 -0.23143297 0.025544498 -0.08200304 0.055611815 -0.14797698 -0.3357238
-0.015364363 -0.25490105 0.003642692 -0.00404952 -0.011802023 0.05254763 -0.2032446 -0.010574475
-0.00354522 -0.12233704 0.08639555 0.1004952 0.0460104 -0.18585779 -0.029729025 -0.03971396
0.10342417 -0.0243614 -0.1694102 -0.0012436338 -0.08563756 0.024634656 0.067558646 -0.05526409
-0.67029244 -0.1384409 -0.25446782 0.040596645 0.08420274 0.06949646 0.08615482 -0.48941872
0.089274116 -0.059880603 0.08301522 -0.034048792 -0.04306184 -0.12804087 -0.056078747 -0.13189338
-0.09848104 0.08060974 -0.0010518988 0.014549629 0.015978513 -0.20203534 0.00091643573 -0.033519078
00000000: 502f 6ebc c764 e43c b260 f83d af7f 0bbc
00000010: 8a5b 1abd 74f9 46bd 7e80 24bd 5a55 57bd
00000020: d31e 14bd c8ff 54be b2f0 453d e762 56be
00000030: 20f0 debe a476 18bd 686c cebd 83e4 babd
00000040: af62 983c 58f9 9dbe 4a74 c4bd 98fc 06bd
00000050: ce42 a0be 37de c63c 36af 23bd a67b 08be
00000060: 0462 f8bd 0eb7 86bb 246e 73be 8ef9 2ebe
00000070: 7393 af3d 33d8 94bd de5a c8be 8153 0dbf
00000080: 46b3 293d 237a dc3c 833f b0be ffe8 d03b
00000090: 9c12 cebd c32f 653d 602b d4bc f87b c3be
000000a0: 0c2b bbbe 12cd 1dbe f4a7 c2bd a8da 09be
000000b0: 5681 dc3c f2cd c7bd d074 b03d 2246 d5bd
000000c0: 7d2b eebc 69d2 b93d d6b1 a5bd 7880 1fbd
000000d0: 958d e4bd 549c f63c 9b15 b1bd d780 a8bc
000000e0: 15c1 953d 96ac 13bd cfa0 d5bd d9a2 043e
000000f0: 14ce 9cbc ef4a bcbe afe3 a33d 0f39 073d
00000100: e0c8 1ebe 7b17 d8be 0cf1 f8bd 0c04 823c
00000110: 8f60 6abd dfdc c03c 75d6 70bd abdd eebc
00000120: f311 1cbd 3dc2 75bd 4d8e 7abc b9a5 e5bd
00000130: 6435 f1bc 07de f8bc c8c9 bbbb a464 e7bd
00000140: cb1c eabd 0098 01bf 9299 dd3d 7e82 aa3c
00000150: ff5f 40be 500e 84be 3331 233d a47a 203d
00000160: 41b6 6c3d a57c 38be 438e 46be 6cb6 9d3c
00000170: 9da9 093d 9cf0 1abe 7376 f0bc 7f32 c0bd
00000180: aea5 dbbd a072 81bc 62f5 8b3c 0451 0bbe
00000190: c377 b4bc 56bc 923d ca59 67be 4597 4bbb
000001a0: 35ad 3abe 4204 86be b635 a13c 5620 14be
000001b0: 356d 2e3d 718d 3fbd 3c60 1bbe 42c2 d3be
000001c0: a9dc bf3d 82cd ca3d b173 8cbe 2142 c6bd
000001d0: 7ab1 3f3d 394b 43be 3728 3f3e ae06 b63d
000001e0: c4cc 86bd 013d debd 8534 a8b8 f2a7 953d
000001f0: 7f69 93bc c225 a23e fd91 b93c e94f 0ebd
00000200: 3340 a83c 12a6 563d 9bb3 dfbe 6963 0b3d
00000210: fc90 263d 13e6 28be 6437 173d 3018 f3bc
00000220: 4403 a5bb 3328 a93d 56a3 20be 454e 2cbd
00000230: c9dd 98be bb74 a5be 2b8c 78be 2dc2 adbe
00000240: 72aa 2ebd 9ecc ccbd 23c8 4bbd f221 e5bd
00000250: 2324 e83b a78e d13c 59d6 6abc 1223 8d3d
00000260: cc11 dfbc 976e ca3d d77e 373c c4e2 45be
00000270: e45d d0bd 46e1 243c f71f 793d 279e 86be
00000280: bdf8 cf3d 648d 03bd a20e e9bd 22e1 7ebe
00000290: 5b7a c43d a6dc 21bf 0a2c c2bb f24b 3f3b
000002a0: 8eca 1bbe 23fb 04be f289 7cbd 507a c6bd
000002b0: b851 3bbb b166 13be 9088 49bd 4e20 c2be
000002c0: cba2 af3a a39c 39be 4e04 a3bd f93f 12be
000002d0: 4321 2c3c 346d f1bd ad85 14bd cd02 cebe
000002e0: 51a8 523d 6321 55be 0029 18be 4a97 fabd
000002f0: 68b0 103d 4a5b 4c3d 5db3 08bf 25be a13d
00000300: b029 7a3b c3a9 0ebd 12c2 293e 9fb9 9fbc
00000310: dd4d 8fbd def9 fbbc 8204 033c 931e a4bd
00000320: 3719 5bbc e8de 9cbd c4fc 6cbe b242 d13c
00000330: 36f1 a7bd 37c9 633d 4787 17be fde3 abbe
00000340: cfba 7bbc 6482 82be 3bba 6e3b d6b1 84bb
00000350: 465d 41bc 2f3c 573d 5a1f 50be 9040 2dbc
00000360: ec56 68bb d88b fabd 26f0 b03d 6dd0 cd3d
00000370: 6775 3c3d 8151 3ebe 498a f3bc 1bab 22bd
00000380: 0dd0 d33d 8f91 c7bc de79 2dbe 6d01 a3ba
00000390: bf62 afbd 9ece c93c 305c 8a3d 995c 62bd
000003a0: 4998 2bbf 74c3 0dbe 9b49 82be ab48 263d
000003b0: 7c72 ac3d 2954 8e3d f071 b03d 1795 fabe
000003c0: 59d5 b63d 5d45 75bd e203 aa3d bf76 0bbd
000003d0: 9d61 30bd 251d 03be d4b2 65bd 0f0f 07be
000003e0: 6db0 c9bd b816 a53d dedf 89ba 9161 6e3c
000003f0: 5fe5 823c 5ae2 4ebe f63c 703a 4d4b 09bd
