tau_data/seed0/SAC_STL_actor_100000.pth (torch, 275779 bytes, 6 tensors)

net.0.weight f4 [256, 5]
00000000: 3bcf 0abd 7186 643e 0697 09bf e3a3 04bf
00000010: bfcf aabe 0977 043e 908d 44be cb0d ab3e
00000020: 3954 dfbb ff3d 343e 1e95 b3bd a87f bc3d
00000030: d1d5 f7be 8f4d d6be 1954 5cbe 89b4 7a3d
00000040: e913 603e f90e 00bd d6fe f4be 5594 cbbe
00000050: 39bb 843e 6396 d53e 6e8d bcbd 39b9 2c3e
00000060: 7840 f9bd 3072 abbd 6a6f 423f 402d a1be
00000070: 6bfc 9ebe c082 63be 806b 96be bceb ac3e
00000080: 141e fabe 4ad5 ca3d 371f 493d ace1 fbbe
00000090: 1c84 78be a757 023f 4887 143f 5a34 273f
000000a0: 89e3 b1bd 6de1 f2bd 46bb 093d 44c5 95be
000000b0: dd56 82be e841 6abe 19f5 083f 5131 9d3e
000000c0: eee1 2cbe 5af5 c53d fe0d f03d f0be fa3e
000000d0: 2665 403e d227 4a3e cc83 3c3f b18d 57bd
000000e0: 6662 5a3e 1b74 bfbe 6925 39bf 900a b5be
000000f0: 525f 7b3e e983 8f3e 47a0 e7be 7e7e bd3e
00000100: c4b7 253e d065 82be dba2 c7bb 4139 933e
00000110: 2593 103f 0575 1d3f e4c4 e4be 29cd a9be
00000120: a332 023f f133 1b3f 5c06 e93e 4228 973e
00000130: ca3a ce3c 0082 15bf 3f92 a73c 615b edbe
00000140: 35bd 0fbf 71eb b83e 3406 923d 6cda 88be
00000150: c3d3 2d3e d92b 01be 8ad0 d7bd 071e e4be
00000160: f220 dd3e ef0e a3bd 7087 843d af1e 973e
00000170: 2e00 003f 8b17 b53e c449 09bf 49f0 a5be
00000180: cd88 e93c 02ad a7be e3bb 3bbe ab5a 1abd
00000190: 48a3 6b3e f8ab 7b3e 20e6 81be a59c a5bd
000001a0: cd2f 1fbf 789d 07be 86c3 303d 1020 08bf
000001b0: 6292 773d c56b dfbc dc73 dfbc 59f5 613e
000001c0: c08f 56bf 92d9 0f3f 5dd5 313f 3107 dfbe
000001d0: d29a bfbd b69c 3e3e af8c 8cbe aac3 393e
000001e0: ea58 f13d 9c53 ba3d 5b3e 85be 1163 0b3d
000001f0: e686 e2be bb23 67be e264 fcbd ea99 c5be
00000200: d110 1f3c fc4d fabd 368d c4be 961d d1bd
00000210: ca39 d3be ce80 473c 3996 ef3e 7026 8fbe
00000220: fc84 14be 60ef 903d 295f 003f 26ff 313f
00000230: 7195 c03e c8b9 853e 9623 c73e 7574 113e
00000240: 7a37 36be bfbc 01be ac1e dd3e 526b 6f3d
00000250: a890 f0be 905f f8be c824 aebe ef4e acbe
00000260: dda1 f8bb 8687 4b3e 3b13 f93e d6fc e1be
00000270: 1b1c e83e bfb3 93be 821d 5ebe a495 283e
00000280: 220d 08bd c165 ea3d 5797 9bbe bdbf 6bbf
00000290: 6b4e babe 9520 d73c a9ae e2bd 5474 eb3e
000002a0: b081 b2be 1b4f ca38 c7ea 5f3e 7041 4cbe
000002b0: 7aa3 bb3e 10be c73e 5d9b 87be 97d1 2d3e
000002c0: 59bf 75bb ec2a d2bd 89a4 ef3e 955e 6cbe
000002d0: 4daa ebbd b3f2 94be 7bea c03e c269 823e
000002e0: c7f1 9b3e 3b22 4d3e 5646 08be db71 a03c
000002f0: e5ff 4bbe 9587 363f e07c 893e 3902 8a3d
00000300: e820 34be 3083 3bbe c39f 27bf 8d37 e8bd
00000310: 920d 84be 5ec5 b73d 17c7 e43c 54b7 d23e
00000320: dae9 36be 997b 1f3f cddb f4be b6db ff3d
00000330: 9284 953d f53f bb3d 15d1 38be 9dd3 ec3e
00000340: d511 d23e 7115 b23e bc0a a13c 9f60 88be
00000350: 6d21 473e 3cfe 4b3e 0a0b 413e e0e0 733d
00000360: 6764 b2be 274d abbe f390 1f3f 97c2 bbbe
00000370: 3639 763c c476 313f b850 883e bf68 453e
00000380: e577 f5be 2964 a63d d4ff 89bd aebe f4bd
00000390: bd86 a7be fe32 603c e1cd 103a d998 473f
000003a0: 353c f23d 55b5 2d3f 225d 813e 0642 b7be
000003b0: 15ac e33e 7076 c6be fa58 96be f490 773e
000003c0: 657b 8c3d 1c54 283f 4b49 4fbe 59da cfbe
000003d0: 036d a43e 11ce 16bf 2145 ec3e 250f c2be
000003e0: 6841 8c3e 9cce 7b3c 4054 d5bd 13a1 fb3d
000003f0: 7cdd 203f 2a65 36be 5729 cbbe 2925 023c
-0.033889037 0.2231691 -0.5374607 -0.5181257 -0.33361623 0.12936033 -0.19194627 0.3340896
-0.00681546 0.17601775 -0.08768676 0.09204036 -0.48405316 -0.41856048 -0.21516456 0.061207328
0.21882595 -0.03126428 -0.47850674 -0.39761606 0.2592409 0.41716298 -0.09206663 0.16867532
-0.121704996 -0.08371389 0.75951254 -0.31479836 -0.31051955 -0.22217846 -0.2937889 0.337736
-0.48851073 0.09903963 0.049102034 -0.4919561 -0.24269146 0.50914997 0.5801892 0.6531426
-0.08685977 -0.11859403 0.033625863 -0.29252064 -0.25456896 -0.22876704 0.5349899 0.30701688
-0.1688306 0.09665938 0.11721419 0.489738 0.18788585 0.19741753 0.73638606 -0.05262536
0.21326599 -0.3739327 -0.7232271 -0.3535962 0.2454808 0.28030327 -0.4523947 0.37010568
0.16183382 -0.25468302 -0.006092412 0.2875462 0.56474525 0.6150668 -0.44681466 -0.33164337
0.50858516 0.6062613 0.45512664 0.29522902 0.025174517 -0.5840149 0.020455478 -0.4635878
-0.5614808 0.36117128 0.071300894 -0.26729143 0.16975312 -0.12614383 -0.105378225 -0.4455416
0.43189198 -0.07961833 0.06471145 0.29515597 0.50000274 0.35369524 -0.5362818 -0.32409886
0.028507615 -0.32749182 -0.18333392 -0.037684124 0.23011506 0.2457732 -0.25370884 -0.08086518
-0.62182313 -0.13243663 0.043155216 -0.53173923 0.060442336 -0.027273068 -0.027276926 0.22066249
-0.83813095 0.5619136 0.6946619 -0.43560174 -0.093557015 0.18614468 -0.27451083 0.18141046
0.11784537 0.090979785 -0.26024136 0.034030024 -0.44243544 -0.22572224 -0.12323929 -0.3859399
0.009708599 -0.122219056 -0.38388985 -0.10210721 -0.41255027 0.0121767055 0.46794298 -0.27959013
-0.14503855 0.07076907 0.501452 0.6952995 0.37614015 0.26118302 0.38894337 0.14204581
-0.177946 -0.12669657 0.43187463 0.058451958 -0.46985364 -0.48510408 -0.34012437 -0.33653972
-0.007587655 0.19875917 0.48647484 -0.4413821 0.45333943 -0.28848073 -0.21690944 0.16463333
-0.03321565 0.11445189 -0.303889 -0.92089444 -0.36387953 0.026260654 -0.1106847 0.4598719
-0.3486457 9.646845e-05 0.21866904 -0.19946837 0.3664816 0.39012194 -0.2648572 0.16974483
-0.0037498085 -0.10262093 0.46805218 -0.23082955 -0.11507092 -0.29091415 0.37678894 0.25471312
0.304579 0.20032589 -0.13308081 0.01958554 -0.19921835 0.7130063 0.26853085 0.06738705
-0.17590678 -0.18311763 -0.6547815 -0.113387205 -0.25791603 0.08973192 0.027926965 0.41155493
-0.17862645 0.6229797 -0.47823945 0.124930784 0.073006764 0.09143058 -0.18048508 0.46255198
0.4102923 0.34781983 0.019658439 -0.26636216 0.19446345 0.19921201 0.18851867 0.05954063
-0.34842226 -0.334573 0.6233055 -0.36671898 0.015028289 0.69321847 0.26624084 0.19278239
-0.47943035 0.08124573 -0.067382485 -0.11950432 -0.32719985 0.0136840325 0.00055238424 0.779676
0.1182789 0.67854816 0.25266367 -0.3579256 0.44467226 -0.38762236 -0.2936476 0.24176389
0.06859473 0.6575334 -0.20242803 -0.40596274 0.3211442 -0.5890818 0.4614649 -0.3790218
0.2739365 0.015369084 -0.1041646 0.12286582 0.6283796 -0.17812029 -0.39679977 0.00794343

net.0.bias f4 [256]
00000000: ea13 95be 1a51 85bd 250a 163e eb01 943e
00000010: 64d5 a23e 3d00 87be 5feb e3be af4d 23bc
00000020: 9092 78be 57d5 d9be 0c33 883e 33b9 ff3e
00000030: b62c 8cbe a9be 6cbe 06c4 0fbf ac94 cfbe
00000040: 126c 1f3c b7fc e3be 0db8 b03e a927 14bf
00000050: 19fa 33bd 7471 52bc f4ce 873d 677b 183f
00000060: af12 f73e 315f 0e3d b954 7bbe 04f0 3abf
00000070: 2fb4 2ebf 1945 453e 10e3 f53e 1b55 bdbe
00000080: 3da4 c73e b645 b4be c25b efbd cf7d bd3e
00000090: 55ab 12bf 3ceb f7be c98d 283f 9212 41be
000000a0: 34e3 b9be 6b45 74be 5737 b1be 4a9d 16bf
000000b0: 98eb a6be 5e3c b23e 8331 04bd dd1e 42be
000000c0: 5d5a 633e e7b0 abbe 5f83 03bd c6dd 0bbf
000000d0: e1ce 873e d4a2 41be 4dc6 fbbe b625 52be
000000e0: f2d7 bf3e 7892 80be cf34 fd3d 322e f8bd
000000f0: 4f2b a0be f016 80be 964f 7ebe a10c a23e
00000100: 969e 5fbe b2b3 f7be 4f48 043e 6ee2 1cbf
00000110: b6fd 8bbe a72f 3a3f a411 58be 251d e33e
00000120: 8dff cebc 3988 233f 4358 d9be f6da 783e
00000130: abb5 00bf 8c56 1ebe 291c 993e b1f6 b93d
00000140: ab9a 873d 4974 fb3e 0d35 23bf 56b2 493e
00000150: d1dc debd e6ce bb3e 9901 303e 0079 ccbe
00000160: c28e 11bf c841 963e 17a4 0bbf a275 153f
00000170: 5c4c 38bf 47da c43c 87aa 983e 243e d1be
00000180: 3a84 91be 1094 153e 4c83 acbe 6309 c43c
00000190: ba1e 053f 9dab d7be 05c2 05be 524e 15bf
000001a0: fc5b 113f 9f55 d33e fedb 1b3e 70e5 bebe
000001b0: 711b bfbe 0e8e 4a3e eebb 80be f70d 253f
000001c0: 089d e33d 5527 6a3e 9bdf 1a3f 0797 0dbf
000001d0: 976c 28bc a328 debe 4cc7 873e ebf6 4ebe
000001e0: c0bf fdbe 0d6a d5be bb7f 11bf 29a2 c13d
000001f0: a4aa 663e 0c54 28bd cef4 403e 5ab3 01bf
00000200: d7a0 cd3e 1786 32bf 1ccd 89be 33d6 fcbe
00000210: 3761 053f 8510 ec3e 499d c23e 2198 19be
00000220: 2fa5 0c3e 3672 72bf 38f2 b0be 4d3b 5ebd
00000230: 010f c33d 7506 c1be 14ac babe 7ab5 b8be
00000240: 8d7b 25bf 1412 333e 85d9 223f 2829 a73e
00000250: 0275 17bf 2f63 34be 959b 3fbf a065 88be
00000260: 310c 743e ad6e 08bf 7cdd b5be 47eb 01bf
00000270: b214 8dbe bbd7 1bbf b8ae 14bf 284b eb3e
00000280: 8a0b fcbe 33b1 4f3e 58a8 d4bc 2fae 40bf
00000290: c39f 80be 220d 1bbe 11af 17bf aa88 4abe
000002a0: d803 f6bd 73f7 d8be 6cff 1a3f 1fa5 043f
000002b0: 2fe3 643e c35a d6be 8633 bf3d 70e6 b1be
000002c0: 8b91 74be 2ec3 0abe 85b3 10be d832 04be
000002d0: fc08 e6be 3014 66be afd0 9cbe 1780 32bf
000002e0: a63c 20bf 1ea0 20bf 7ddb 013e 670c ce3e
000002f0: e6c6 003f c1ee 16be 27cf c5bd e11e acbd
00000300: 6db0 373f 8ea1 423f 780b f3be c95a 06bf
00000310: 2224 0abf c883 c0be 8651 d43e 8d00 933e
00000320: 8120 983e edc6 bc3e d975 043d f148 86be
00000330: c9bf 0d3f ad9a 683e 186f 763e 904b f8be
00000340: d76c cf3e 7a6b 20be ae50 5a3e d5ff e53e
00000350: 2774 ab3e da6d a5be a280 f4be 0b07 3dbe
00000360: a24a 6fbe 88f0 21bf ad06 0a3f 3114 84bd
00000370: abdd 033f 74e1 15bf 8624 fa3c 7561 0ebe
00000380: 147f 63be 8280 6d3c f442 83be 77b9 a93e
00000390: a6e9 10bf e1d7 fd3c 3f6f 17be dac5 dcbe
000003a0: 004a 4dbe 31fd 1abf 675d aebe 2904 26bf
000003b0: 9002 ce3c 65dd 92be 4ece 53be 26ed 19be
000003c0: 954d ba3e 90f5 9e3e 89ef d3bd dce4 81be
000003d0: 45f0 e33e 1917 a8be 83ee dcbe dcd0 b1be
000003e0: 4358 de3c 3023 dfbe 2f25 dd3e be04 2dbd
000003f0: 0fe1 a23e c16a 07be 63b6 a5be 2dee 94be
-0.29116756 -0.065096095 0.14652307 0.28907713 0.3180343 -0.2636737 -0.4451551 -0.009967252
-0.24274659 -0.42545578 0.26601446 0.49945983 -0.27377862 -0.23119606 -0.56158483 -0.40543115
0.009730356 -0.44528744 0.3451542 -0.57873017 -0.043939684 -0.012844432 0.0663127 0.595633
0.48256442 0.03475875 -0.24544038 -0.73022485 -0.6824369 0.1926464 0.48024797 -0.36978993
0.3899249 -0.35209435 -0.11687423 0.37010047 -0.5729268 -0.48421657 0.65841347 -0.1885474
-0.36306155 -0.23854606 -0.34612533 -0.58833754 -0.3260162 0.34811682 -0.03227378 -0.18957086
0.2220244 -0.33533403 -0.032107707 -0.54635274 0.26525024 -0.1890977 -0.4917473 -0.20522198
0.3746944 -0.25111747 0.12363588 -0.12118186 -0.31283042 -0.250175 -0.24835047 0.3165026
-0.2183784 -0.48379284 0.12918209 -0.61283004 -0.27342004 0.7272896 -0.2110048 0.44358173
-0.02526834 0.63879734 -0.4245015 0.24302277 -0.50277203 -0.15462703 0.29904297 0.09080256
0.066212974 0.49112156 -0.63752824 0.19696936 -0.10881961 0.36681288 0.1718811 -0.39936066
-0.56858456 0.29347062 -0.54547256 0.5838262 -0.71991515 0.024029864 0.29817602 -0.40867722
-0.28421193 0.14607263 -0.33693922 0.023930257 0.5200001 -0.42123118 -0.13062294 -0.5832263
0.5678098 0.4127626 0.15220639 -0.37284422 -0.37325624 0.19780752 -0.2514338 0.64474434
0.11113936 0.22866566 0.60497445 -0.55308574 -0.010279796 -0.43390378 0.2651924 -0.20211379
-0.49560356 -0.41682473 -0.56835526 0.09454758 0.22526032 -0.04109578 0.18843386 -0.50664294
0.40161774 -0.69735855 -0.269143 -0.4938217 0.52101463 0.46106353 0.38010624 -0.14999439
0.13734888 -0.9470552 -0.34559798 -0.054255772 0.09524346 -0.3770024 -0.3645941 -0.36075956
-0.6464165 0.17487365 0.6361316 0.32648587 -0.59162915 -0.1761596 -0.74846774 -0.26640034
0.23832776 -0.5329388 -0.35520542 -0.5074963 -0.27554852 -0.60876054 -0.580791 0.45955777
-0.49227554 0.2028244 -0.025959179 -0.75265783 -0.2512189 -0.15141729 -0.59251505 -0.19778696
-0.12012452 -0.4237629 0.6054599 0.51814455 0.22352289 -0.4186612 0.09335999 -0.34746122
-0.23883645 -0.13551018 -0.14130981 -0.1291002 -0.4492873 -0.22468638 -0.30627963 -0.697267
-0.6259254 -0.6274432 0.12681384 0.40243837 0.50303495 -0.14739515 -0.09658652 -0.08404327
0.7175358 0.7602776 -0.47469687 -0.5248228 -0.53961384 -0.3760054 0.41468447 0.28711358
0.297123 0.36870518 0.03233895 -0.26227525 0.55370766 0.22715254 0.24065816 -0.4849515
0.40512726 -0.15665999 0.2131984 0.44921747 0.33487055 -0.32310373 -0.4775439 -0.18459718
-0.23368314 -0.63257647 0.53916436 -0.06449164 0.51510113 -0.5854714 0.030534994 -0.13904364
-0.22216445 0.014495971 -0.2563702 0.3314931 -0.5660652 0.030986728 -0.14788531 -0.431197
-0.2004776 -0.6054259 -0.34055635 -0.648501 0.025147706 -0.28684536 -0.20684168 -0.15031871
0.36387315 0.31046724 -0.10348422 -0.25369918 0.4451925 -0.32830122 -0.4315072 -0.3472966
0.027141696 -0.43581533 0.4319243 -0.04224085 0.3181233 -0.13224317 -0.32365713 -0.29087964

net.2.weight f4 [256, 256]
00000000: 483e aabc 3728 5f3c 9bdc 993c c349 2abc
00000010: 82ed 733d 9e2f 31bd c0bd 923c 40ee 443d
00000020: ef23 a7bc 4567 3c3d 9d78 f5bb c885 66bd
00000030: 2072 0cbd 34d2 f13c 5f1c 04bd 8848 763c
00000040: e93b 603d 9131 873c 1118 6fbc 1600 2d3c
00000050: 287e 13bd 63ed 67bd f262 55bd a091 78bd
00000060: d522 773b 3265 573b 6895 d9bc 1468 7abd
00000070: d3b8 913c 330d 2abd 7667 97bc 0c13 72bd
00000080: f248 2ebd dd1f 9f3c fd80 8cbd bd3b 2abd
00000090: 0903 123d f94a 2ebd a9e4 eebc 103e d6bc
000000a0: 44d2 ae3c 2935 4cbd bbb8 6eba eb6d ca3c
000000b0: e11f 81bb ccad 553b ad96 4dbd 8491 aa3c
000000c0: 7859 bf3c ed0d 69bc e208 71bd 7b8f 8e3c
000000d0: bf78 0f3d b961 97bc b9ec c43c e223 923c
000000e0: 2cab e8bc 6413 31bc ac9c 613d 3669 dfbb
000000f0: 040a 5abd 8682 40bc 48e5 c13c d39e f4bc
00000100: 2010 06bd 0455 2c3d 24b8 c83c bbef 81bc
00000110: fb05 99bb 6cef 9cbc 85d2 733c 4624 0fbc
00000120: 86ac 39bd b4de 063c 00b7 b1bb 35d1 a9ba
00000130: 1a8f e9bc f8cc 9f3b ac74 73bd 5ee2 173c
00000140: 4a8b c83c 52e0 5ebc 6260 63bd 2664 edbb
00000150: 3491 c1bb d341 7dbd cbc4 55bd 0d02 5a3d
00000160: ad19 263d caa8 c93c 8ff2 e63c 7ff8 573c
00000170: 3eb9 eb3c 7d48 153d 8dbe 94bc d8b2 83bc
00000180: e5dc 183d d10a 7dbc a702 40bd f91d 50bd
00000190: ff7d eb3c 8e0f 433d f977 373d 1301 e03b
000001a0: dc52 013d 67d7 82bd 4270 38bd 5dab 84bd
000001b0: 55ed 383d b1a7 29bc 9334 17bd 1d77 373c
000001c0: 167c 01bd de2f 3bbd bc9f 4e3c 407e 3b3c
000001d0: 3413 53bd ad46 31bd 040a cb3c 3827 253d
000001e0: e37a ecba 0418 13bd 9a3f c83c 6bc9 c23a
000001f0: 5184 79bd 1cb1 3cbd 6f60 e83a 694d 0c3d
00000200: b1e4 e6bc e660 b33c 978a 48bd 04ae 593d
00000210: 06cb 0f3d 8dac ec3a f4d2 a23c 9420 8d3c
00000220: ce6c 39bd 00de 0eba 47f6 403c 1483 a7bc
00000230: 6f23 563d 2be1 e5bc 639e 72bd 3cd9 c7bc
00000240: a828 7cbd d2f4 523d b75c 0dbd fe3b 3dbd
00000250: 1a44 55bc b67e 2cbd 1652 19bd 1d8d b73c
00000260: 2434 40bd 0f4c b23c 16a9 2d3d cd44 6abb
00000270: e03a b33c ef16 27bd 1349 383d c977 543d
00000280: dcae c43b 6049 693d ade1 8ebd f288 5fbc
00000290: 600b 873b 174b 7bbd 6942 b93c 7021 c3bc
000002a0: 4f6a b2bc 62bb 4dbd cf47 983c bc2f 5dbd
000002b0: 7439 c7bc 3fe2 b53c 455e 2b3d 19ee 383c
000002c0: 3dfc dabc c8b3 debc 06aa 053d 07e9 6c3b
000002d0: 3fb2 243d 4c1f 873c 0dae 273d 15b3 5cbd
000002e0: 8184 3e3d b280 0cbd 2dd6 9cbc 0021 c439
000002f0: cb8e a5bc e343 043c be2c 453d caf4 18bd
00000300: a9d7 273c 258e 55bd edea 733b 1967 433d
00000310: 7321 153d 4a6c 443d 4e34 f93c adae 8cbc
00000320: ac83 cf3b 430a 09bd f800 353d 302e 003d
00000330: 18aa 58bd 50ec 3a3d 15b0 30bc 942f 9ebb
00000340: 8344 bdbc 60c5 9cbc 64d5 c4bb 99f8 01bd
00000350: 9674 80bd fb36 16bd 2bf3 d0bc 7a13 223d
00000360: 2be7 1d3d 0c62 19bd bfc8 18bc 9074 c3bc
00000370: 4c33 2ebd 8c62 62bc 90e4 f5bc c5db e23c
00000380: f969 16bd 105f 983b 7ccf 21bd 74fe e8bc
00000390: 29af 443d efb6 1fbd 17f2 ebbb bc6f 563d
000003a0: fd5e 873c f3fa 19bd 881a 34bd 908b b3bc
000003b0: 7bd6 eabc 6a34 a23c 7118 62bc 075b 483d
000003c0: 417c 2dbd 2ff7 e9bc c0bc 633c 8dc7 333d
000003d0: ce58 563d 22e0 7939 a0a6 2c3b 6a7e 0abd
000003e0: dfa2 e33c bb03 2dbd 353d cfbc c6f6 55bd
000003f0: 8c24 8cbd bce7 ca3c 55aa e7ba 8638 503d
-0.020781651 0.013620428 0.01878195 -0.010393563 0.059552677 -0.043258302 0.017912745 0.048078775
-0.020402877 0.045996923 -0.007491185 -0.056279927 -0.034288526 0.029519178 -0.03225362 0.015031941
0.054744635 0.016503127 -0.01459314 0.0105591025 -0.036008984 -0.056622874 -0.052096315 -0.060685754
0.003770997 0.0032866714 -0.0265605 -0.061134413 0.017788326 -0.041516494 -0.018481951 -0.059100196
-0.042550035 0.019424373 -0.0686054 -0.041560877 0.035647426 -0.04255197 -0.029161768 -0.02615264
0.021340497 -0.049855385 -0.00091065065 0.024710616 -0.003940568 0.0032604812 -0.050192524 0.02082134
0.023358092 -0.014224512 -0.058846362 0.017402401 0.03502726 -0.018479215 0.02403866 0.017839376
-0.028401934 -0.010807846 0.055081055 -0.006817962 -0.053232208 -0.011749869 0.0236689 -0.02986089
-0.03273022 0.042073265 0.024501868 -0.015861383 -0.0046699024 -0.019157134 0.014881735 -0.008736676
-0.045330547 0.0082318075 -0.0054234266 -0.0012956025 -0.028510619 0.004876729 -0.05943744 0.009270279
0.02448048 -0.013603287 -0.05551184 -0.0072446046 -0.005907202 -0.061830353 -0.05218963 0.053224612
0.04055183 0.024616618 0.028191833 0.013181805 0.028774854 0.036446083 -0.018157268 -0.01607649
0.037320036 -0.015444473 -0.04687753 -0.050809834 0.028746603 0.047622256 0.04479215 0.0068360656
0.03157316 -0.06388741 -0.045028932 -0.064779975 0.045148212 -0.010354922 -0.036915373 0.011197832
-0.03161248 -0.045699947 0.012611326 0.011443675 -0.051531985 -0.043280292 0.02478505 0.040320605
-0.0018041994 -0.035911575 0.02444439 0.0014861053 -0.060917202 -0.046067342 0.0017728935 0.03425351
-0.02818522 0.02189679 -0.048960295 0.05314447 0.035105728 0.0018056795 0.01987598 0.017227449
-0.04526978 -0.00054499507 0.011777467 -0.020448245 0.052279886 -0.02806147 -0.05923308 -0.024395578
-0.06156221 0.05150301 -0.034512248 -0.04619979 -0.013016725 -0.04211303 -0.0374318 0.022406155
-0.046924725 0.021764783 0.04239758 -0.0035746575 0.02187866 -0.040793356 0.044991564 0.05187205
0.00600229 0.05695474 -0.06976638 -0.01364349 0.004121229 -0.061350908 0.022614675 -0.023819655
-0.021779208 -0.05022753 0.018588929 -0.0540006 -0.024319388 0.02220261 0.04183795 0.011287236
-0.026731605 -0.027185336 0.03263285 0.0036149637 0.04020905 0.016494416 0.040937472 -0.053881723
0.046513084 -0.03430242 -0.019145096 0.0003740862 -0.02020969 0.008072826 0.048138373 -0.037342824
0.0102442885 -0.052137513 0.0037218884 0.047705743 0.036408853 0.047954835 0.030420449 -0.017173136
0.006332835 -0.033457052 0.044190377 0.031294048 -0.05289659 0.04563552 -0.010784169 -0.004827449
-0.023103958 -0.019137084 -0.0060068835 -0.03173122 -0.06272237 -0.036673527 -0.025506577 0.039569356
0.038550537 -0.03744702 -0.009325205 -0.023859292 -0.04252939 -0.013817441 -0.030016214 0.027692685
-0.036722157 0.004650004 -0.039504513 -0.028441645 0.04801861 -0.03899282 -0.00720049 0.052352652
0.016524786 -0.03759284 -0.043970615 -0.021917135 -0.028666725 0.019800384 -0.013799773 0.048914935
-0.042354826 -0.02856025 0.013899982 0.04389148 0.052330784 0.00023829986 0.0026344433 -0.033811964
0.027787624 -0.042239886 -0.02529774 -0.052237295 -0.06842908 0.024768703 -0.0017674664 0.050835155

net.2.bias f4 [256]
00000000: e3e9 d1bb 2abf 2abd 7051 453c 8180 97bc
00000010: 98b6 94bd 184e 8b3d 8d53 b33b ee99 783d
00000020: 4bad 18bd ba15 8d3d ebcf 9ebd b5b9 8fbd
00000030: f882 983c 8a29 a43c ce00 2bbc 6331 c03d
00000040: 93a0 8bbc f1d4 ba3d c925 97bd d64e cdbc
00000050: 864d 033c bfa6 b5bc ff0b 753e 3a66 9cbd
00000060: 72a8 e53c 77b5 8b3c 01b1 84bc 8ec5 173e
00000070: 1ee3 363d 163b e8bd a277 91bd 66f8 81bd
00000080: c892 d83b 80cc 37bd ed89 213e 6a52 7e3e
00000090: 4d97 903c f34d cebb 4629 283e 952d 91bd
000000a0: 93d0 0e3d ef56 0f3d 16b7 55bd 530e 5dbd
000000b0: dc46 84bd 5f30 0cbd 190d 01bd 2d62 e5bb
000000c0: e6ec 8d3c fb0f e63d 07c4 95bd 98d8 cf3d
000000d0: 64ae 543d 3d9f 54bd 38e3 2cbd 7717 893b
000000e0: 2497 87bd 784c 9c3d 2cac 78be 854b cc3b
000000f0: 98f0 1bbd 1b86 97bd c87c 06bc 1bde 7bbb
00000100: dcb2 dfbc 90c6 e5bc cb27 03bd ed72 dabb
00000110: ce36 2fbd 79f7 f6bc 2b87 a03c 7a29 53bd
00000120: 7e98 a73b ee0c 1cbc f2f5 2ebc 45e1 293e
00000130: ab14 92bd 202a e23c be3d a63c d44b 87bc
00000140: 459a c73c b140 243e 49d3 85bd fba7 923c
00000150: d6bc 1d3d 7cfe 58be 43dd 4bbd 79e9 183d
00000160: 27e9 43bd 13c2 91bd 3d7a 35bd 7045 0ebd
00000170: 4062 7bbe c1a5 97be 6069 92bd d911 6fbd
00000180: 0b7d 4abd 9707 1e3c 83cf 28bd ba25 bc3d
00000190: 57e1 54be 60c6 e5bc bc1b 5c3d df9b a0bd
000001a0: 2c92 29bb 1877 24be c102 2fbd fbc1 233e
000001b0: 278c d83b b8bb 383c 729b 0e3d aff7 a43c
000001c0: 1ddd 44be 8653 353d d053 c7bc feb9 7c3d
000001d0: fd4e 473c dc05 ff3d 5ddf 873b cde0 183d
000001e0: f5d7 66bd cfd0 003e 6e67 d23c 5cca a43c
000001f0: d987 313d 1530 1c3e 5283 87bd 2a41 1d3d
00000200: 7c93 a63c b08a 90bd 8d89 b23c 20e6 c1bd
00000210: 4a68 82bd 1a39 5bbd 8d44 74bd 020f 04bb
00000220: 7ebc 2e3c 24b0 b3bc ce4f 153c 7e8d 58bd
00000230: adf0 35bd 7e78 a03c 0eb7 443d 3214 2e3e
00000240: d24e 7dbd 02bc 22bd 1a95 86bd 457e 33bb
00000250: 58a2 1c3e f2a4 033d c199 21bd 5d14 a23c
00000260: 2f4f 45bc d27a 1dbd 4cbf 483c 0236 8e3c
00000270: 5ea1 94bd 3a42 fc3c 636d 333e 95ca 44bc
00000280: be91 f7bc 1353 a3bd 3d0a 1cbd a370 293d
00000290: 4f05 42bc 51c1 45be de03 97bc a24b 093d
000002a0: 2e7a f6bb ae89 2a3d 1fd4 143b 32bd b03c
000002b0: b5ea 153d 5b6c 9abd 08ed d2bb 5a5b 223d
000002c0: c150 253e bfc1 99bd 17f4 3b3d aea3 cbbd
000002d0: b3bd a4b8 2fe3 e8bd 227e 90bd f633 2ebe
000002e0: 4033 4cbd 5bef ee3c 7546 5cbd 348d 9bbc
000002f0: de7d 503c 50ca 51be 3b84 4abd 5e43 913b
00000300: 3a96 1fbd 563c 233d 2cea 5dbd 61c9 fd3d
00000310: 82fe 75be dcb0 ee3c 0bc3 7cbd 0937 b53c
00000320: 8f8c 273c df1b 8bbd 7676 9fbe f385 1e3d
00000330: a847 9d3d 755f 81bc a8bf 41bd daa7 313d
00000340: 1c87 32bd 39bb 523e 6eea 4d3c 28e3 64bb
00000350: 955d e13a f7b0 af3d 323b 983c f75e e33c
00000360: a662 a23c 9268 1cbd c0fa 8cbd fd20 18bd
00000370: da74 e1ba e843 8a3d 5716 79bd 9e83 32be
00000380: 169b aabd ccdb 3fbc 7913 8ebd fc4a 72bd
00000390: ee2d 80bc 2cbe 8fbd 9670 823d 376d a6bc
000003a0: 49d1 0dbd 11ac cc3c 8268 963c d01c bb3c
000003b0: 19e6 763b a36c fb3a 1897 56bd 77e4 173c
000003c0: 8cac 58bd 6280 94bd 604c 66bd b132 49be
000003d0: 8e6f 2dbd 6ebc 1c3b ab3d 0d3d c75c 59bd
000003e0: 6528 63bd 1408 20bd fbfa 8ebc 18ad 6a3e
000003f0: af5d 0ebd fc4c 1f3e 2f40 d5bd cd4a bfbc
-0.0064060553 -0.041686215 0.012043342 -0.018493893 -0.072613895 0.068020046 0.0054726065 0.060693674
-0.03727464 0.0688891 -0.07754501 -0.07017843 0.018617138 0.020039339 -0.010437204 0.0938442
-0.017044341 0.091226466 -0.07380254 -0.025062006 0.0080140885 -0.022174237 0.23930357 -0.07636686
0.028034423 0.017054303 -0.016197683 0.14821455 0.04465019 -0.11339395 -0.07102896 -0.06346206
0.0066092946 -0.04487276 0.15775271 0.24836126 0.01765027 -0.0062959134 0.16421995 -0.07088772
0.03486688 0.034995016 -0.052176557 -0.05396874 -0.06458828 -0.034225818 -0.03150663 -0.007000229
0.017324876 0.11233517 -0.0731278 0.10148734 0.051924124 -0.051909674 -0.04220888 0.0041837054
-0.06620625 0.07631773 -0.24284428 0.0062345886 -0.038071245 -0.073986255 -0.008208461 -0.0038431946
-0.027306966 -0.028048784 -0.03202037 -0.0066665323 -0.042776875 -0.030147301 0.019595703 -0.051553227
0.005114614 -0.009524567 -0.010678755 0.1658984 -0.07132848 0.027607977 0.020293113 -0.01651565
0.024365554 0.16040303 -0.0653444 0.017902365 0.038510166 -0.21190828 -0.04977156 0.037332032
-0.047829773 -0.07117095 -0.04430603 -0.03473419 -0.24549198 -0.29618648 -0.07149005 -0.05836663
-0.049435657 0.009645364 -0.041213524 0.09186883 -0.20789085 -0.028048694 0.053737387 -0.0784223
-0.0025874479 -0.16061056 -0.042727236 0.15991966 0.0066085043 0.011275224 0.034816213 0.020137636
-0.19224973 0.044269107 -0.024331957 0.061700813 0.012164828 0.124522895 0.0041465 0.03732376
-0.056358296 0.12579654 0.025684085 0.020116024 0.043342445 0.15252717 -0.06616844 0.038392223
0.020333998 -0.070577025 0.021794105 -0.09467721 -0.06367548 -0.053521253 -0.059635688 -0.0020150547
0.010665057 -0.021934576 0.009113265 -0.052869312 -0.04441898 0.019588705 0.048026137 0.16999891
-0.061842747 -0.03973008 -0.065714076 -0.0027388495 0.15296304 0.032139726 -0.03945327 0.0197851
-0.012042805 -0.03844721 0.01225264 0.017359737 -0.07257341 0.030793298 0.17522196 -0.01201119
-0.030220862 -0.079748295 -0.0380957 0.041367184 -0.011842086 -0.19312026 -0.018434461 0.033519395
-0.007521889 0.041635208 0.0022709442 0.02157459 0.036600787 -0.075401984 -0.0064369477 0.0396379
0.16144086 -0.07507657 0.04588708 -0.09943329 -7.8554636e-05 -0.11371457 -0.07055308 -0.17012009
-0.049853563 0.029166868 -0.05377813 -0.01898823 0.012725322 -0.20487332 -0.04944251 0.0044330796
-0.038961627 0.039852463 -0.0541784 0.123919256 -0.24022868 0.029137067 -0.061709445 0.02212097
0.010226383 -0.06792425 -0.31145066 0.038701963 0.07679683 -0.015792588 -0.04730192 0.043372966
-0.04358588 0.20579232 0.012568099 -0.0034925435 0.0017194027 0.08578675 0.018582914 0.027755244
0.01982243 -0.038185664 -0.06883764 -0.037140835 -0.0017200962 0.06751233 -0.06081232 -0.1743302
-0.083303615 -0.0117101185 -0.06937308 -0.059153542 -0.015646901 -0.07018694 0.0636913 -0.02031575
-0.034623418 0.024984391 0.01836038 0.022840887 0.003767377 0.0019182157 -0.052390188 0.009270779
-0.05289893 -0.072510496 -0.05622518 -0.19648243 -0.042342715 0.0023916024 0.03448264 -0.053066995
-0.055458445 -0.039070204 -0.017453661 0.22917593 -0.034757312 0.15556711 -0.10412633 -0.023351097

net.4.weight f4 [4, 256]
00000000: c33e 34bd 7a2b c83c 56d5 13bb cec1 81bc
00000010: db64 00bc 5f5c 363d 475e 11bd 20a4 8c3b
00000020: 610e bd3c 5cc1 25bf 24c7 6dbc d994 0f3d
00000030: 9788 4abb 4966 273d 1685 263d 48b1 093e
00000040: c30f 94bc e8a3 83be 0355 86bc ef31 89bc
00000050: 0483 ffbc 070d aabc 0e63 5e3e d449 b83b
00000060: 7837 af3c 4729 1c3d 454a 18be b16d f13d
00000070: 02ec 9fbd 1442 f3bd bcc1 d83c 109a b4bc
00000080: 6d0e 82bc b9de 323d 0429 633e 8502 f53e
00000090: 1781 643c eeba ef3d 7f0d 363f ec28 a1bc
000000a0: 3aff 4dbd 0860 48bf 1b40 073d 6c44 f43c
000000b0: 8e9b 48bc 18a3 3dbd 4160 ebbb 7eb7 053d
000000c0: ccc1 1cbd 9a1f 713a b7f5 913c 6468 2abe
000000d0: 7134 663d f406 e83b e05c 223d 3a21 23bd
000000e0: fd98 9bbb 14df ed3d 5da3 5fbc 6670 0a3d
000000f0: b0af 9b3c 343f 8d3c 305d 353c 5850 8ebc
00000100: e40c 34bd 81bf ec3c 5e24 993c f00e d7bc
00000110: c7f8 0ebe e32c cd3c 2b72 663d 914f b3bb
00000120: 5bfe d53c f01b df3b 5b2b 2cbd a8f0 30bc
00000130: fd45 fe3c 317e 1fbd a2ec a1be d641 203d
00000140: b61e 933c 0c32 a43e 2cd4 41bc 0994 28be
00000150: d7ec 1ebd e9b5 2e3c 5fdf 103a 55eb 32be
00000160: 115b 52bb b992 90bc 90c5 6ebd da5d 3fbc
00000170: d736 583a aa41 0e3e 1985 dd3c 02fe 193d
00000180: fc2c 153c 7c4b d6bc 9835 13bc de70 c4bd
00000190: 1057 b73b 7e26 353b aa02 1f3e 01c3 7b3c
000001a0: bb9b 423d ce7f 9d3d 4e48 363d 890a 8dbd
000001b0: c53a aa3c eaae a4bc f4af 6abc aaef c7bc
000001c0: 1a4f e2be 4d40 003e e161 6f3c c6b3 0c3d
000001d0: 4756 ccbc c6f2 ba3e 8e79 33bd eccd 813b
000001e0: 814f 2a3c 7b31 2abe b896 2c3d a236 663d
000001f0: 8931 7abf a298 763d 688c 6e3c 3f29 543c
00000200: 8a7a d13a 90ee d03c 8587 d2bb 1174 5ebc
00000210: f9ee 363c f22a 9bbc be0f d6bb 270e 803b
00000220: e354 13bd 2b22 883d 4983 15bc c530 4e3d
00000230: b31d 9cbc 3ec5 2dbc 5755 30bc c9b6 4fbd
00000240: b240 d0bb 1b4f d53b 298e a2bd 9872 1fbc
00000250: cd45 0c3f adc1 e73c a5bb c9bc 019d bebc
00000260: f702 84bd c725 81bd afc6 c1bc 244c a4bc
00000270: 490e 523d 0bf0 95bc 23d0 8fbd c8f8 eebc
00000280: e5b7 6d3a 45a7 bbbc 7e1f 7abc 7610 543d
00000290: 921f 1dbd 8e4a c63d 176b 2bbd 834c 013d
000002a0: aaea 39bc c447 313d a4c5 c1bc 3175 bbbc
000002b0: 02a1 153d 5162 28bd dde7 b13c cfaf c4bc
000002c0: 804b 3cbf b0dd 31be ea45 ef3c 5659 c43c
000002d0: 5f0c cc3c 52af 84bd 5cce 04bd a0d6 ecbd
000002e0: 83e0 273d ef8d c43b 7947 fcbc 632d 183d
000002f0: 261e 95bc 0fdb 223e 8fca df3c 9c9f 4abe
00000300: 17cf c9bc 3166 ab3c e16b e2bc de42 bb3d
00000310: 5573 a43e 4f5d 2ebb 34d0 0cbd 721d 3fbd
00000320: f8e5 cc3c e833 083d 697f 353e 10fc 21be
00000330: f37c 38be 4a2f 0f3d 50e0 5cbc 1c43 ae3c
00000340: 873f 8dbb 17b7 8e3e 3ddb b13c 810c 173c
00000350: e9fd 1e3d 98c6 1cbc c10b 993b 50df b3bb
00000360: 7c02 35be 1645 3fbc 6308 7dbc 12e7 4bbc
00000370: 64bc bfbc 21c4 1abc 17ac 17bc b320 b8be
00000380: 5ba2 f9bd 772e 1bbd f807 89bc 1961 31bd
00000390: c289 393d ca9d 9e3b 0fad 87be 8908 e93c
000003a0: 199c 5abd bd5a 643b 990f c13c d3cd 18bd
000003b0: 7e6c 80ba b538 363d cfcb 1f3d a3c3 a23b
000003c0: 96e2 a63c e3a9 aabd 7fbe c03c 8e27 23bc
000003d0: e58a e93c a1fe 94bc 2e80 b33c 9dfd e5bc
000003e0: b676 a73c 52dc 9bbc 6ff0 ec3b ea27 743d
000003f0: 280e 0f3d 2659 e63c c934 353d 0a05 85bc
-0.044005167 0.024434794 -0.0022557578 -0.015839484 -0.007836546 0.044521686 -0.0354903 0.004292026
0.023078145 -0.6474817 -0.014512811 0.03505406 -0.0030904168 0.04086903 0.040654264 0.13446534
-0.018073922 -0.25710988 -0.016397959 -0.016747443 -0.031190403 -0.020758165 0.21717474 0.0056240354
0.021388754 0.038125303 -0.14872082 0.117885 -0.07808687 -0.11877838 0.026459567 -0.022046119
-0.01587602 0.043669436 0.22183615 0.47853485 0.013946793 0.11705576 0.71114343 -0.019672833
-0.05029223 -0.7827153 0.03302012 0.029817782 -0.012244118 -0.046298116 -0.007183105 0.032645695
-0.038270757 0.00091981294 0.017817361 -0.16641384 0.056202356 0.007080907 0.039639354 -0.03982661
-0.0047484622 0.116148144 -0.013649789 0.033798598 0.019004673 0.017242052 0.011069581 -0.017372295
-0.043957606 0.02889991 0.018694099 -0.02625224 -0.13962089 0.025045818 0.056261223 -0.0054721315
0.026122263 0.0068087503 -0.042033534 -0.010799564 0.031039232 -0.038938705 -0.3162585 0.039125286
0.01795898 0.32069433 -0.011830371 -0.16462721 -0.038800087 0.010663488 0.0005526449 -0.17472585
-0.0032097737 -0.017648088 -0.05829388 -0.011680091 0.0008247918 0.13892236 0.027041005 0.037595756
0.009104963 -0.02615904 -0.008984946 -0.0959184 0.0055950955 0.0027641351 0.1552836 0.015366317
0.047511797 0.076903924 0.04450255 -0.06886775 0.020779977 -0.020102937 -0.014324177 -0.024406273
-0.44200975 0.12524529 0.0146107385 0.034351133 -0.024943484 0.36513346 -0.043817095 0.0039613154
0.010394932 -0.16620438 0.042135924 0.056204446 -0.97731835 0.060204156 0.014559843 0.012949287
0.0015981954 0.02550438 -0.0064248466 -0.013577477 0.011165374 -0.018941376 -0.0065326383 0.003907937
-0.035969626 0.06647142 -0.009125539 0.05033948 -0.01905713 -0.010606108 -0.010762534 -0.050711427
-0.0063553685 0.0065096742 -0.07937271 -0.009731911 0.5479401 0.028290594 -0.024625609 -0.023268225
-0.06445878 -0.063060336 -0.02365431 -0.020055838 0.051283155 -0.018302938 -0.07022121 -0.029171363
0.0009068235 -0.022906909 -0.015266297 0.05177351 -0.038360186 0.09682189 -0.041850176 0.031567108
-0.011347452 0.04328133 -0.023653813 -0.02288303 0.036530502 -0.041109387 0.021717006 -0.024009613
-0.73552704 -0.17369723 0.029208142 0.02396838 0.024908243 -0.06478752 -0.032423362 -0.11564374
0.040985595 0.005998365 -0.0307958 0.03715266 -0.018202852 0.15903877 0.027318267 -0.19787449
-0.024634881 0.020922752 -0.027639331 0.09143613 0.3211924 -0.002660591 -0.034378245 -0.04665894
0.025012001 0.033252627 0.17724384 -0.1581881 -0.18016414 0.034957208 -0.013481215 0.021272235
-0.0043105516 0.2787406 0.021710986 0.00921929 0.038816366 -0.009568833 0.0046705906 -0.0054892674
-0.17676729 -0.011674186 -0.015443894 -0.012445228 -0.023405261 -0.009446175 -0.009257338 -0.35962448
-0.1218917 -0.03788611 -0.016727433 -0.04330549 0.04529739 0.0048405873 -0.2649922 0.028446453
-0.053371523 0.0034844123 0.023567008 -0.037305664 -0.0009797958 0.044487674 0.039012726 0.0049671694
0.020371716 -0.083331846 0.023528336 -0.009958161 0.028508613 -0.018187823 0.021911707 -0.028075034
0.020442348 -0.019025955 0.0072308104 0.059608378 0.03492561 0.028118681 0.044239793 -0.016237754

net.4.bias f4 [4]
00000000: 0510 acbc 3379 163e 7a37 5cbe 22ac 8ebd
-0.021003732 0.14694671 -0.21505538 -0.069664255
