tau_data/seed0/SAC_STL_actor_200000.pth (torch, 275779 bytes, 6 tensors)

net.0.weight f4 [256, 5]
000000 58 4c 54 3e 49 a4 bb 3d 42 e9 1b bf 69 41 f9 be
       0.20732248 0.09162194 -0.609028 -0.48682716
000010 e7 e2 a0 be 14 00 4c 3e e0 ce d6 bd fe d7 eb 3d
       -0.31423113 0.19921905 -0.10488677 0.115158066
000020 09 9c 06 3f 41 4e 8d 3e 60 ad 93 3d 70 7b 4f 3e
       0.5258184 0.27598765 0.07210803 0.20261931
000030 e2 ee 9c be 01 6b 9e be 37 a2 09 bd 16 cb 63 3b
       -0.30651003 -0.30941013 -0.033601966 0.00347585
000040 d8 33 43 3e 46 55 88 be 7e 12 26 bf 4d a1 83 be
       0.19062746 -0.26627558 -0.64871967 -0.25709
000050 50 c1 a6 3e 6d 71 a4 3e a0 9f 9d bd b8 f7 e1 3e
       0.3256936 0.32117787 -0.07696462 0.44134307
000060 e9 f9 ea 3d 43 5e 92 be 08 27 12 3f e9 ad cc be
       0.11473448 -0.2858754 0.57090807 -0.39976433
000070 8b 9e 97 be b4 55 31 be f1 ba 7e be 56 e8 08 3e
       -0.29613146 -0.1731785 -0.24876 0.13369879
000080 e5 79 22 bf 06 6a 0c 3e 4e c0 c9 3e ff 43 6c be
       -0.63467246 0.1371232 0.3940453 -0.23072813
000090 86 9d 77 bd bb 52 04 3f f9 82 76 3f 5b 3b 91 3f
       -0.06045296 0.51688737 0.962936 1.1346239
0000a0 b5 10 03 be 76 f6 58 3c 21 89 61 3d 1d 9e 20 bc
       -0.12799342 0.013242355 0.055062417 -0.009803322
0000b0 44 d3 54 3d e0 29 2a be fd 85 26 3f fa 77 8f 3e
       0.05195929 -0.16617537 0.650482 0.28021222
0000c0 7a c8 86 be 3f 6f ff 3d 29 1d ae 3d f7 b1 fa 3e
       -0.26324826 0.124723904 0.085016556 0.489639
0000d0 77 2c 50 3e db c5 49 3f 03 33 41 3f 62 15 1b 3e
       0.20329462 0.7881753 0.7546846 0.15144876
0000e0 60 99 f3 3d d0 65 8f be 4a 8d 68 bf ee b4 39 be
       0.11894488 -0.28007364 -0.9084059 -0.18135425
0000f0 28 4c 9d 3e d3 a1 c8 3e cc 8a a5 be 9b dc 20 3f
       0.30722165 0.39185962 -0.32332456 0.6283662
000100 f6 d2 91 3e 4b 1f 92 be 9a 20 34 3e ed d5 f3 3e
       0.28481263 -0.285395 0.17590562 0.4762415
000110 0a 98 58 3f 8c 53 7f 3e 66 28 07 bf 26 24 f3 be
       0.84606993 0.24934214 -0.5279602 -0.47488517
000120 93 e7 f0 3e b4 51 20 3f c7 d9 bf 3e 6b 26 a8 3e
       0.47051677 0.6262467 0.37470838 0.3284181
000130 9f 21 4b 3e c5 5c 11 bf 86 c4 f0 bd 77 dc 47 be
       0.19837044 -0.5678218 -0.11756234 -0.19517694
000140 6a cb e6 be 13 6b b1 3e 97 7b 1f 3e ec f6 9f be
       -0.45077068 0.34652004 0.1557449 -0.31243074
000150 e9 18 18 3d 3d d0 8d 3d a9 b3 d6 3d f4 8c 27 bf
       0.03713313 0.06924484 0.10483486 -0.6544945
000160 f2 0d 36 3f e2 6a 67 3c 56 39 c6 bd 20 f2 22 3e
       0.7111503 0.014124604 -0.09678905 0.15912676
000170 0b c3 10 3f e2 04 00 3f a9 92 22 bf 22 f2 eb be
       0.5654761 0.5000745 -0.63505036 -0.4608317
000180 68 4c 58 3e 36 3d 7e be a6 c3 32 be ee 49 81 3d
       0.21122897 -0.24828038 -0.17457446 0.06312929
000190 7b 78 0d 3e 5d 48 2b 3e 10 e2 fa be 43 19 b0 3d
       0.13815491 0.16726823 -0.49000597 0.08598568
0001a0 4f dc 04 bf 34 e1 45 bd 57 83 aa 3d dd 4e ea be
       -0.51898664 -0.048310474 0.08325832 -0.45763293
0001b0 65 b3 18 be b0 d6 bf 3b 24 64 59 3e bb 2e 7a 3e
       -0.14912184 0.00585445 0.21229607 0.24431889
0001c0 3a 8c 72 bf 9a 48 b4 3e c9 f7 08 3f c9 cf cb be
       -0.9474522 0.3521164 0.5350309 -0.39806965
0001d0 8b 93 98 bd 33 f4 1e 3e 8e d5 34 be 43 54 4c bd
       -0.074500166 0.15522842 -0.1765959 -0.049885046
0001e0 04 6b ad 3d 1b 51 3c 3e aa 71 f7 bd b7 02 01 3f
       0.08467677 0.18390314 -0.120822266 0.5039477
0001f0 21 88 0e 3e 3d 27 1e 3d 96 48 a7 3c 45 4a d5 be
       0.13919117 0.03861164 0.020420354 -0.41658226
000200 ef 02 05 be a5 31 82 3d 11 ca ea be ba b9 c0 3c
       -0.129894 0.06357125 -0.4585729 0.023526061
000210 97 67 93 be 0e 34 8a bc 79 8d 46 3f be 39 df be
       -0.2878997 -0.016870525 0.7755962 -0.4359874
000220 f5 08 0c be 19 b2 1a 3d 7a a6 2a 3f d5 83 5c 3f
       -0.13675292 0.037767503 0.66660273 0.8613866
000230 72 b2 ff 3e ff 93 33 3d 76 ae 01 3f f4 ea bd 3e
       0.4994083 0.043842312 0.5065683 0.37093318
000240 31 a5 13 bd 17 d7 d6 bd 54 86 31 3e b9 6d 5b 3e
       -0.03604621 -0.10490244 0.17336398 0.21428575
000250 4b e3 17 bf 40 09 a6 be 6d 7a 4b be 9a 5f 1f ba
       -0.59331197 -0.32428932 -0.1987092 -0.00060796144
000260 f1 62 6a bd 71 ce 7e 3e 1b 01 95 3f 9f c8 ff be
       -0.057223264 0.24883439 1.1640962 -0.4995775
000270 8a 5e d5 3e 4b 01 66 be c6 6a 8d be cb 7d c8 3e
       0.4167369 -0.2246143 -0.27620524 0.39158472
000280 a0 fb 95 bc b0 24 8c 3e b8 8a 29 3b 10 d4 8c bf
       -0.01830846 0.2737174 0.0025870036 -1.1002216
000290 e0 12 18 3d 55 70 bf bd b5 6c 2d bd d6 fd 01 3f
       0.037127376 -0.093475975 -0.04234 0.5077795
0002a0 83 a3 ab be e5 14 9e 3d 59 a2 4c 3e e9 8a 7f be
       -0.33523187 0.07718829 0.19983806 -0.24955334
0002b0 fd ed 81 3e 11 1b 24 3f 9d 4c 95 be a6 78 bd 3d
       0.25376883 0.641038 -0.29160014 0.092515275
0002c0 6b bf de 3d 8f 21 4e 3d 26 e1 28 3f d7 ad f3 bd
       0.10876354 0.050324973 0.6596855 -0.11898392
0002d0 e8 cc 61 bc 23 74 ce be 3f ac a3 3e 98 a3 b8 3d
       -0.013781764 -0.4032298 0.3196735 0.09015578
0002e0 9e ec d0 3e e2 9a 94 3e 76 80 74 be ec c5 5e bd
       0.40805525 0.29024416 -0.23877129 -0.05438797
0002f0 d6 39 ce bc d7 97 72 3f 73 d3 ed 3d d5 d2 16 3e
       -0.025174063 0.9476294 0.11612596 0.14728864
000300 7f 0a 15 3d 43 17 6c 3e c6 2e b4 be 58 6f f8 bd
       0.036386963 0.23055749 -0.35191935 -0.12130612
000310 c7 d3 83 be 0b d8 4c 3e f6 a3 97 3c c4 9d 2e 3f
       -0.2574751 0.20004289 0.0185108 0.6820948
000320 b7 a6 ae be de 2c 22 3f 93 fb 0d bf 88 98 56 bd
       -0.34111568 0.6334971 -0.55461997 -0.05239156
000330 41 f6 60 3e c7 7d 11 3e 88 c4 9c be 34 be 5c 3e
       0.21968938 0.14208136 -0.3061869 0.21556932
000340 14 58 5d 3f f1 94 20 3f f0 3c ad 3d e9 8f 87 be
       0.8646252 0.62727267 0.084588885 -0.26476982
000350 d1 86 49 3e e9 78 eb 3e cf 8f dc 3e 88 7c 06 3c
       0.19680335 0.45990685 0.43078467 0.0082084015
000360 fa 29 bb be 5b 1d d9 be e0 f0 44 3f f7 fd f1 be
       -0.36555463 -0.4240521 0.76930046 -0.47264072
000370 ea 7e 45 3c 7d f7 27 3f 6d b8 6e 3e 8a 6a 55 3e
       0.012054184 0.6561201 0.2331254 0.20841423
000380 d1 34 e0 be c6 88 fe 3d 18 bc 71 bd aa a0 16 bd
       -0.43790296 0.12428431 -0.05901727 -0.036774315
000390 11 57 c5 be 4b 63 f3 3e 3f 5e 54 3d 94 68 6d 3f
       -0.3854299 0.47536692 0.051847693 0.927377
0003a0 17 b2 80 3e 53 b5 4d 3f 02 75 0f 3e 78 0e f7 be
       0.25135872 0.80354804 0.14009479 -0.48253226
0003b0 c8 9a c0 3e 39 86 95 be d8 f5 b1 be bb 00 06 3f
       0.3761809 -0.29203966 -0.34757876 0.52344865
0003c0 29 99 19 3e 23 57 0f 3f 1a 2d e9 3d e9 24 0b bf
       0.14999832 0.55992335 0.113855556 -0.54353195
0003d0 7a ae f4 3e ed 68 17 bf 76 66 af 3e 8f a1 cf be
       0.47789365 -0.5914448 0.3425786 -0.40552947
0003e0 16 9a 98 3e 5f 8a c1 3d 51 44 8e be d7 1f dc 3d
       0.29805058 0.0945022 -0.27786496 0.107482605
0003f0 fc d5 f6 3e 9b e2 5d be 7b 0e 07 bf 71 fb 8b bc
       0.48210132 -0.21668474 -0.5275647 -0.01708767

net.0.bias f4 [256]
000000 ef a1 d6 be c8 a0 9d be 87 a8 05 be c3 a7 22 3e
       -0.4192042 -0.3078673 -0.1305257 0.15884309
000010 a6 6d 54 3e 40 4b a0 be cb 43 42 bf 8a e3 50 be
       0.20744953 -0.3130741 -0.75884694 -0.203993
000020 60 d7 0c bf 59 2c 0c bf 2d cf aa 3c c6 bf e4 3e
       -0.55016136 -0.5475517 0.020850742 0.44677562
000030 e6 f8 8b be c3 56 ff bc d9 d6 2b bf 1f 45 d1 be
       -0.27338332 -0.0311693 -0.67124707 -0.40873048
000040 2d f1 9a bd 91 ae 2b bf d8 34 01 3f 2c 4e 30 bf
       -0.07565532 -0.6706324 0.5047126 -0.6886928
000050 9d 56 ae bd 07 16 1f be ae 15 9a bc 57 ed 08 3f
       -0.08512614 -0.15535747 -0.018809166 0.5348715
000060 d5 7b 63 3e f1 32 6b be 77 75 56 be c1 74 65 bf
       0.22215207 -0.22968651 -0.20943247 -0.8963128
000070 fb 00 5f bf 18 fb 7c 3d 27 b9 cc 3e a0 69 00 bf
       -0.8711087 0.0617629 0.3998501 -0.5016117
000080 08 26 42 3e 75 ff 18 bf 0d 7f 62 be 59 17 d2 3e
       0.1895982 -0.59764796 -0.22118779 0.41033438
000090 ef 93 15 bf bf 79 18 bf 72 f0 dd 3e 91 84 1e be
       -0.58428854 -0.5956077 0.43347508 -0.15480258
0000a0 9e 7b b4 be 41 85 30 bf 86 c5 cc be 24 2b 39 bf
       -0.35250562 -0.6895333 -0.39994448 -0.7233145
0000b0 62 20 f4 be dd 1d 68 3e d7 52 1b be 07 07 98 be
       -0.47680956 0.22667642 -0.1516832 -0.2969286
0000c0 3f 7c a9 3e df 9c eb be 81 81 70 bc 48 54 0c bf
       0.33102605 -0.4601812 -0.014679314 -0.54816103
0000d0 a3 33 73 3e 65 f0 0d be 09 b6 1b bf a6 bb cd be
       0.23750167 -0.13861234 -0.6082464 -0.40182227
0000e0 0a 2e ba bd d5 1c dc be 7d 83 b1 bd 73 d2 e7 be
       -0.090908125 -0.42990747 -0.086676575 -0.45277748
0000f0 d3 84 91 be bd f8 b9 be b5 83 64 be e4 17 e4 3e
       -0.2842165 -0.36322585 -0.22315867 0.44549477
000100 5b fc 82 be 07 dd da be e0 d8 52 3b ed a3 4b bf
       -0.25583157 -0.42746755 0.0032172725 -0.79547006
000110 19 cf 9a bd fc 7e 19 3f db ff c1 be 85 7a d2 3e
       -0.07559032 0.5995939 -0.37890515 0.411091
000120 be b3 60 be 61 5a 06 3f d6 68 1e bf f4 d7 a5 3e
       -0.21943566 0.5248166 -0.61878717 0.32391322
000130 47 d6 b7 be 19 5b 8a be af 84 27 bd 54 3b 42 be
       -0.35905668 -0.27022627 -0.04089802 -0.18967944
000140 e2 57 e4 3d e4 0b d8 3e 47 b7 73 bf d5 18 97 3d
       0.11149575 0.42196572 -0.95201534 0.07377783
000150 e5 9a a5 bd 87 47 c2 3e 6e e9 2a 3e ee c6 00 bf
       -0.080861844 0.37945196 0.16690609 -0.5030354
000160 23 4b 3c bf b9 a2 4a 3e a2 33 3e bf 94 cd 90 3e
       -0.7355215 0.19788636 -0.74297535 0.28281844
000170 74 3a 54 bf 3f 8a 92 be 15 3f 58 3e 26 49 00 bf
       -0.8290169 -0.28621098 0.21117814 -0.50111616
000180 fc 15 f8 be 0a 0c b0 3d c4 cc f5 be 5a ef f0 3d
       -0.48454273 0.08596046 -0.48007786 0.11764403
000190 8c c7 fb 3e 2b 28 28 bf 0c 02 aa be d3 68 06 bf
       0.4917568 -0.6568629 -0.33204687 -0.525037
0001a0 c5 82 c0 3e 19 02 1f 3f ef 9b f1 bd 86 ac 02 bf
       0.3759977 0.62112576 -0.1179732 -0.510445
0001b0 5b fe 2e bf 6b b6 d8 3d 37 95 ca be ac bd ca 3e
       -0.68356866 0.105816685 -0.39566967 0.39597833
0001c0 f3 e9 3f 3d 40 b2 b9 3d 51 b4 ac 3e a5 b3 5e bf
       0.04685397 0.090672016 0.3373132 -0.86992866
0001d0 37 58 1e be 67 08 24 bf f2 75 4c 3e 5c cb bd be
       -0.15463339 -0.6407532 0.19966868 -0.37069213
0001e0 60 81 3a bf a2 d9 8d be 5d 37 45 bf 29 78 03 be
       -0.7285366 -0.27705103 -0.770376 -0.12838806
0001f0 20 5f fa bc 0f 17 5a be d9 29 dc 3d a5 0f 18 bf
       -0.030562937 -0.21297859 0.10750169 -0.5939887
000200 e2 77 52 3e 29 7e 4e bf 22 ef 07 bf 61 12 3e bf
       0.20553544 -0.80661255 -0.5309926 -0.74246794
000210 43 15 8a 3e 72 f4 85 3e ae 33 8a 3d 39 af 26 bc
       0.26969346 0.2616306 0.06748138 -0.010173612
000220 51 76 d3 bd 16 12 66 bf 17 38 05 bf 11 e8 62 3d
       -0.103253014 -0.89871347 -0.5203871 0.055397097
000230 82 06 4f 3e e0 a8 13 bf 51 19 d6 be f8 b8 f0 be
       0.20217326 -0.5767956 -0.4181619 -0.4701612
000240 f8 28 63 bf c7 73 87 3e 1a 0e ad 3e 56 8b 9b 3e
       -0.8873439 0.2645552 0.3379982 0.30379742
000250 1d e6 64 bf 50 5b 15 bf 60 94 73 bf a9 ff cc be
       -0.89413625 -0.58342457 -0.9514828 -0.40038803
000260 ca 14 c0 3e dd 8a 3e bf 09 48 a6 be 60 03 16 bf
       0.3751586 -0.7443064 -0.32476833 -0.585989
000270 de 5d 35 bf 20 14 2c bf 76 7a 26 bf 0c 8e 2c 3e
       -0.70846355 -0.6721821 -0.6503061 0.16851062
000280 13 65 15 bf 52 61 a5 3e 03 c0 6b be 16 ca 46 bf
       -0.5835735 0.32300812 -0.23022465 -0.7765211
000290 ae ba b3 be 62 2a e7 bd 7f c5 10 bf 93 4b b2 be
       -0.35103363 -0.11287381 -0.56551355 -0.34823284
0002a0 7e 43 74 bc 73 c6 13 bf c9 94 d8 3e 17 92 09 3f
       -0.0149086695 -0.57724684 0.42301014 0.5373854
0002b0 37 dd 66 3e 2b 69 13 bf 48 22 41 3d ee de 22 bf
       0.22545324 -0.5758235 0.047151834 -0.63621414
0002c0 75 aa d7 be c9 18 1e bd ed f9 a3 3d 58 0b d1 bd
       -0.42122236 -0.038597856 0.08006654 -0.10207242
0002d0 75 fb 16 bf 42 47 cc be 28 cb 34 bf b6 11 40 bf
       -0.5897744 -0.39898115 -0.7062249 -0.75027025
0002e0 ad bd 3e bf d2 2e 6e bf 5a 88 c2 bd 7a 3f 95 3e
       -0.7450817 -0.9304019 -0.09498663 0.2914999
0002f0 a0 b1 52 3e 82 d0 b2 be 60 56 7c be 1a ef 18 be
       0.20575571 -0.34924704 -0.24642324 -0.1493496
000300 5b 2c b7 3e 20 02 20 3f 41 d9 0d bf 59 5e 13 bf
       0.35776028 0.6250324 -0.5540963 -0.5756584
000310 f8 4e 32 bf b7 fb 09 bf 76 e0 bf 3e 66 7c 6f 3e
       -0.69651747 -0.5389971 0.37475938 0.23387298
000320 29 29 26 3e de 38 fa 3d cc c1 1f bd 8e da 11 bf
       0.16226639 0.12217878 -0.03900318 -0.56974113
000330 f2 74 c7 3e 9a 90 77 3d 3b 92 25 3e 18 c1 14 bf
       0.3895641 0.060440637 0.16169064 -0.5810714
000340 99 0b a1 3e 8c 36 82 be 32 4b f7 3e 47 48 ac 3e
       0.3145416 -0.2543224 0.48299557 0.33648893
000350 f8 1d 52 3e f1 9d d1 be 3c 8e c0 be 98 bd d5 be
       0.20519245 -0.40940812 -0.37608516 -0.4174621
000360 52 79 b2 be c5 41 59 bf 27 da 10 3f 79 25 97 be
       -0.34858185 -0.8486598 0.56582874 -0.29520777
000370 0f 7c 14 3f 35 06 17 bf b1 c7 ae bd f8 c6 33 be
       0.580018 -0.58993846 -0.08534182 -0.1755637
000380 c0 68 a1 be 05 c2 2f be c9 81 b7 be 24 98 83 3e
       -0.3152523 -0.17163856 -0.35841206 0.25702012
000390 4e df 40 bf ee 02 99 3e 4c d3 86 be be f8 21 bf
       -0.75340736 0.29885048 -0.26333082 -0.63270175
0003a0 5f a6 dc be 26 6a 22 bf 6d 2b cb be 11 62 f7 be
       -0.4309568 -0.6344322 -0.3968157 -0.48317006
0003b0 66 b5 2a be 20 8e c9 be 37 3b 44 be f9 b3 ed be
       -0.1667076 -0.39366245 -0.19163214 -0.4642637
0003c0 36 0b 54 3e df b8 a5 3c c0 8a a9 be 55 f2 c7 3b
       0.20707402 0.020229755 -0.3311367 0.0061018863
0003d0 5d e2 a8 3e 27 d5 07 bf 1f 32 bf be dc 94 31 bf
       0.329852 -0.5305962 -0.37342927 -0.69367766
0003e0 bd 27 52 be b3 09 1d bf 70 d3 e4 3e 2e 43 b8 3d
       -0.20522971 -0.61342925 0.44692564 0.089971885
0003f0 e3 f4 5b 3e 79 27 3d be 16 4b 9b be b6 23 60 be
       0.21480136 -0.18472089 -0.30330724 -0.21888623

net.2.weight f4 [256, 256]
000000 48 3e aa bc 4c 3d 87 3b 9b dc 99 3c c3 49 2a bc
       -0.020781651 0.00412718 0.01878195 -0.010393563
000010 82 ed 73 3d 9e 2f 31 bd c0 bd 92 3c 6c 41 1e 3d
       0.059552677 -0.043258302 0.017912745 0.03863661
000020 05 14 f3 bc 45 67 3c 3d 9d 78 f5 bb c8 85 66 bd
       -0.029672632 0.045996923 -0.007491185 -0.056279927
000030 20 72 0c bd 34 d2 f1 3c 19 ce 2a bd 88 48 76 3c
       -0.034288526 0.029519178 -0.041700456 0.015031941
000040 e9 3b 60 3d 91 31 87 3c 11 18 6f bc 16 00 2d 3c
       0.054744635 0.016503127 -0.01459314 0.0105591025
000050 28 7e 13 bd 63 ed 67 bd f2 62 55 bd dc 6e 8f bd
       -0.036008984 -0.056622874 -0.052096315 -0.070035666
000060 d5 22 77 3b e3 95 bc bb 68 95 d9 bc 14 68 7a bd
       0.003770997 -0.0057551726 -0.0265605 -0.061134413
000070 d3 b8 91 3c 33 0d 2a bd 2d ff e4 bc 0c 13 72 bd
       0.017788326 -0.041516494 -0.027953709 -0.059100196
000080 f2 48 2e bd e0 96 23 3c c6 f5 9f bd bd 3b 2a bd
       -0.042550035 0.009984702 -0.078105494 -0.041560877
000090 dc 35 d6 3c 7a f1 54 bd b1 03 1e bd f9 fd 11 bd
       0.026148729 -0.051988102 -0.03857774 -0.035642598
0000a0 44 d2 ae 3c 53 03 73 bd 4c 77 2a bc c4 2a 79 3c
       0.021340497 -0.059329342 -0.010404419 0.01520795
0000b0 e1 1f 81 bb ed 25 cb bb ad 96 4d bd 84 91 aa 3c
       -0.003940568 -0.0061995895 -0.050192524 0.02082134
0000c0 78 59 bf 3c ed 0d 69 bc e2 08 71 bd 22 4a 01 3c
       0.023358092 -0.014224512 -0.058846362 0.00789121
0000d0 bf 78 0f 3d 9c 27 e5 bc b9 ec c4 3c e2 23 92 3c
       0.03502726 -0.027972989 0.02403866 0.017839376
0000e0 2c ab e8 bc a2 c6 a5 bc ac 9c 61 3d 36 69 df bb
       -0.028401934 -0.020236317 0.055081055 -0.006817962
0000f0 04 0a 5a bd 86 82 40 bc 48 e5 c1 3c d3 9e f4 bc
       -0.053232208 -0.011749869 0.0236689 -0.02986089
000100 20 10 06 bd 04 55 2c 3d 62 d6 75 3c bb ef 81 bc
       -0.03273022 0.042073265 0.015004726 -0.015861383
000110 cd 02 68 bc 6c ef 9c bc 85 d2 73 3c 46 24 0f bc
       -0.014160824 -0.019157134 0.014881735 -0.008736676
000120 fb 5b 60 bd b4 de 06 3c 00 b7 b1 bb 35 d1 a9 ba
       -0.05477522 0.0082318075 -0.0054234266 -0.0012956025
000130 c4 ca 1a bd f8 cc 9f 3b ac 74 73 bd 5e e2 17 3c
       -0.03779103 0.004876729 -0.05943744 0.009270279
000140 4a 8b c8 3c 52 e0 5e bc 62 60 63 bd 80 c0 88 bc
       0.02448048 -0.013603287 -0.05551184 -0.016693354
000150 cd c1 78 bc d3 41 7d bd cb c4 55 bd 0d 02 5a 3d
       -0.015182924 -0.061830353 -0.05218963 0.053224612
000160 57 7c fe 3c ca a8 c9 3c 8f f2 e6 3c 7f f8 57 3c
       0.03106515 0.024616618 0.028191833 0.013181805
000170 3e b9 eb 3c d7 e2 dd 3c 8d be 94 bc 3a 6d d1 bc
       0.028774854 0.027085705 -0.018157268 -0.025564779
000180 e5 dc 18 3d d1 0a 7d bc a7 02 40 bd 8c 01 77 bd
       0.037320036 -0.015444473 -0.04687753 -0.06030421
000190 ff 7d eb 3c 8e 0f 43 3d f9 77 37 3d 03 0c 2c bb
       0.028746603 0.047622256 0.04479215 -0.0026252277
0001a0 dc 52 01 3d 67 d7 82 bd 42 70 38 bd 5d ab 84 bd
       0.03157316 -0.06388741 -0.045028932 -0.064779975
0001b0 55 ed 38 3d 48 fe a1 bc 47 b9 3d bd 1d 77 37 3c
       0.045148212 -0.019774571 -0.046319272 0.011197832
0001c0 16 7c 01 bd de 2f 3b bd bc 9f 4e 3c 2b 55 00 3b
       -0.03161248 -0.045699947 0.012611326 0.0019582014
0001d0 e2 c4 64 bd ad 46 31 bd d4 e0 7c 3c ae 64 fc 3c
       -0.055851825 -0.043280292 0.015434463 0.030809727
0001e0 7e e9 36 bc 04 18 13 bd d2 ae 74 3c 6b c9 c2 3a
       -0.011164067 -0.035911575 0.014934259 0.0014861053
0001f0 51 84 79 bd 1c b1 3c bd 6f 60 e8 3a 69 4d 0c 3d
       -0.060917202 -0.046067342 0.0017728935 0.03425351
000200 b1 e4 e6 bc 5e 43 4b 3c 6c 39 6f bd 04 ae 59 3d
       -0.02818522 0.012406198 -0.05840437 0.05314447
000210 cc e7 d2 3c ee d9 fa bb f4 d2 a2 3c 00 64 01 3c
       0.025745295 -0.007655374 0.01987598 0.007897377
000220 22 4e 60 bd e1 30 23 bc cf 75 16 3b 14 83 a7 bc
       -0.054762013 -0.009960384 0.0022958403 -0.020448245
000230 6f 23 56 3d 2b e1 e5 bc 51 b3 8c bd 5c ae 0a bd
       0.052279886 -0.02806147 -0.068701394 -0.03385769
000240 a2 74 91 bd d2 f4 52 3d b7 5c 0d bd fe 3b 3d bd
       -0.07102324 0.05150301 -0.034512248 -0.04619979
000250 1a 44 55 bc b6 7e 2c bd 16 52 19 bd cd f2 53 3c
       -0.013016725 -0.04211303 -0.0374318 0.012936306
000260 24 34 40 bd 0f 4c b2 3c 48 b6 06 3d cd 44 6a bb
       -0.046924725 0.021764783 0.03288868 -0.0035746575
000270 e0 3a b3 3c ef 16 27 bd 13 49 38 3d c9 77 54 3d
       0.02187866 -0.040793356 0.044991564 0.05187205
000280 c3 b2 63 bb 60 49 69 3d ad e1 8e bd 24 84 bd bc
       -0.0034744001 0.05695474 -0.06976638 -0.023134299
000290 26 47 b0 bb 17 4b 7b bd 9c 52 57 3c 70 21 c3 bc
       -0.0053795753 -0.061350908 0.013142254 -0.023819655
0002a0 4f 6a b2 bc 62 bb 4d bd cf 47 98 3c bc 2f 5d bd
       -0.021779208 -0.05022753 0.018588929 -0.0540006
0002b0 74 39 c7 bc 3f e2 b5 3c 45 5e 2b 3d 19 ee 38 3c
       -0.024319388 0.02220261 0.04183795 0.011287236
0002c0 3a 64 14 bd c8 b3 de bc 06 aa 05 3d 01 e2 c0 bb
       -0.036228396 -0.027185336 0.03263285 -0.0058863168
0002d0 3f b2 24 3d 4c 1f 87 3c c0 b3 01 3d 2b d3 81 bd
       0.04020905 0.016494416 0.031665564 -0.06339105
0002e0 9f a2 17 3d b2 80 0c bd 02 b2 ea bc 00 21 c4 39
       0.037020322 -0.03430242 -0.028649334 0.0003740862
0002f0 34 2a f1 bc 5c ca ba ba be 2c 45 3d ca f4 18 bd
       -0.02943907 -0.0014250982 0.048138373 -0.037342824
000300 8e e1 82 3a 25 8e 55 bd ed ea 73 3b 19 67 43 3d
       0.0009985433 -0.052137513 0.0037218884 0.047705743
000310 01 59 dc 3c e2 7c 1d 3d 4e 34 f9 3c ad ae 8c bc
       0.02689791 0.038449176 0.030420449 -0.017173136
000320 c7 b0 48 bb 4f cd 2f bd f8 00 35 3d 30 2e 00 3d
       -0.0030622946 -0.042920407 0.044190377 0.031294048
000330 50 80 7f bd c6 34 14 3d 15 b0 30 bc fe bc 6a bc
       -0.062378228 0.03618314 -0.010784169 -0.014327286
000340 83 44 bd bc 60 c5 9c bc 64 d5 c4 bb 99 f8 01 bd
       -0.023103958 -0.019137084 -0.0060068835 -0.03173122
000350 96 74 80 bd fb 36 16 bd d7 47 0f bd 97 5e f6 3c
       -0.06272237 -0.036673527 -0.03498062 0.0300744
000360 57 f2 ed 3c 96 81 3f bd bf c8 18 bc 90 74 c3 bc
       0.02904622 -0.046754442 -0.009325205 -0.023859292
000370 4c 33 2e bd 9b fd be bc 41 ba 21 bd c5 db e2 3c
       -0.04252939 -0.023314288 -0.039484266 0.027692685
000380 b4 4a 3d bd b4 d6 9d bb 7c cf 21 bd 74 fe e8 bc
       -0.04621382 -0.0048168544 -0.039504513 -0.028441645
000390 29 af 44 3d ef b6 1f bd 33 a9 88 bc bc 6f 56 3d
       0.04801861 -0.03899282 -0.016682243 0.052352652
0003a0 33 7b e7 3b f3 fa 19 bd 88 1a 34 bd 90 8b b3 bc
       0.007064247 -0.03759284 -0.043970615 -0.021917135
0003b0 1b 9b 1b bd 6a 34 a2 3c 71 18 62 bc 07 5b 48 3d
       -0.037989717 0.019800384 -0.013799773 0.048914935
0003c0 41 7c 2d bd 2d e1 1b bd c0 bc 63 3c 8d c7 33 3d
       -0.042354826 -0.03805654 0.013899982 0.04389148
0003d0 ce 58 56 3d bf 42 17 bc a0 a6 2c 3b 6a 7e 0a bd
       0.052330784 -0.009232222 0.0026344433 -0.033811964
0003e0 df a2 e3 3c bb 03 2d bd 35 3d cf bc c6 f6 55 bd
       0.027787624 -0.042239886 -0.02529774 -0.052237295
0003f0 8c 24 8c bd bc e7 ca 3c 55 aa e7 ba 86 38 50 3d
       -0.06842908 0.024768703 -0.0017674664 0.050835155

net.2.bias f4 [256]
000000 ed d7 81 bc 02 62 51 bd 70 51 45 3c 81 80 97 bc
       -0.015850032 -0.05111886 0.012043342 -0.018493893
000010 98 b6 94 bd f4 78 ee 3d 8d 53 b3 3b 62 27 20 3d
       -0.072613895 0.11644164 0.0054726065 0.03910006
000020 4b ad 18 bd 21 31 27 3d eb cf 9e bd dc 30 a3 bd
       -0.03727464 0.040818337 -0.07754501 -0.079683036
000030 a2 99 c0 3b aa e8 2d 3c ce 00 2b bc c4 24 96 3d
       0.0058776895 0.0106145535 -0.010437204 0.07331231
000040 93 a0 8b bc e6 71 17 3e c9 25 97 bd b1 6b 0d bd
       -0.017044341 0.14789543 -0.07380254 -0.03452653
000050 ca 13 3e 3a e0 74 00 bd 3f 04 3b 3e 3a 66 9c bd
       0.00072508736 -0.03136146 0.18263339 -0.07636686
000060 72 a8 e5 3c 8c 7e f8 3b 16 f1 65 3d 49 b1 8b 3e
       0.028034423 0.007583445 0.05613812 0.27283695
000070 b5 fd ae 3d 16 09 20 bd d1 37 9c bd 66 f8 81 bd
       0.085444845 -0.039071165 -0.07627834 -0.06346206
000080 35 41 3e bb 80 cc 37 bd 70 85 41 3e 59 c6 96 3e
       -0.0029030566 -0.04487276 0.18898559 0.29448202
000090 a2 a6 2b 3c 69 98 37 be c3 dd dd 3d 95 2d 91 bd
       0.01047674 -0.17929234 0.10833313 -0.07088772
0000a0 82 f3 f0 3c a4 26 f8 3d 16 b7 55 bd 42 1e 44 bd
       0.029412989 0.12116745 -0.052176557 -0.04788042
0000b0 51 9c aa bd 00 96 be bc 43 4d e2 be 87 03 71 bc
       -0.08330596 -0.023264885 -0.4419957 -0.014710314
0000c0 a9 9a d8 3c a6 8b 1d 3d 07 c4 95 bd 61 b3 4b 3e
       0.026440935 0.038463257 -0.0731278 0.19892646
0000d0 7a 46 11 3d 4b 35 7b bd 84 5b 51 bd 77 17 89 3b
       0.035467602 -0.06133012 -0.051112667 0.0041837054
0000e0 ec 6e 85 bd ea 6f d1 3d ee c1 ba be 85 4b cc 3b
       -0.06515297 0.10226424 -0.36476082 0.0062345886
0000f0 98 f0 1b bd 8c 78 aa bd c8 a6 99 bc 9d 4d 9c 3d
       -0.038071245 -0.08323774 -0.018756285 0.07631991
000100 7d 36 16 bd 90 c6 e5 bc cb 27 03 bd ed 72 da bb
       -0.036673058 -0.028048784 -0.03202037 -0.0066665323
000110 a2 50 af bd 73 32 22 bd 2b 87 a0 3c 19 69 c9 3c
       -0.08560301 -0.039598893 0.019595703 0.024586247
000120 5c ce 3b 3c d8 1b 9a bc 67 6c ac bc 8a 34 fa 3d
       0.011462774 -0.018812105 -0.021047784 0.12217052
000130 ab 14 92 bd 53 0c 95 3c e9 19 9f 3d d4 4b 87 bc
       -0.07132848 0.018194353 0.07768614 -0.01651565
000140 45 9a c7 3c 14 99 43 3e b9 50 95 bd a9 19 78 3d
       0.024365554 0.19101363 -0.07290787 0.060571346
000150 d6 bc 1d 3d 8d 64 15 bc 00 79 72 bd 8c 5e a8 bd
       0.038510166 -0.009118211 -0.059197426 -0.082211584
000160 9d a8 6a bd 13 c2 91 bd 3d 7a 35 bd b3 73 29 bd
       -0.05728971 -0.07117095 -0.04430603 -0.041370105
000170 f0 d4 0d be 0f 75 60 be e6 c3 a5 bd d9 11 6f bd
       -0.1385076 -0.21919654 -0.08094005 -0.05836663
000180 90 ef 54 3d 0d d0 a1 39 83 cf 28 bd 29 d0 15 3e
       0.051986277 0.00030863323 -0.041213524 0.14630188
000190 bf 29 92 be dc 3b 20 bd 5d 6e 7d bd df 9b a0 bd
       -0.28547475 -0.039119586 -0.06187283 -0.0784223
0001a0 29 15 46 bc 1f 0f bd bd c1 02 2f bd 3b f2 a3 3e
       -0.012090006 -0.092314 -0.042727236 0.32020745
0001b0 27 8c d8 3b b8 bb 38 3c 73 2d ad 3c 14 bd 2e 3c
       0.0066085043 0.011275224 0.021139836 0.010665197
0001c0 3a 94 56 be f6 f6 b6 3d d0 53 c7 bc bf ea b5 3d
       -0.20954981 0.08933823 -0.024331957 0.08882665
0001d0 fd 4e 47 3c 3f 4c 29 3e d8 6d 6f b8 2e fb 13 3d
       0.012164828 0.16532992 -5.708434e-05 0.036128215
0001e0 f5 d7 66 bd 15 53 2b 3e dd a8 1a 3e e2 95 d9 3c
       -0.056358296 0.16730912 0.15103479 0.026560728
0001f0 45 12 20 3e fe 70 35 3e 43 d8 9a bd 2a 41 1d 3d
       0.1563197 0.17718884 -0.0756078 0.038392223
000200 71 58 31 3c 70 e9 9f bd 8d 89 b2 3c 2a aa 13 be
       0.010824309 -0.078081965 0.021794105 -0.14420381
000210 4a 68 82 bd 1a 39 5b bd 8d 44 74 bd d5 f2 43 bc
       -0.06367548 -0.053521253 -0.059635688 -0.011959751
000220 74 bb c6 b8 dc ce 02 be 12 66 85 3b 7e 8d 58 bd
       -9.4762916e-05 -0.12774223 0.0040710056 -0.052869312
000230 f3 e3 5c bd 7e 78 a0 3c fe d7 20 3d 95 f5 a9 3e
       -0.053928327 0.019588705 0.039268486 0.33195177
000240 d2 4e 7d bd 83 c6 3d bd cc 84 37 3d a9 ad f8 bb
       -0.061842747 -0.046331894 0.04480438 -0.0075890613
000250 5e 90 5b 3e 9d 5c 8d 3c c1 99 21 bd 51 bd ca 3a
       0.2144179 0.017256076 -0.03945327 0.0015467798
000260 a0 60 e8 bc 67 13 44 bd 4c bf 48 3c 75 f9 01 3c
       -0.028366387 -0.047870066 0.01225264 0.00793301
000270 5e a1 94 bd c9 55 ac 3c 3d 41 57 3e 41 2d 91 bc
       -0.07257341 0.021037 0.2102098 -0.017721774
000280 b4 77 18 bd 13 53 a3 bd 3d 0a 1c bd bd 70 c4 3c
       -0.037223533 -0.079748295 -0.0380957 0.023979539
000290 dd a4 b0 bc ad c4 5b be fe 02 e3 bc 77 cf 79 3b
       -0.021562988 -0.21461745 -0.027711388 0.0038118043
0002a0 2e 7a f6 bb 57 2f 03 3d e0 8b ea bb ff e8 43 3c
       -0.007521889 0.03202757 -0.0071577877 0.011957406
0002b0 5e 41 de 3c 4c 60 ad bd 08 ed d2 bb 64 02 f7 3c
       0.027130779 -0.08465633 -0.0064369477 0.030152507
0002c0 18 34 cd 3d 5c 1e 53 be 92 2b 15 3d 0f 1b 98 be
       0.10019702 -0.2061705 0.036418505 -0.29708144
0002d0 b3 bd a4 b8 b4 d2 11 be 22 7e 90 bd ce 7c a4 be
       -7.8554636e-05 -0.14240533 -0.07055308 -0.32126468
0002e0 40 33 4c bd ae ff a1 3c 75 46 5c bd eb 85 26 3e
       -0.049853563 0.019775238 -0.05377813 0.16262023
0002f0 74 6e 25 3b 21 ef a5 be 68 86 68 bd 81 83 ec 3d
       0.0025242837 -0.32409003 -0.056768805 0.1154852
000300 10 32 9f 3d 56 3c 23 3d 2c ea 5d bd 2f b9 4d 3e
       0.077732205 0.039852463 -0.0541784 0.20090173
000310 92 bb 16 be dc b0 ee 3c 9b 7a 91 bd 86 e5 30 3e
       -0.1471999 0.029137067 -0.07103463 0.17275056
000320 8d c1 8e b9 df 1b 8b bd 87 41 96 be c8 e7 b0 3d
       -0.00027228557 -0.06792425 -0.29346868 0.08637959
000330 ac 22 8c 3d 60 e4 17 bd ed a6 64 bd a0 0e 0b 3d
       0.06842551 -0.03708303 -0.055823255 0.033949494
000340 27 d2 58 bd 22 dd 44 3e 6c 4b a5 3b ee bc 54 bc
       -0.052934792 0.1922498 0.0050443914 -0.0129844975
000350 d8 f5 41 bc 0e 5e a5 3c 5b fd 6c 3c 7d e1 95 3c
       -0.011838399 0.02018645 0.0144647015 0.018295998
000360 5f 15 6e 3e c2 3c 43 bd c4 ce af 3d fd 20 18 bd
       0.2325034 -0.047665365 0.08584359 -0.037140835
000370 5c 86 bd bc da 51 1c 3e 57 16 79 bd 70 fc 83 bd
       -0.023135357 0.15265599 -0.06081232 -0.06444633
000380 51 0a a9 3d d9 74 ad bc 10 19 b6 bd 7e f7 8c bd
       0.08253921 -0.021173881 -0.08891499 -0.06883143
000390 50 e4 d1 bc 25 c6 a1 bd cb 83 49 3e 37 6d a6 bc
       -0.025621563 -0.07899121 0.19679181 -0.02031575
0003a0 b4 d7 3a bd 32 d4 00 3c 42 ab 44 b9 71 ce f5 3d
       -0.045615867 0.007863091 -0.00018755815 0.12002266
0003b0 19 e6 76 3b 76 69 3f bc 5c 58 7d bd 8c 73 63 3a
       0.003767377 -0.011682859 -0.061851844 0.00086765806
0003c0 0d e2 89 bd c3 7c 31 3d 60 4c 66 bd 6b 88 52 be
       -0.06732569 0.043331873 -0.05622518 -0.20559852
0003d0 35 29 4f bd c5 30 50 bb 89 cf 8e 3c c7 5c 59 bd
       -0.050576407 -0.003176735 0.017432945 -0.053066995
0003e0 ff a1 83 bd 7b 86 50 bd a9 98 b4 bc a9 85 4f 3e
       -0.06427383 -0.0509095 -0.02204545 0.20265831
0003f0 e1 13 39 bd e1 fa 16 3e 7e fc 2f be 6b 66 d0 bc
       -0.045184974 0.1474414 -0.17186162 -0.025439462

net.4.weight f4 [4, 256]
000000 c8 ed 17 bd 0f 11 88 3c 56 d5 13 bb ce c1 81 bc
       -0.037092 0.016609697 -0.0022557578 -0.015839484
000010 db 64 00 bc e9 03 9a ba 47 5e 11 bd 8a 65 7b 3a
       -0.007836546 -0.0011750433 -0.0354903 0.00095900206
000020 61 0e bd 3c e7 91 5b bf 24 c7 6d bc 1d bd d1 3c
       0.023078145 -0.85769504 -0.014512811 0.025602872
000030 fc 23 b8 bc 00 a6 08 3d 16 85 26 3d c5 1a d7 3d
       -0.022478096 0.033361435 0.040654264 0.10503153
000040 c3 0f 94 bc 8c 93 ba be 03 55 86 bc 31 bf fb bb
       -0.018073922 -0.36440694 -0.016397959 -0.007682704
000050 54 90 89 bc 39 56 7a bc ef ae e3 3e d4 49 b8 3b
       -0.016792454 -0.015279346 0.444694 0.0056240354
000060 78 37 af 3c 16 48 eb 3c 88 91 98 be f1 2d 8e 3d
       0.021388754 0.028720897 -0.29798532 0.069423564
000070 c2 c4 9a 3e ff b4 3a be a7 34 87 3c 10 9a b4 bc
       0.3022824 -0.18233107 0.016504599 -0.022046119
000080 5e 56 e3 bb b9 de 32 3d d9 13 49 3f 1e e9 0b 3f
       -0.006937786 0.043669436 0.7854591 0.54652584
000090 21 a0 ac 3b f1 dc 41 3e 88 2a 4b 3f ec 28 a1 bc
       0.0052681123 0.18931939 0.7936177 -0.019672833
0000a0 a1 b4 38 bd 34 27 87 bf 1b 40 07 3d a7 f0 78 3d
       -0.045094136 -1.0558839 0.03302012 0.06077638
0000b0 16 7f f5 bb 1a 99 2a 3e 98 14 22 be 76 6d 0c 3b
       -0.0074919565 0.16659966 -0.15828168 0.0021427548
0000c0 a2 00 65 be 3a 40 26 bd b7 f5 91 3c 7f 6f d7 be
       -0.22363523 -0.040588595 0.017817361 -0.42077252
0000d0 e0 47 14 3d 4b d3 7e 3c ef ee 07 3d 3a 21 23 bd
       0.036201358 0.015553306 0.03318685 -0.03982661
0000e0 a4 51 41 3c ce ed 45 3e db 3d 7a 3e 66 70 0a 3d
       0.01179925 0.19328997 0.24437658 0.033798598
0000f0 b0 af 9b 3c bb a8 05 3c 00 f5 90 3c 48 70 3d bf
       0.019004673 0.008157904 0.01769495 -0.7399945
000100 af a0 50 bd 81 bf ec 3c 5e 24 99 3c f0 0e d7 bc
       -0.05093449 0.02889991 0.018694099 -0.02625224
000110 1e 97 00 bc 68 9c 85 3c 2b 72 66 3d 6a 40 fa bc
       -0.007848529 0.016309932 0.056261223 -0.030548293
000120 ca 21 3a 3c a6 d5 88 3a 39 c0 1a bd b5 fb 6c be
       0.011360595 0.0010439649 -0.037780974 -0.23142894
000130 fd 45 fe 3c c9 a4 1f bd cc c6 6c be d6 41 20 3d
       0.031039232 -0.03897551 -0.2312271 0.039125286
000140 b6 1e 93 3c dd f5 af 3e 19 37 bd bb 4a bd ab 3d
       0.01795898 0.34367266 -0.0057743904 0.083857134
000150 d7 ec 1e bd 54 8b ba bd c2 ae d4 bb 79 1f 9d be
       -0.038800087 -0.09108606 -0.0064905593 -0.30688074
000160 bb 7d cb 3b b9 92 90 bc 90 c5 6e bd 14 e3 83 3b
       0.0062100566 -0.017648088 -0.05829388 0.0040248726
000170 90 db aa 3d d6 06 0d bc 21 f3 96 3c 02 fe 19 3d
       0.083426595 -0.008607587 0.01842648 0.037595756
000180 4b df ed 3e af 29 90 bc 98 35 13 bc 30 c5 0d be
       0.46459422 -0.017598001 -0.008984946 -0.13844752
000190 37 91 21 3e f5 2c 22 3d 4f a2 fb 3e 01 c3 7b 3c
       0.15778051 0.039593656 0.4914727 0.015366317
0001a0 01 35 26 3d c5 1b 3b 3f 4e 48 36 3d 52 8b f7 be
       0.040577892 0.7308925 0.04450255 -0.4834848
0001b0 c5 3a aa 3c ea ae a4 bc 74 c9 f8 b9 3a c7 f7 bc
       0.020779977 -0.020102937 -0.0004745234 -0.030246366
0001c0 28 1f ee be 91 02 c9 3c e1 61 6f 3c 51 47 a9 3e
       -0.46508145 0.024537357 0.0146107385 0.33062223
0001d0 47 56 cc bc 53 ec 72 3f e9 a2 eb bc dd 20 e0 3c
       -0.024943484 0.9489185 -0.028764205 0.02735942
0001e0 81 4f 2a 3c 2a 43 f1 be dd d2 98 3e 4c 39 2c 3f
       0.010394932 -0.47121555 0.29848376 0.6727493
0001f0 ab ae a9 bf 30 3d ac bd 79 c4 b0 3c 3f 29 54 3c
       -1.325643 -0.08410108 0.02157806 0.012949287
000200 b8 8a be 39 db 4e c1 3c 85 87 d2 bb b2 bc 84 bd
       0.00036342978 0.023597172 -0.0064248466 -0.06481303
000210 f9 ee 36 3c f2 2a 9b bc be 0f d6 bb ed 62 66 3a
       0.011165374 -0.018941376 -0.0065326383 0.0008788545
000220 2b ea 09 bc a1 75 65 3e 71 b7 2a bb c5 30 4e 3d
       -0.008417646 0.22408153 -0.002604928 0.05033948
000230 07 a4 e6 bc 3e c5 2d bc ff a9 66 bb 18 5b e6 bd
       -0.028154386 -0.010606108 -0.003519654 -0.112478435
000240 b2 40 d0 bb e8 92 c0 3b 24 bd 43 3d fe 3f a4 bb
       -0.0063553685 0.0058768876 0.0477878 -0.0050125113
000250 26 80 7d 3f c6 13 62 3c a5 bb c9 bc 1e c1 f6 bc
       0.99023664 0.01379866 -0.024625609 -0.030121382
000260 05 fe e5 3c 95 c6 60 bd af c6 c1 bc 90 6f 4b bc
       0.028075228 -0.054876883 -0.02365431 -0.012416735
000270 49 0e 52 3d 9d 36 b9 bb 1c 99 8f be da ee 06 bd
       0.051283155 -0.0056522624 -0.280465 -0.03294263
000280 3f 07 08 3c 45 a7 bb bc 7e 1f 7a bc b3 9f fc 3c
       0.008302509 -0.022906909 -0.015266297 0.03083787
000290 6a 5d 4d bd ae 20 db 3d 12 72 09 bd 81 5c 4c 3d
       -0.050137915 0.106995925 -0.03355605 0.049892906
0002a0 aa ea 39 bc bc 05 4f 3c af b6 8f bc 54 20 d7 bc
       -0.011347452 0.0126356445 -0.017543165 -0.026260532
0002b0 e8 ad 03 3d d9 99 05 bd dd e7 b1 3c 91 db 79 bc
       0.03214827 -0.032617424 0.021717006 -0.015250103
0002c0 dd 9a 33 bf 2e 28 27 be 90 93 a4 3c 11 18 f9 bd
       -0.7015818 -0.16323921 0.020089895 -0.121627934
0002d0 5f 0c cc 3c 9f c7 0a bf 5c ce 04 bd 13 b4 be be
       0.024908243 -0.5421085 -0.032423362 -0.3724676
0002e0 83 e0 27 3d 40 ad d5 3b 79 47 fc bc 92 34 14 3f
       0.040985595 0.006520897 -0.0307958 0.57892716
0002f0 6e 84 6b bc 37 a5 29 3e e7 52 21 3d 67 55 c3 be
       -0.014374835 0.1656693 0.039385702 -0.38151094
000300 b4 da 28 bd 31 66 ab 3c e1 6b e2 bc 87 b2 73 3e
       -0.041224197 0.020922752 -0.027639331 0.23798572
000310 95 d4 c1 3e 4f 5d 2e bb b3 de cf bc 51 7c 48 3b
       0.378575 -0.002660591 -0.025374746 0.0030591676
000320 6a ff 64 3c e8 33 08 3d 04 8a 5f 3e 1e 8f 9f be
       0.013976911 0.033252627 0.21829993 -0.31163877
000330 1e 05 0a be 13 24 cb 3c 81 d1 92 bc 94 e3 f5 3c
       -0.13478515 0.024797475 -0.017922165 0.030015744
000340 22 59 61 bc 0e 75 a6 3e 2b fc fd 3c fe 38 1c 3c
       -0.013754161 0.3251118 0.031004032 0.009535072
000350 30 06 b2 3c 87 38 b9 3d e0 be 17 3d 08 53 57 3b
       0.021731466 0.09043985 0.037047267 0.0032855887
000360 5c 82 23 bf 8f 43 13 bb ab ec 93 be 12 e7 4b bc
       -0.6387079 -0.0022470688 -0.288915 -0.012445228
000370 22 bc fc bb e7 b1 39 3d 17 ac 17 bc 00 90 ad be
       -0.007712857 0.045335677 -0.009257338 -0.33898926
000380 52 3a fb be f1 ab ed bc 18 e4 07 bb 03 e7 de bc
       -0.49067932 -0.029012652 -0.002073532 -0.027209764
000390 e5 23 3a 3d f8 4e b2 3b 1f 6c 1a bf 89 08 e9 3c
       0.045444388 0.0054415427 -0.6032123 0.028446453
0003a0 13 2e 32 bd 32 a2 f8 3c 70 eb 97 3b 9b cc d3 be
       -0.04350097 0.030350778 0.0046362206 -0.4136704
0003b0 7e 6c 80 ba b6 d7 2d 3d b9 38 09 3d 35 2b 37 3c
       -0.0009797958 0.042442046 0.03350136 0.011179735
0003c0 db 77 c8 3b f8 6c ca bd 7f be c0 3c dc 41 9f bc
       0.0061178035 -0.098840654 0.023528336 -0.019440584
0003d0 61 4e 8b 3c 87 53 9e 3a b8 77 97 3a 9d fd e5 bc
       0.017005147 0.0012079336 0.0011556065 -0.028075034
0003e0 3b e3 9c 3c 7e 51 a0 bc 5a cf 33 3a 6d 4c f2 3d
       0.01915132 -0.019570109 0.0006859206 0.11830983
0003f0 f5 d3 f5 3c ad 50 d8 3d 99 79 e2 3d 6d ea 3d bc
       0.030008296 0.10562263 0.11058349 -0.011591536

net.4.bias f4 [4]
000000 0e 13 d7 bd c1 13 d0 3d 00 7b 19 bf 8a 76 0c bf
       -0.10501681 0.10160018 -0.5995331 -0.54868376
