tau_data/seed0/SAC_STL_actor_400000.pth (torch, 275779 bytes, 6 tensors)

net.0.weight f4 [256, 5]
00000000: 0f45 483e c1a8 c43d 3ac3 20bf 868a a0be
00000010: 5f5a f4bd 2e32 203e 3b4b 0dbf 9bc0 f63c
00000020: 6bd6 533f 2cdd bc3e aa5f a73c 55b5 cb3e
00000030: 1d27 81be 7c2e 27bd 8a15 2c3b 0660 efbc
00000040: 7504 80bd aabf 97be bdb0 78bf 81ae 873e
00000050: c7b8 603e 34ed 1e3e 7de3 84bd 7043 223e
00000060: 2d3c b9be b38c b8be 0251 113f ae76 5dbe
00000070: 9f0e e2be 3487 2fbe 1ec3 90be d5ad bd3d
00000080: 1c66 2bbf 70b6 533e d4bb 163f 0a75 a1bd
00000090: 2419 933e 9944 043f 9a08 7e3f f6de be3f
000000a0: 030f 00bf d38c df3d 8426 e33e 0700 91be
000000b0: fea6 843e 5d5c 8bbe 05d6 ef3e 1090 d83e
000000c0: ba06 93be 34f6 333d c5b9 86bc 97db 0b3f
000000d0: 0faf 913d 9afd 3b3f 29ea aa3f 3980 053e
000000e0: 585f a73d ad02 22be 308c 03bf e0f5 90bd
000000f0: e296 493e d2b2 143f 707f 46be 8880 493f
00000100: c3cd d63e e6c0 96be 4e82 8d3e d4b9 d23e
00000110: 4013 993f 2021 2d3e 4705 05bf 6326 10bf
00000120: 0c2c 283f c24a c93e 1996 53be 3e50 d33e
00000130: 37eb 7c3e fe61 dabe 453f ca3e c8ce c5be
00000140: d365 f6be 2651 043f c0f7 263e 47d0 25bf
00000150: 0b5b 4dbe ebed c03b f909 cf3d a274 17bf
00000160: d8f0 303f 4159 44bf 77e5 07be 1e3b 7fbe
00000170: 8d72 df3e cc64 9f3e f069 14bf b703 a8be
00000180: 0c03 bf3e c447 96be 32f5 28bf 4e60 a23e
00000190: 367f f13d a450 85be 53f3 edbe a3aa 8f3e
000001a0: b501 a9be 02d9 f83d c904 933e 6e0a aabe
000001b0: d1ef 09be 2e75 b6be 340e 5c3e 726e ed3e
000001c0: 0adc 33bf ecea 863e 52ae 053d c2dc 8bbe
000001d0: e0f4 4abe 909e ed3d 2036 28bf 3855 1abe
000001e0: bfb4 24bd 9a34 f73d d314 4dbe c942 6f3f
000001f0: 217e e13c a6a1 5f3e 326d de3e d260 b9be
00000200: 168f 49bd eed3 b43e 022c c9be f2ca 16be
00000210: 3fba ccbe 4f1b d7be 6f82 6e3f 4640 13bf
00000220: 33f2 01be 5e9a 8439 9dda 383f a233 723f
00000230: f198 103f 9bf1 bcbd 9303 063f b99c 463e
00000240: 642c d4bb 2994 85bd 490c 9fbc 515f 583e
00000250: d265 19bf 9b57 7bbd db63 15be 9d66 0abe
00000260: b73c 2ebd b4ed 163f 34ae 773f 9708 28bf
00000270: 48ae dc3e 3f34 8ebe 2699 f1be fcb4 eb3e
00000280: 7295 a3bc b10c 683e d138 133e 431c acbf
00000290: c56d dd3e 0780 06bf c104 283e 2ab6 0a3f
000002a0: 91d9 4abe 1dcd 9cbe 5ce6 fa3d 56c3 e2be
000002b0: 4bc9 693e 63b6 743f 049a fbbe 3b53 1e3d
000002c0: f39b 583c 1da3 0fbd faaa 2e3f caa8 643e
000002d0: 8230 34be f84b 0fbf 96eb d13e 03f4 54be
000002e0: 19d8 7a3f deb6 c53e 214b fcbe ffa4 2f3d
000002f0: 95d9 64bd 9886 4c3f 1628 903d 0749 d53c
00000300: 8ddd 803d 95ad 603e e51b 12bf 7d56 afbe
00000310: 1f6f 11bf 9e74 d33c a1e7 d83e de45 843f
00000320: f409 0dbf f633 1d3f 4351 f7be 757d 9fbd
00000330: be82 0cbe 23da 5c3e b9f3 7ebe 5ee9 f23d
00000340: e860 743f 93a6 283f 6eeb b03d a7ac 0dbe
00000350: 4782 1a3e 0700 823f 62b6 cf3e 0fe0 403e
00000360: fe94 04bf 586f 82be 783a 813f f410 5bbf
00000370: 1c45 833c 87cc 1f3f 2888 753e d895 eabd
00000380: 9a31 30bf a7ff f8bc 05f9 99be de87 b8bd
00000390: b777 0abf fb38 f03e ac64 c7bc 013b 783f
000003a0: 9605 053e 2f16 363e 769e 013e 38fb f0be
000003b0: e89b 053f b162 53be b4dc b4be 6bb9 333f
000003c0: 436f 3dbc 5d0b 713d 6660 da3c d2fa 3bbf
000003d0: 709b ad3e 29bd 31bf b5a5 883e 492b b6be
000003e0: cc33 b33e 78bd 3b3f 1ee8 27be bbba e93d
000003f0: 12bc de3e c358 eabe 8225 0fbf b483 533e
0.19557594 0.096025 -0.6279789 -0.31355685 -0.119312994 0.15644142 -0.5519292 0.030121138
0.8274905 0.3688749 0.020431358 0.39786783 -0.25225154 -0.040815815 0.0026257955 -0.029220592
-0.0625085 -0.29638416 -0.9714468 0.26500323 0.21945487 0.15520173 -0.064887024 0.15846038
-0.36178723 -0.36044845 0.56764233 -0.21627304 -0.4415178 -0.1714142 -0.28273863 0.092616715
-0.6695268 0.20675063 0.5888035 -0.078836516 0.28730118 0.5166717 0.99231875 1.4911792
-0.50022906 0.10915532 0.44365323 -0.28320333 0.25908655 -0.27218905 0.4684297 0.4229741
-0.2871607 0.04393597 -0.016446004 0.5463194 0.07113468 0.7343384 1.335271 0.13037194
0.08172482 -0.15821333 -0.51385784 -0.07078147 0.19686463 0.5808536 -0.19384551 0.7871175
0.4195386 -0.29444045 0.27638477 0.411574 1.1959 0.16907167 -0.5196118 -0.56308573
0.6569221 0.39314848 -0.20662726 0.41272157 0.24699102 -0.42652887 0.39501396 -0.38634324
-0.4812456 0.5168632 0.16305447 -0.6477093 -0.20054261 0.005887737 0.10109324 -0.5916234
0.691175 -0.7669869 -0.13271128 -0.24924895 0.43642083 0.3113159 -0.5797415 -0.32815334
0.37307012 -0.29351628 -0.6599914 0.317141 0.11791842 -0.26038086 -0.46474704 0.28059873
-0.33009115 0.12150766 0.28714588 -0.33211082 -0.13470389 -0.35636276 0.21489793 0.46373326
-0.7025763 0.26351106 0.032636948 -0.27316862 -0.19819975 0.11602509 -0.6570759 -0.15071571
-0.040211435 0.1207058 -0.20027475 0.9346128 0.027525963 0.21839008 0.43442684 -0.3620668
-0.049208723 0.3531794 -0.39291388 -0.14725855 -0.39985844 -0.42013022 0.93167776 -0.5751995
-0.12690048 0.00025292014 0.7220858 0.94610035 0.5648337 -0.0922577 0.52349204 0.19395722
-0.0064750183 -0.065224 -0.019415038 0.2113011 -0.5992099 -0.061362844 -0.14588873 -0.13515706
-0.04253837 0.58956456 0.9675019 -0.6563811 0.43101716 -0.27774236 -0.47187155 0.46036518
-0.019968722 0.22661091 0.14377142 -1.3446125 0.4324781 -0.52539104 0.16408063 0.5418421
-0.19809557 -0.3062524 0.12250969 -0.44289654 0.22830693 0.955908 -0.49140942 0.038653594
0.013220775 -0.035067666 0.6822964 0.22330013 -0.1759663 -0.55975294 0.4100005 -0.20796208
0.9798599 0.3861608 -0.4927607 0.042881962 -0.055871565 0.79892874 0.07038896 0.026035799
0.062922575 0.21941216 -0.57073814 -0.34245673 -0.5681018 0.025812443 0.4236422 1.0333822
-0.5509331 0.6140741 -0.48304185 -0.07787601 -0.13721749 0.21567588 -0.2489766 0.118609175
0.9546037 0.6587917 0.08638655 -0.13835393 0.1508876 1.0156258 0.40568835 0.18835472
-0.51789844 -0.25475574 1.0095968 -0.85572743 0.016024165 0.6242146 0.2397772 -0.11454362
-0.68825686 -0.030395342 -0.300728 -0.090102896 -0.5408892 0.46918473 -0.024339996 0.9696503
0.12990412 0.177819 0.12658104 -0.47066665 0.5219102 -0.20643117 -0.35324633 0.702048
-0.011562171 0.058848727 0.026657294 -0.73429596 0.33907652 -0.6942926 0.26688924 -0.355799
0.35000455 0.7333598 -0.1639714 0.11412569 0.4350286 -0.45770845 -0.5591661 0.2065571

net.0.bias f4 [256]
00000000: 837b 24bf 6acb 02bf 03bc 91be a51e f33d
00000010: 3334 76bd b3b7 09bf e396 82bf e838 29be
00000020: 306a 01bf 9d55 58bf e69b a13d 4af0 fb3d
00000030: 337e 1fbf 9e2a 8b3c 385e 29be 182f 1cbf
00000040: 82bc 08bd 77be 82bf 49a9 d53e 263e 5fbf
00000050: 4239 5abe 85b1 5dbe 85c0 81be bf0e 133f
00000060: 3406 c53c dca8 b5be f207 50be 7c24 7bbf
00000070: 8960 78bf 5ab0 dd3b ea78 133f 7457 d5be
00000080: dd06 45bd 4226 44bf 9e62 c0be d4cb 6c3e
00000090: faae 0fbf 12a2 04bf bbdc aabd 98a0 b43b
000000a0: 0e04 05bf 3dfd 7abf 9c4e c4be c315 41bf
000000b0: 968c 4dbf 3f6a c63e 456d d0bd 38c0 d6be
000000c0: 8473 083e 79d3 1dbf 94ef c13d d97e 31bf
000000d0: fc6a 243e b751 533e ee7e 46bf f610 c6be
000000e0: 942f a8be e838 23bf d4ac 92bd 8e9d e7be
000000f0: 436d ccbe f12f d9be 2ba6 0fbe 066b 313e
00000100: 0169 0dbf 1761 c9be c19a abbd 6001 4fbf
00000110: 4fdd 80bd 0afe e93e 51f2 bfbe 26cf be3e
00000120: 3bbc 35be 8e7d 8abd 198e 1ebf 5392 973e
00000130: 174c 1dbf 4095 00bf a5ac 0bbe 8778 c5be
00000140: 4c17 01be 7dab 213e 3c0f 76bf 04c6 1a3e
00000150: 843b b63e 5906 d73e 758c 843e ff3c 0bbf
00000160: adfb 16bf 62d5 043e dbd8 8ebf 3c15 083e
00000170: 6643 1ebf 241e d1be 531b f93d b939 acbe
00000180: f6e2 d2be da28 adbe 547a fabe 88d9 dd3d
00000190: bc75 1b3e f2e9 10bf 9413 20bf f01c 58bf
000001a0: 9d16 b2bc 0f79 083f c061 d1bd 89f4 82bf
000001b0: 73cd 2cbf 117c 1dbe dedf 00bf 0eb7 093e
000001c0: d127 053e 0d2c a6be c4b2 393e b0bb 62bf
000001d0: 3933 d5be 24c5 10bf 3cee bf3e ff25 bbbe
000001e0: 1d82 2ebf 2bd6 b1bd dff0 d9be cc30 8dbe
000001f0: 7100 3ebd f552 193b 7509 803e e301 25bf
00000200: 7a81 d33e fb3f 66bf 5e14 33bf a951 3fbf
00000210: 2abe 2c3e 24ab a0bd 7bd3 efbd cdc0 d7be
00000220: e0cd 9fbe 2da9 97bf f9f1 46bf fc29 523e
00000230: 1d45 423e f3fe e3be 7b7e b8be 62d7 2fbf
00000240: b768 92bf 006d 3a3d 7156 b73d 486c b0bc
00000250: 7533 58bf 7c7f 49bf ff71 5ebf 48b9 2bbf
00000260: 411f dc3e 094b 21bf fa95 b1be 5879 52bf
00000270: 08d4 0bbf b0c4 49bf 616a 80bf a6c9 b23c
00000280: da59 11bf bb63 9a3e f84d 32be 66b4 50bf
00000290: afaa d8be 4acc 63be 70c2 23bf ab9a 20bf
000002a0: 35f6 57be 37d7 3fbf 92c2 853d 2116 d13e
000002b0: 89a8 52bd bc16 3ebf 0bd4 93bd 0ed7 11bf
000002c0: 23fc d2be 02e7 a1be 2341 9b3d 2b59 74be
000002d0: 4b69 65bf dae0 a1be 940e 56bf 6f73 71bf
000002e0: ab30 87bf 3fa4 94bf f5e8 07be e904 d33d
000002f0: 4313 bf3d e1b0 1dbe 9507 d5be 846e 1ebf
00000300: 9a85 8f3e 4909 fa3e e007 62bf adfa 27bf
00000310: b33e 15bf b23f 30bf c480 d33e 3127 58be
00000320: 904d ec3d 4822 a33e db3f 35be 4ca9 4bbf
00000330: a4eb aa3e fbcc 473d 15b2 14be a234 06bf
00000340: e97d dd3e 3325 57be 43b0 a83e 8985 a63e
00000350: d72b 6fbb 4471 92be 4e57 b8be e816 8fbe
00000360: 69b1 03bf 8ddd 87bf f9e4 b43e e0ef 3ebf
00000370: 60b7 0a3f 57d4 f0be 6922 00bd 46ca e4be
00000380: 6d03 afbe a542 cebd 7bce ffbe 1993 543d
00000390: 9e55 35bf f747 9b3e bcf0 30bf fb26 29bf
000003a0: 16c3 85be 3ec1 dfbe 660f 1ebf a31c 45bf
000003b0: 05a8 89be 116f 0ebf 477d 06bf c6a6 05bf
000003c0: d261 123e 7036 2abd 0d4f 08bf d4c2 563d
000003d0: 0729 e03d 189b 09bf 8756 11bf ccef edbe
000003e0: fcf0 bebd d0bb a0be 606e 5c3e 757b cc3d
000003f0: c58c b33c 047b c1be 2a7d e6be e35c fcbe
-0.64250964 -0.51091635 -0.28463754 0.11871079 -0.060108375 -0.5379593 -1.0202297 -0.16525614
-0.50552654 -0.84505635 0.078910634 0.12301691 -0.6230194 0.016988095 -0.16539848 -0.6100936
-0.0333829 -1.0214375 0.41730717 -0.87204206 -0.21310905 -0.2164975 -0.25342193 0.57444376
0.02405081 -0.35480392 -0.20315531 -0.98102546 -0.970223 0.0067654075 0.57606375 -0.41668284
-0.04810225 -0.76620877 -0.3757524 0.2312463 -0.5612637 -0.518098 -0.08342882 0.0055123083
-0.5195931 -0.9804266 -0.38341224 -0.7542383 -0.8029264 0.38752934 -0.101770915 -0.41943526
0.13325316 -0.61650807 0.09469524 -0.6933418 0.16056436 0.2063664 -0.7753743 -0.38684815
-0.328488 -0.6375871 -0.071618706 -0.45237392 -0.3992711 -0.4241939 -0.14028232 0.17325982
-0.5523835 -0.39331886 -0.08379126 -0.80861473 -0.06292211 0.4570163 -0.3748956 0.37267417
-0.17747585 -0.06762229 -0.61935574 0.29603824 -0.6144423 -0.5022774 -0.13640077 -0.38568518
-0.12606543 0.15788074 -0.96116996 0.151146 0.35592282 0.4199703 0.2588841 -0.5438995
-0.58977777 0.12972024 -1.1159929 0.1328935 -0.6182159 -0.40843308 0.12163415 -0.3363779
-0.41188782 -0.3382023 -0.48921454 0.108325064 0.15181631 -0.5660697 -0.62529874 -0.84419155
-0.021739298 0.5330972 -0.102237225 -1.0230876 -0.6750099 -0.15379359 -0.50341594 0.13448736
0.1300347 -0.32455483 0.181346 -0.8856764 -0.41640642 -0.5655081 0.37486446 -0.36552426
-0.6816729 -0.086834274 -0.42566583 -0.27576292 -0.04638714 0.0023395394 0.25007215 -0.64456004
0.4130972 -0.89941376 -0.6995295 -0.7473398 0.16869417 -0.078451425 -0.117102586 -0.42139283
-0.31211758 -1.1848503 -0.7771297 0.20523828 0.18971677 -0.44530448 -0.36033997 -0.68688023
-1.1438206 0.045514107 0.08952034 -0.021536008 -0.8445352 -0.7871015 -0.86892694 -0.6707959
0.42992595 -0.6300512 -0.34684736 -0.82216406 -0.5462041 -0.78815746 -1.0032464 0.02182467
-0.5677773 0.30154213 -0.17412555 -0.81525266 -0.4231772 -0.22245899 -0.63968563 -0.62736005
-0.21090014 -0.74937767 0.06531252 0.40837196 -0.05143026 -0.7425344 -0.07218178 -0.5696877
-0.4120799 -0.31621557 0.07580783 -0.2386214 -0.8961379 -0.3161686 -0.83615994 -0.9431676
-1.0561727 -1.1612624 -0.1327246 0.10303671 0.09329846 -0.15399505 -0.41607347 -0.61887383
0.28031617 0.4883521 -0.88293266 -0.65616876 -0.58298796 -0.6884719 0.41309178 -0.211087
0.115382314 0.31862092 -0.1770014 -0.795552 0.33382905 0.04877947 -0.14521058 -0.5242406
0.43260124 -0.21010284 0.32946977 0.32523754 -0.0036494636 -0.2860204 -0.36004108 -0.27947164
-0.5144258 -1.0614487 0.35330942 -0.7458477 0.5418606 -0.47037002 -0.031282816 -0.44685572
-0.341823 -0.10071305 -0.4996222 0.051898096 -0.70833766 0.30328342 -0.6911733 -0.66075104
-0.261254 -0.4370212 -0.61742246 -0.7699682 -0.26886 -0.55638224 -0.5253491 -0.522076
0.14295128 -0.041555822 -0.5324562 0.052431896 0.10945325 -0.5375228 -0.56772655 -0.46472013
-0.09323308 -0.3139329 0.2152648 0.09984485 0.02191771 -0.37789166 -0.45017368 -0.49289617

net.2.weight f4 [256, 256]
00000000: 483e aabc 4c3d 873b 9bdc 993c c349 2abc
00000010: 82ed 733d 9e2f 31bd c0bd 923c 6c41 1e3d
00000020: 0514 f3bc 4567 3c3d 9d78 f5bb c885 66bd
00000030: 2072 0cbd 34d2 f13c 19ce 2abd 8848 763c
00000040: e93b 603d 9131 873c 1118 6fbc 1600 2d3c
00000050: 287e 13bd 63ed 67bd f262 55bd dc6e 8fbd
00000060: d522 773b e395 bcbb 6895 d9bc 1468 7abd
00000070: d3b8 913c 330d 2abd 2dff e4bc 0c13 72bd
00000080: f248 2ebd e096 233c c6f5 9fbd bd3b 2abd
00000090: dc35 d63c 7af1 54bd b103 1ebd f9fd 11bd
000000a0: 44d2 ae3c 5303 73bd 4c77 2abc c42a 793c
000000b0: e11f 81bb ed25 cbbb ad96 4dbd 8491 aa3c
000000c0: 7859 bf3c ed0d 69bc e208 71bd 224a 013c
000000d0: bf78 0f3d 9c27 e5bc b9ec c43c e223 923c
000000e0: 2cab e8bc a2c6 a5bc ac9c 613d 3669 dfbb
000000f0: 040a 5abd 8682 40bc 48e5 c13c d39e f4bc
00000100: 2010 06bd 0455 2c3d 62d6 753c bbef 81bc
00000110: cd02 68bc 6cef 9cbc 85d2 733c 4624 0fbc
00000120: fb5b 60bd b4de 063c 00b7 b1bb 35d1 a9ba
00000130: c4ca 1abd f8cc 9f3b ac74 73bd 5ee2 173c
00000140: 4a8b c83c 52e0 5ebc 6260 63bd 80c0 88bc
00000150: cdc1 78bc d341 7dbd cbc4 55bd 0d02 5a3d
00000160: 577c fe3c caa8 c93c 8ff2 e63c 7ff8 573c
00000170: 3eb9 eb3c d7e2 dd3c 8dbe 94bc 3a6d d1bc
00000180: e5dc 183d d10a 7dbc a702 40bd 8c01 77bd
00000190: ff7d eb3c 8e0f 433d f977 373d 030c 2cbb
000001a0: dc52 013d 67d7 82bd 4270 38bd 5dab 84bd
000001b0: 55ed 383d 48fe a1bc 47b9 3dbd 1d77 373c
000001c0: 167c 01bd de2f 3bbd bc9f 4e3c 2b55 003b
000001d0: e2c4 64bd ad46 31bd d4e0 7c3c ae64 fc3c
000001e0: 7ee9 36bc 0418 13bd d2ae 743c 6bc9 c23a
000001f0: 5184 79bd 1cb1 3cbd 6f60 e83a 694d 0c3d
00000200: b1e4 e6bc 5e43 4b3c 6c39 6fbd 04ae 593d
00000210: cce7 d23c eed9 fabb f4d2 a23c 0064 013c
00000220: 224e 60bd e130 23bc cf75 163b 1483 a7bc
00000230: 6f23 563d 2be1 e5bc 51b3 8cbd 5cae 0abd
00000240: a274 91bd d2f4 523d b75c 0dbd fe3b 3dbd
00000250: 1a44 55bc b67e 2cbd 1652 19bd cdf2 533c
00000260: 2434 40bd 0f4c b23c 48b6 063d cd44 6abb
00000270: e03a b33c ef16 27bd 1349 383d c977 543d
00000280: c3b2 63bb 6049 693d ade1 8ebd 2484 bdbc
00000290: 2647 b0bb 174b 7bbd 9c52 573c 7021 c3bc
000002a0: 4f6a b2bc 62bb 4dbd cf47 983c bc2f 5dbd
000002b0: 7439 c7bc 3fe2 b53c 455e 2b3d 19ee 383c
000002c0: 3a64 14bd c8b3 debc 06aa 053d 01e2 c0bb
000002d0: 3fb2 243d 4c1f 873c c0b3 013d 2bd3 81bd
000002e0: 9fa2 173d b280 0cbd 02b2 eabc 0021 c439
000002f0: 342a f1bc 5cca baba be2c 453d caf4 18bd
00000300: 8ee1 823a 258e 55bd edea 733b 1967 433d
00000310: 0159 dc3c e27c 1d3d 4e34 f93c adae 8cbc
00000320: c7b0 48bb 4fcd 2fbd f800 353d 302e 003d
00000330: 5080 7fbd c634 143d 15b0 30bc febc 6abc
00000340: 8344 bdbc 60c5 9cbc 64d5 c4bb 99f8 01bd
00000350: 9674 80bd fb36 16bd d747 0fbd 975e f63c
00000360: 57f2 ed3c 9681 3fbd bfc8 18bc 9074 c3bc
00000370: 4c33 2ebd 9bfd bebc 41ba 21bd c5db e23c
00000380: b44a 3dbd b4d6 9dbb 7ccf 21bd 74fe e8bc
00000390: 29af 443d efb6 1fbd 33a9 88bc bc6f 563d
000003a0: 337b e73b f3fa 19bd 881a 34bd 908b b3bc
000003b0: 1b9b 1bbd 6a34 a23c 7118 62bc 075b 483d
000003c0: 417c 2dbd 2de1 1bbd c0bc 633c 8dc7 333d
000003d0: ce58 563d bf42 17bc a0a6 2c3b 6a7e 0abd
000003e0: dfa2 e33c bb03 2dbd 353d cfbc c6f6 55bd
000003f0: 8c24 8cbd bce7 ca3c 55aa e7ba 8638 503d
-0.020781651 0.00412718 0.01878195 -0.010393563 0.059552677 -0.043258302 0.017912745 0.03863661
-0.029672632 0.045996923 -0.007491185 -0.056279927 -0.034288526 0.029519178 -0.041700456 0.015031941
0.054744635 0.016503127 -0.01459314 0.0105591025 -0.036008984 -0.056622874 -0.052096315 -0.070035666
0.003770997 -0.0057551726 -0.0265605 -0.061134413 0.017788326 -0.041516494 -0.027953709 -0.059100196
-0.042550035 0.009984702 -0.078105494 -0.041560877 0.026148729 -0.051988102 -0.03857774 -0.035642598
0.021340497 -0.059329342 -0.010404419 0.01520795 -0.003940568 -0.0061995895 -0.050192524 0.02082134
0.023358092 -0.014224512 -0.058846362 0.00789121 0.03502726 -0.027972989 0.02403866 0.017839376
-0.028401934 -0.020236317 0.055081055 -0.006817962 -0.053232208 -0.011749869 0.0236689 -0.02986089
-0.03273022 0.042073265 0.015004726 -0.015861383 -0.014160824 -0.019157134 0.014881735 -0.008736676
-0.05477522 0.0082318075 -0.0054234266 -0.0012956025 -0.03779103 0.004876729 -0.05943744 0.009270279
0.02448048 -0.013603287 -0.05551184 -0.016693354 -0.015182924 -0.061830353 -0.05218963 0.053224612
0.03106515 0.024616618 0.028191833 0.013181805 0.028774854 0.027085705 -0.018157268 -0.025564779
0.037320036 -0.015444473 -0.04687753 -0.06030421 0.028746603 0.047622256 0.04479215 -0.0026252277
0.03157316 -0.06388741 -0.045028932 -0.064779975 0.045148212 -0.019774571 -0.046319272 0.011197832
-0.03161248 -0.045699947 0.012611326 0.0019582014 -0.055851825 -0.043280292 0.015434463 0.030809727
-0.011164067 -0.035911575 0.014934259 0.0014861053 -0.060917202 -0.046067342 0.0017728935 0.03425351
-0.02818522 0.012406198 -0.05840437 0.05314447 0.025745295 -0.007655374 0.01987598 0.007897377
-0.054762013 -0.009960384 0.0022958403 -0.020448245 0.052279886 -0.02806147 -0.068701394 -0.03385769
-0.07102324 0.05150301 -0.034512248 -0.04619979 -0.013016725 -0.04211303 -0.0374318 0.012936306
-0.046924725 0.021764783 0.03288868 -0.0035746575 0.02187866 -0.040793356 0.044991564 0.05187205
-0.0034744001 0.05695474 -0.06976638 -0.023134299 -0.0053795753 -0.061350908 0.013142254 -0.023819655
-0.021779208 -0.05022753 0.018588929 -0.0540006 -0.024319388 0.02220261 0.04183795 0.011287236
-0.036228396 -0.027185336 0.03263285 -0.0058863168 0.04020905 0.016494416 0.031665564 -0.06339105
0.037020322 -0.03430242 -0.028649334 0.0003740862 -0.02943907 -0.0014250982 0.048138373 -0.037342824
0.0009985433 -0.052137513 0.0037218884 0.047705743 0.02689791 0.038449176 0.030420449 -0.017173136
-0.0030622946 -0.042920407 0.044190377 0.031294048 -0.062378228 0.03618314 -0.010784169 -0.014327286
-0.023103958 -0.019137084 -0.0060068835 -0.03173122 -0.06272237 -0.036673527 -0.03498062 0.0300744
0.02904622 -0.046754442 -0.009325205 -0.023859292 -0.04252939 -0.023314288 -0.039484266 0.027692685
-0.04621382 -0.0048168544 -0.039504513 -0.028441645 0.04801861 -0.03899282 -0.016682243 0.052352652
0.007064247 -0.03759284 -0.043970615 -0.021917135 -0.037989717 0.019800384 -0.013799773 0.048914935
-0.042354826 -0.03805654 0.013899982 0.04389148 0.052330784 -0.009232222 0.0026344433 -0.033811964
0.027787624 -0.042239886 -0.02529774 -0.052237295 -0.06842908 0.024768703 -0.0017674664 0.050835155

net.2.bias f4 [256]
00000000: edd7 81bc 0262 51bd 7352 393b 8180 97bc
00000010: 9b79 a4bd c892 6b3e 8d53 b33b 6227 203d
00000020: 4bad 18bd a8ac c0bd ebcf 9ebd dc30 a3bd
00000030: a299 c03b 08b6 923a 87b9 a0bc dda4 58bd
00000040: 65bd d5bc 4f6f d73d c925 97bd 6577 2ebd
00000050: 24c1 f6ba e074 00bd ccb4 2f3e 3a66 9cbd
00000060: 72a8 e53c 8c7e f83b 29c4 c43d 8cf7 e23e
00000070: 4377 563e f68c 0dbe d137 9cbd 66f8 81bd
00000080: 3541 3ebb 80cc 37bd 9e1c 2fbc c62f c03e
00000090: 10f0 9b3a 943a b1bd d544 393d 952d 91bd
000000a0: 82f3 f03c 3bc6 8a3d 16b7 55bd 0444 15be
000000b0: 519c aabd b034 03bd e020 eebe 8703 71bc
000000c0: 111f f83b 29c5 fb3b 07c4 95bd 6ae2 0e3e
000000d0: 7a46 113d 4b35 7bbd 845b 51bd 7045 adbb
000000e0: 5380 92bd 76a3 2a3e 10a0 dbbe 2a2c 51bb
000000f0: 98f0 1bbd 8c78 aabd c8a6 99bc 0161 05bc
00000100: 911d 3bbd afd9 19bd 0323 2abd ed72 dabb
00000110: 755f abbd ddf2 3abd 2b87 a03c 7a13 d13d
00000120: 5cce 3b3c d81b 9abc 676c acbc 2e9c 8c3d
00000130: a1ed a4bd 4a98 203b 2803 023e 89a8 d1bc
00000140: 459a c73c 7024 193e b950 95bd 9351 863d
00000150: a86b 043d 0634 7d3c 0079 72bd 8c5e a8bd
00000160: 9da8 6abd 13c2 91bd 602f 853c b373 29bd
00000170: b2ed 9abe f123 24be e6c3 a5bd 1bf9 8abd
00000180: 0c1e a6bc 0dd0 a139 5eb4 4fbd d837 7f3e
00000190: 8678 debe dc3b 20bd 4fdf db3c df9b a0bd
000001a0: 2915 46bc 9a1d 07be c102 2fbd 6798 7d3e
000001b0: 0789 3dbb b8bb 383c 732d ad3c 14bd 2e3c
000001c0: 3a94 56be 142f 5a3e 70fa 9bbc 1bc6 353e
000001d0: f505 323b b017 cf3d ff57 1cbc 34a3 383d
000001e0: f1c4 f7bd d803 bf3c 3a02 773e 28fb 6bbe
000001f0: 8d47 c83c 0e67 263e d720 a4bd 2a41 1d3d
00000200: 7158 313c 9b6d b1bd 8524 2ebb 5dfc 633e
00000210: 4a68 82bd 1a39 5bbd 5125 81bd 20b8 abbc
00000220: 74bb c6b8 a06d 0cbd 170a 1bb9 4bc8 81bd
00000230: f3e3 5cbd 7e78 a03c 3bdc f73c e8f1 e73e
00000240: d24e 7dbd 6bb0 64bd 2ad1 563d a9ad f8bb
00000250: 6044 c63d 9d5c 8d3c c199 21bd 51bd ca3a
00000260: d31e b33c 6713 44bd fc0a a7bd 75f9 013c
00000270: 5ea1 94bd 4c48 983c a62c 993d 412d 91bc
00000280: b477 18bd 1353 a3bd 4b00 37bd bd70 c43c
00000290: dda4 b0bc 5fd6 45be fe02 e3bc 77cf 793b
000002a0: 78a8 8abc 56d8 b83c e08b eabb ffe8 433c
000002b0: 5e41 de3c 4c60 adbd 08ed d2bb 6402 f73c
000002c0: 4cf2 bf3d 5c1e 53be 922b 153d 1b8a 20be
000002d0: e521 1cbc ad6f 66be 227e 90bd 78b4 85be
000002e0: 4033 4cbd 0be7 2a3c 7546 5cbd 641c b43e
000002f0: ae29 a6bc f103 f4be 1f27 69bd 822f 9e3d
00000300: a37e 073e 563c 233d c659 82bd bbc1 8d3e
00000310: 8cb0 1bbe 0dda c93d 7ee0 9bbd a544 f03d
00000320: 8dc1 8eb9 df1b 8bbd b2b1 6abe 1fb4 713e
00000330: 20f0 ed3d 60e4 17bd eda6 64bd a00e 0b3d
00000340: 27d2 58bd dcdd e63d 6c4b a53b eebc 54bc
00000350: d8f5 41bc 74b7 bf3c 16dc 193e 7de1 953c
00000360: f07f 973e c23c 43bd a422 713d fd20 18bd
00000370: 5c86 bdbc 74c6 223e 5716 79bd a8d1 a53d
00000380: b5fa 6d3c d974 adbc 1019 b6bd 7ef7 8cbd
00000390: 50e4 d1bc 25c6 a1bd a9cc fd3d 376d a6bc
000003a0: b4d7 3abd d581 f53b 42ab 44b9 525d 603e
000003b0: 5fdf b9bb 7669 3fbc 7f12 92bd 8c73 633a
000003c0: 0de2 89bd aaec 4e3d 604c 66bd 6d46 5cbe
000003d0: 3529 4fbd 4ec9 bfbb 89cf 8e3c c75c 59bd
000003e0: ffa1 83bd 7b86 50bd a998 b4bc 3a36 f13b
000003f0: e113 39bd eade 863e 952e 7abe 6b66 d0bc
-0.015850032 -0.05111886 0.0028277903 -0.018493893 -0.08031007 0.23005211 0.0054726065 0.03910006
-0.03727464 -0.094079316 -0.07754501 -0.079683036 0.0058776895 0.0011193166 -0.019619716 -0.0528916
-0.026091287 0.10519277 -0.07380254 -0.042594332 -0.0018825871 -0.03136146 0.17158812 -0.07636686
0.028034423 0.007583445 0.09607727 0.44329488 0.20943932 -0.13823304 -0.07627834 -0.06346206
-0.0029030566 -0.04487276 -0.010687975 0.37536448 0.0011897106 -0.08653751 0.04523166 -0.07088772
0.029412989 0.06776091 -0.052176557 -0.14576727 -0.08330596 -0.03203267 -0.46509457 -0.014710314
0.007572063 0.0076834154 -0.0731278 0.13953558 0.035467602 -0.06133012 -0.051112667 -0.0052878186
-0.07153382 0.16663918 -0.42895555 -0.0031917193 -0.038071245 -0.08323774 -0.018756285 -0.008140803
-0.045682494 -0.037561115 -0.041537296 -0.0066665323 -0.08367816 -0.04564177 0.019595703 0.10208793
0.011462774 -0.018812105 -0.021047784 0.068657264 -0.080531366 0.0024504834 0.12696517 -0.02559306
0.024365554 0.14955306 -0.07290787 0.06558528 0.03232923 0.015454298 -0.059197426 -0.082211584
-0.05728971 -0.07117095 0.016257942 -0.041370105 -0.30259472 -0.16029336 -0.08094005 -0.06785794
-0.020278 0.00030863323 -0.05070912 0.24923646 -0.43451327 -0.039119586 0.02683988 -0.0784223
-0.012090006 -0.13194886 -0.042727236 0.24765168 -0.0028920786 0.011275224 0.021139836 0.010665197
-0.20954981 0.21307021 -0.019040316 0.17751352 0.0027164195 0.1011194 -0.009542464 0.045077518
-0.120981105 0.023317263 0.24121943 -0.23045027 0.02444818 0.1625025 -0.08014076 0.038392223
0.010824309 -0.08663484 -0.002657206 0.22264238 -0.06367548 -0.053521253 -0.06305946 -0.020961821
-9.4762916e-05 -0.034284234 -0.0001478571 -0.06337031 -0.053928327 0.019588705 0.030256381 0.45301747
-0.061842747 -0.055832308 0.05244557 -0.0075890613 0.0968101 0.017256076 -0.03945327 0.0015467798
0.021865284 -0.047870066 -0.08156392 0.00793301 -0.07257341 0.018589161 0.07479219 -0.017721774
-0.037223533 -0.079748295 -0.044678014 0.023979539 -0.021562988 -0.19320057 -0.027711388 0.0038118043
-0.016926035 0.022564095 -0.0071577877 0.011957406 0.027130779 -0.08465633 -0.0064369477 0.030152507
0.09372386 -0.2061705 0.036418505 -0.15677683 -0.009529565 -0.22503538 -0.07055308 -0.2611425
-0.049853563 0.0104310615 -0.05377813 0.3517791 -0.020283546 -0.47659257 -0.056922074 0.07723905
0.13231902 0.039852463 -0.06364779 0.27686867 -0.15204066 0.09856043 -0.07611178 0.11731843
-0.00027228557 -0.06792425 -0.22919348 0.23603867 0.11618066 -0.03708303 -0.055823255 0.033949494
-0.052934792 0.11272785 0.0050443914 -0.0129844975 -0.011838399 0.023402907 0.15025362 0.018295998
0.29589796 -0.047665365 0.058870926 -0.037140835 -0.023135357 0.15896016 -0.06081232 0.080966294
0.014525105 -0.021173881 -0.08891499 -0.06883143 -0.025621563 -0.07899121 0.123925515 -0.02031575
-0.045615867 0.007492284 -0.00018755815 0.21910599 -0.00567238 -0.011682859 -0.07132434 0.00086765806
-0.06732569 0.05051867 -0.05622518 -0.2151124 -0.050576407 -0.005852855 0.017432945 -0.053066995
-0.06427383 -0.0509095 -0.02204545 0.0073612006 -0.045184974 0.26341945 -0.24431832 -0.025439462

net.4.weight f4 [4, 256]
00000000: c8ed 17bd 0f11 883c b3a1 35bc cec1 81bc
00000010: 3de8 81bc 5ea7 1a3e 475e 11bd 8a65 7b3a
00000020: 610e bd3c 01c6 8cbf 24c7 6dbc 1dbd d13c
00000030: fc23 b8bc de13 d43c af4c 4b3d 401f f43d
00000040: 91cd 13bc ac90 9dbe 0355 86bc 4447 62bb
00000050: 3b44 02bc 3956 7abc b787 2d3f d449 b83b
00000060: 7837 af3c 1648 eb3c 7942 33be abd4 f0bd
00000070: c242 8e3b a1c5 0cbf a734 873c 109a b4bc
00000080: 5e56 e3bb b9de 323d 1e7c 343f 9ded fd3e
00000090: 8fc8 2d3c bd7f 263e e46e 513f ec28 a1bc
000000a0: a1b4 38bd 1ab5 9bbf 1b40 073d 6c81 333e
000000b0: 167f f5bb 1b26 0d3f a198 a9be 766d 0c3b
000000c0: 0725 f1be c499 3bbe b7f5 913c 5bce fabe
000000d0: e047 143d 4bd3 7e3c efee 073d f375 33bd
000000e0: f14b 4ebc 7380 ea3f 68bf 883e de46 053d
000000f0: b0af 9b3c bba8 053c 00f5 903c 1181 57bf
00000100: cfd9 31bd dfcd b73c 7dbf 183c f00e d7bc
00000110: 3c1c cb3e acc9 c23b 2b72 663d 9476 213f
00000120: ca21 3a3c a6d5 883a 39c0 1abd 13e8 1ebd
00000130: 002a cf3c 88ce b4bc fc65 b6be e7a5 3b3d
00000140: b61e 933c 12aa 833f 1937 bdbb 09f1 19bf
00000150: d58a 31bd 402d 8ebe c2ae d4bb 791f 9dbe
00000160: bb7d cb3b b992 90bc af84 8fbe 14e3 833b
00000170: 391f ba3d e8d9 da3d 21f3 963c b269 f23c
00000180: dc89 973e af29 90bc 80e8 e739 3b84 8fbe
00000190: 9b61 873f f52c 223d 0b75 2f3f 01c3 7b3c
000001a0: 0135 263d bfaf 373f 4e48 363d adb7 d3be
000001b0: d156 433c eaae a4bc 74c9 f8b9 3ac7 f7bc
000001c0: 281f eebe a11b e5bd defc 913e f756 213f
000001d0: b78a 9ebc a979 4b3f 644f a2bc 383b 563e
000001e0: c166 04bd ed9c 2abf b345 263f 772c 943f
000001f0: 7283 5bbf c11c 96bc 9b7a fd3c 3f29 543c
00000200: b88a be39 ed5c de3c 7434 a13e 9566 c03d
00000210: f9ee 363c f22a 9bbc 4182 143c 172e b2bb
00000220: 2bea 09bc cdd2 833e 684e 3b3c 2abc 703d
00000230: 07a4 e6bc 3ec5 2dbc c94c 5cbc caee 6d3a
00000240: b240 d0bb 3496 48bb 5ba2 27be fe3f a4bb
00000250: 9abe 4e3f c613 623c a5bb c9bc 1ec1 f6bc
00000260: 6bfd 6f3e 95c6 60bd 4651 bb3e 906f 4bbc
00000270: 490e 523d cec9 d2bb d67a f1be daee 06bd
00000280: 3f07 083c 45a7 bbbc 4ba8 5fbb b39f fc3c
00000290: 6a5d 4dbd d7ee 073d 1272 09bd 815c 4c3d
000002a0: 3b83 10bc 7b4a b03b afb6 8fbc 5420 d7bc
000002b0: e8ad 033d d999 05bd dde7 b13c 91db 79bc
000002c0: bfb0 6cbf 2e28 27be 9093 a43c bd95 06bf
000002d0: 7313 863c 7ea7 b2bf 5cce 04bd 3879 94be
000002e0: 83e0 273d 60e2 eeb9 7947 fcbc f2d8 e63e
000002f0: 830c ebbe ee16 453c 22fd c1be 48fb c4be
00000300: cab9 7bbe 3166 ab3c 56bb b3bc d94d 5e3e
00000310: 7633 913e bcbc 053f 57e0 6dbc ca4a ce3b
00000320: 6aff 643c e833 083d 88bb 213e 3b09 07bf
00000330: adbf 8dbe 1324 cb3c 81d1 92bc 94e3 f53c
00000340: 2259 61bc 96cf 413e 2bfc fd3c fe38 1c3c
00000350: 3006 b23c 7348 6e3e 25d7 313f 0853 573b
00000360: 1388 96bf 8f43 13bb 2431 2c3f 12e7 4bbc
00000370: 22bc fcbb bce1 78bd 17ac 17bc d4c8 18be
00000380: 4f1a cabe f1ab edbc 18e4 07bb 03e7 debc
00000390: e523 3a3d f84e b23b cd57 30bf 8908 e93c
000003a0: 132e 32bd c712 8d3c 70eb 973b 8659 21bf
000003b0: bccc ddbb b6d7 2d3d fdd6 cc3c 352b 373c
000003c0: db77 c83b 6a6c 22be 7fbe c03c e2ec e3bc
000003d0: 614e 8b3c 502b 48bb b877 973a 9dfd e5bc
000003e0: 3be3 9c3c 7e51 a0bc 5acf 333a b124 ba3e
000003f0: f5d3 f53c 771b 513e 88c4 1a3e 6dea 3dbc
-0.037092 0.016609697 -0.011085915 -0.015839484 -0.01585781 0.15102908 -0.0354903 0.00095900206
0.023078145 -1.0997926 -0.014512811 0.025602872 -0.022478096 0.02588838 0.049633678 0.11920023
-0.009021179 -0.30774438 -0.016397959 -0.003452734 -0.007950838 -0.015279346 0.6778521 0.0056240354
0.021388754 0.028720897 -0.17505826 -0.11759313 0.0043414542 -0.5498906 0.016504599 -0.022046119
-0.006937786 0.043669436 0.7050189 0.49595347 0.010606899 0.16259666 0.8180983 -0.019672833
-0.045094136 -1.2164643 0.03302012 0.1752984 -0.0074919565 0.5513627 -0.3312426 0.0021427548
-0.47098562 -0.18320376 0.017817361 -0.48985562 0.036201358 0.015553306 0.03318685 -0.043813657
-0.012591348 1.832045 0.2670853 0.032538287 0.019004673 0.008157904 0.01769495 -0.84181315
-0.04342061 0.022437034 0.009322998 -0.02625224 0.3966998 0.0059444513 0.056261223 0.6307156
0.011360595 0.0010439649 -0.037780974 -0.038795542 0.025288582 -0.022071138 -0.35624683 0.045812514
0.01795898 1.0286276 -0.0057743904 -0.60133415 -0.04334529 -0.27768898 -0.0064905593 -0.30688074
0.0062100566 -0.017648088 -0.28030917 0.0040248726 0.090879865 0.106860936 0.01842648 0.029591415
0.29597366 -0.017598001 0.0004423298 -0.2803057 1.0576662 0.039593656 0.6853797 0.015366317
0.040577892 0.7175254 0.04450255 -0.4135107 0.011922554 -0.020102937 -0.0004745234 -0.030246366
-0.46508145 -0.111869104 0.28513235 0.6302332 -0.019353254 0.79482514 -0.019813247 0.20921028
-0.032324556 -0.666457 0.649501 1.157607 -0.85747445 -0.018324258 0.030942252 0.012949287
0.00036342978 0.02714392 0.3148533 0.09394566 0.011165374 -0.018941376 0.009064258 -0.0054376232
-0.008417646 0.25746766 0.011432268 0.058773197 -0.028154386 -0.010606108 -0.013446041 0.0009076415
-0.0063553685 -0.0030607106 -0.16370527 -0.0050125113 0.80759585 0.01379866 -0.024625609 -0.030121382
0.23436515 -0.054876883 0.36585444 -0.012416735 0.051283155 -0.0064327484 -0.4716403 -0.03294263
0.008302509 -0.022906909 -0.003412741 0.03083787 -0.050137915 0.03318676 -0.03355605 0.049892906
-0.00882035 0.0053799725 -0.017543165 -0.026260532 0.03214827 -0.032617424 0.021717006 -0.015250103
-0.92457193 -0.16323921 0.020089895 -0.5257223 0.016366696 -1.3957365 -0.032423362 -0.28998733
0.040985595 -0.0004556356 -0.0307958 0.4508739 -0.45907983 0.012029393 -0.37888438 -0.38472962
-0.24582592 0.020922752 -0.021939915 0.21709384 0.28359574 0.5224111 -0.014518819 0.0062955366
0.013976911 0.033252627 0.15794194 -0.5274846 -0.276853 0.024797475 -0.017922165 0.030015744
-0.013754161 0.18926844 0.031004032 0.009535072 0.021731466 0.23269825 0.6946891 0.0032855887
-1.1760277 -0.0022470688 0.6726248 -0.012445228 -0.007712857 -0.060762152 -0.009257338 -0.1492036
-0.39473197 -0.029012652 -0.002073532 -0.027209764 0.045444388 0.0054415427 -0.68883973 0.028446453
-0.04350097 0.017220868 0.0046362206 -0.63027227 -0.006768791 0.042442046 0.025004858 0.011179735
0.0061178035 -0.15861669 0.023528336 -0.027822915 0.017005147 -0.0030543394 0.0011556065 -0.028075034
0.01915132 -0.019570109 0.0006859206 0.36356118 0.030008296 0.20420633 0.15114033 -0.011591536

net.4.bias f4 [4]
00000000: 3a69 4dbe 6665 803d ad5a 6cbf d49f 74bf
-0.20059672 0.0626934 -0.9232586 -0.9555638
