tau_data/seed0/SAC_STL_critic_600000.pth (torch, 549013 bytes, 10 tensors)

net1.0.weight f4 [256, 7]
0.12452102 0.13489132 -0.07018868 -0.4733476 -0.5316432 0.29927117 0.20675437 -0.24755791
-0.28659508 0.17053622 -0.25388736 -0.3263878 -0.037212815 0.015260531 0.022006104 0.013667914
-0.15416215 0.25810513 0.27695453 -0.054077834 0.043803975 0.4012797 -0.28432664 0.07866336
0.0045680813 -0.6203268 0.0804592 0.09707463 -0.060571887 -0.28407216 0.3393501 -0.77646345
-0.26781514 0.08765998 -0.005684134 0.338933 -0.3305326 0.22498815 -0.22608465 0.2640892
0.14085484 0.047718 0.31016976 -0.27765736 0.275586 -0.3727915 0.45425957 0.04590879
-0.038364228 -0.072862305 -0.3169435 -0.35378063 -0.71367455 -0.14208847 -0.10109181 -0.11793288
-0.10446883 0.10002329 -0.27231017 0.75755614 -0.60009813 0.29483104 0.1576772 -0.16180177
-0.06976912 0.27652472 -0.49536836 -0.943635 0.007332277 -0.0058314693 0.40614033 -0.26554877
-0.3478127 0.12132273 0.27115995 0.24904281 -0.021443704 0.20312256 -0.12362198 -0.39017433
0.51452273 -0.15290052 0.06342508 0.005018344 0.22998723 -0.35402083 0.2188512 1.1326698
-0.20069954 0.0024579684 0.04714524 -0.05497507 -0.002451955 -0.21466276 0.8648772 1.6990758
-0.018209957 -0.058165867 0.36080733 -0.23912232 -0.028958084 0.20792659 0.87037605 -0.056589484
0.007566888 0.26263222 0.020725513 0.05583645 0.3078887 -1.4313792 0.039001618 -0.10698347
-0.09823603 0.12636943 0.22361515 -0.34513482 -1.0817758 -0.092571974 0.012306721 -0.1754975
0.12599505 -0.42608672 0.24727847 -0.2062506 0.08037331 -0.0382704 -0.4082782 0.29196146
-0.42192912 -0.19835481 0.5500715 -0.05465377 -0.10154248 -0.066758096 -0.2625638 0.40178642
-0.45093188 0.8998414 0.023098834 0.11894991 -0.24820517 0.056698583 -0.18726622 -0.1702492
-0.93089485 0.056002595 -0.09228264 0.22166061 -0.13675578 -0.19078372 -1.015104 0.15737899
0.061143972 -0.046847455 -0.31716606 0.16136956 0.40215126 0.69118065 0.19896671 0.060685154
-0.030758305 0.2378061 0.1460779 -0.06926974 -1.0537419 0.52767175 -0.025002407 0.06697364
-0.5368997 -0.27646908 -0.2698895 -0.117561996 0.54902375 -0.013343708 -0.03044149 -0.3271209
-0.30351716 0.5697478 -0.6446408 0.1309289 -0.080638565 0.15695891 -0.53814965 0.61978555
-0.010091531 -0.23001438 0.8128553 0.06824877 -0.07338665 -0.03241842 0.22017261 -0.14697234
0.6329186 0.80260897 0.09712362 0.06339523 0.044389974 -1.22085 0.25239345 -0.16783439
0.15620367 -0.04379015 0.13543509 0.01908254 0.005639473 -0.12281401 0.22705229 0.09936192
0.09730601 -0.026610373 -0.07670634 -0.26872897 0.11581678 -0.35418195 -0.33283618 -0.203847
0.28814414 0.09097298 0.22890794 -0.062097613 -0.6542359 -0.09108825 0.3582306 0.017387861
0.075777404 0.45242015 -0.58499795 -0.2750038 -0.34012884 0.044281363 -0.12276924 -0.31551144
-0.28529465 0.1085263 -1.3086724 -0.28452218 0.047041602 0.014261045 -0.7094578 -0.48225662
-0.26052764 0.2954604 0.106424905 0.07318857 0.27065137 -0.099866495 -0.028276764 0.017271621
0.34586576 -0.77000123 -0.2710754 0.0215385 0.09406679 -0.59943986 -0.2808744 -1.4936634
00000000: e004 ff3d f320 0a3e 15bf 8fbd 9e5a f2be
00000010: c519 08bf 123a 993e 6bb7 533e d27f 7dbe
00000020: 97bc 92be 0ca1 2e3e 86fd 81be 4d1c a7be
00000030: 776c 18bd 4e07 7a3c 2546 b43c 63ef 5f3c
00000040: afdc 1dbe 5b26 843e fccc 8d3e b880 5dbd
00000050: cc6b 333d 8874 cd3e 4393 91be 411a a13d
00000060: d8af 953b bdcd 1ebf cbc7 a43d 10cf c63d
00000070: 3a1a 78bd e871 91be 4cbf ad3e 4fc6 46bf
00000080: 111f 89be 1387 b33d f941 babb a088 ad3e
00000090: 923b a9be 4b63 663e bc82 67be b336 873e
000000a0: 403c 103e f373 433d 92ce 9e3e 1b29 8ebe
000000b0: 9c19 8d3e 87de bebe b694 e83e db0a 3c3d
000000c0: cf23 1dbd d538 95bd 6b46 a2be bc22 b5be
000000d0: 60b3 36bf a47f 11be 3909 cfbd cb86 f1bd
000000e0: c1f3 d5bd 03d9 cc3d 3d6c 8bbe 33ef 413f
000000f0: 08a0 19bf 18f4 963e 2276 213e 5daf 25be
00000100: 1de3 8ebd a694 8d3e eca0 fdbe 1092 71bf
00000110: 9943 f03b e915 bfbb a0f1 cf3e 02f6 87be
00000120: 8214 b2be 0d78 f83d 7ad5 8a3e 1405 7f3e
00000130: b5aa afbc 5cff 4f3e 852d fdbd eec4 c7be
00000140: c3b7 033f f491 1cbe 02e5 813d ec70 a43b
00000150: c681 6b3e 3842 b5be 871a 603e 53fb 903f
00000160: 2e84 4dbe de15 213b 5e1b 413d 8a2d 61bd
00000170: fbb0 20bb 8ed0 5bbe 9868 5d3f 517b d93f
00000180: 0c2d 95bc 553f 6ebd bdbb b83e 7bdc 74be
00000190: 8139 edbc b5ea 543e f7d0 5e3f 60ca 67bd
000001a0: a8f3 f73b bb77 863e 8dc8 a93c c3b4 643d
000001b0: 96a3 9d3e 6f37 b7bf 29c0 1f3d 261a dbbd
000001c0: f92f c9bd fd66 013e 5ffb 643e 83b5 b0be
000001d0: a177 8abf 6096 bdbd 21a2 493c 9eb5 33be
000001e0: d904 013e 0a28 dabe 9136 7d3e 5b33 53be
000001f0: c39a a43d 6cc1 1cbd d709 d1be f97b 953e
00000200: 1807 d8be 861d 4bbe 7cd1 0c3f a2dc 5fbd
00000210: 81f5 cfbd 78b8 88bd c36e 86be f3b6 cd3e
00000220: 8be0 e6be 025c 663f c439 bd3c 039c f33d
00000230: 7f29 7ebe c63c 683d b7c2 3fbe ce55 2ebe
00000240: 204f 6ebf fa62 653d aefe bcbd 00fb 623e
00000250: b509 0cbe cf5c 43be eeee 81bf f527 213e
00000260: 1a72 7a3d 1ee3 3fbd 9763 a2be 103e 253e
00000270: c5e6 cd3e 37f1 303f eebd 4b3e ff90 783d
00000280: d7f8 fbbc 7183 733e 7295 153e 4bdd 8dbd
00000290: 04e1 86bf 7f15 073f d9d1 ccbc 7a29 893d
000002a0: 4272 09bf 5b8d 8dbe f52e 8abe 58c4 f0bd
000002b0: d28c 0c3f 919f 5abc 6e60 f9bc 647c a7be
000002c0: 9a66 9bbe feda 113f 2e07 25bf 3a12 063e
000002d0: d525 a5bd d6b9 203e 2dc4 09bf 44aa 1e3f
000002e0: f356 25bc e488 6bbe 4917 503f 03c6 8b3d
000002f0: bd4b 96bd 2dc9 04bd ee74 613e eb7f 16be
00000300: f406 223f c877 4d3f c0e8 c63d 5cd5 813d
00000310: 43d2 353d d044 9cbf b739 813e c7dc 2bbe
00000320: dbf3 1f3e 4d5d 33bd 7faf 0a3e fd52 9c3c
00000330: 54cb b83b e985 fbbd 6580 683e 437e cb3d
00000340: 6048 c73d fffd d9bc 3718 9dbd d896 89be
00000350: 5931 ed3d 5657 b5be 8169 aabe 45bd 50be
00000360: a187 933e 0b50 ba3d d866 6a3e 115a 7ebd
00000370: 017c 27bf 7a8c babd 006a b73e fd70 8e3c
00000380: 2f31 9b3d 9da3 e73e 6dc2 15bf 4ccd 8cbe
00000390: 5e25 aebe 6060 353d 706e fbbd b78a a1be
000003a0: 2412 92be 0943 de3d 9482 a7bf e4ac 91be
000003b0: b2ae 403d 28a7 693c 079f 35bf 57ea f6be
000003c0: e163 85be 9646 973e 4df5 d93d e4e3 953d
000003d0: d192 8a3e ce86 ccbd aca4 e7bc 377d 8d3c
000003e0: 5115 b13e cd1e 45bf 65ca 8abe 8271 b03c
000003f0: 17a6 c03d e474 19bf c5ce 8fbe 5d30 bfbf

net1.0.bias f4 [256]
0.024505531 0.55747366 0.048230737 -0.47452828 0.31076935 -0.10024531 -0.2827806 0.5399422
-0.90534407 0.6752343 0.021804366 0.42116016 -0.4150096 0.19316848 -0.310106 -0.4238266
-0.44346884 0.6219555 -0.5170769 -0.6223393 0.5891799 0.06243876 -0.14572996 -0.36799762
-0.73281366 0.12904586 -0.3791271 -0.645877 -0.5957198 0.31865788 0.0880099 -0.5577341
-0.118493326 0.065926075 0.22059345 0.4675145 0.17303954 0.2642961 -0.27287772 0.8670436
0.6207311 -0.44243136 -0.2717657 -0.0022135607 -0.45629954 -0.8101572 -0.073069625 -0.78679156
0.7114554 0.1468554 0.5934432 -0.5685171 0.4994339 -0.39279193 0.46086022 0.34450495
-0.068098 0.29426432 -0.17011467 0.10340371 -0.32392782 0.60920775 0.8841951 -0.46587655
-0.61953264 0.29076236 -0.8107424 0.7386625 -0.2950576 0.3218619 0.30584824 0.51589507
-0.64711934 -0.34721005 -0.021597534 -0.17723344 0.6868191 0.38956115 0.34165484 0.38124746
-0.42548466 -0.60463583 0.53706884 -0.16864522 -0.5574224 0.24783637 0.5886657 -0.21101584
0.680383 0.4007925 -0.021151317 0.22030014 -1.0542296 -0.36995518 1.024847 0.8423226
0.114933304 0.55449694 0.47708145 -0.45316437 0.15128681 -0.5649409 0.13232648 0.5330168
0.25470793 -1.1266755 0.31068826 -0.70871145 0.03953631 0.81658024 -0.3986099 0.6207827
-0.67936915 -0.70512486 0.044069473 -0.2023456 -0.45606324 0.29953644 0.5068764 0.44564307
-0.95798355 0.0741467 -0.35482588 0.5593546 0.31613618 -0.6262917 0.5874895 0.6286343
0.49438328 0.2998155 -0.209206 -0.49464306 -0.67267936 -0.6358365 0.2572631 0.27736974
0.51198226 0.49383104 -0.23353647 0.7228847 -0.6984291 0.72526294 0.5503532 -0.663279
0.3590394 -0.39110085 -0.712252 -0.7981354 -0.3606657 0.45553327 0.41854405 -0.15610747
0.3499725 -0.7854246 0.5395396 -0.9065103 0.6541621 -0.46970147 0.22266406 -0.4173712
-0.9732512 0.5401884 0.007111079 -0.42015874 0.46711028 -0.06220273 0.4623371 0.5466131
-0.39076114 0.75187343 0.28319913 -1.0028718 0.04044437 -0.008854782 -0.48859754 -0.6303629
-0.25091016 -0.3034281 -0.63181496 0.47404563 0.52637863 -0.41972214 -1.1913981 0.269934
0.14377107 0.5830412 -0.54353464 -0.6313983 0.5112799 0.3786244 -0.75626475 -0.10882078
0.12949885 0.89366704 -0.30072632 0.3924406 0.49632737 -0.20780623 -0.30595207 0.22627898
-0.16642371 -0.28322193 0.035105117 0.8375852 0.72340024 -0.2214256 0.17852986 0.9565507
-0.03380507 -0.8068683 0.10089153 0.3787084 0.6618065 -0.7301156 -0.6309412 -0.15150921
0.66973984 0.69375366 0.4171826 -0.38197586 0.33648503 -0.7065461 0.25821173 0.32846504
-0.30483097 0.38578618 -0.079922065 0.3734333 0.27073732 0.28110898 0.5587007 -0.8041569
-0.24742101 0.36983898 -0.47222158 0.07006403 -0.5266517 0.4160939 0.27155405 -0.5085809
-1.0141608 0.18501425 -0.4655679 0.21778888 0.29763955 0.4569504 -1.0969834 -0.76427996
0.36995658 0.28521442 -0.13470848 -0.30471474 -0.5685444 0.09947051 0.7090769 0.3047994
00000000: d3bf c83c 98b6 0e3f 988d 453d 5ff5 f2be
00000010: 291d 9f3e 6a4d cdbd 9ec8 90be a739 0a3f
00000020: a1c4 67bf 28dc 2c3f 129f b23c 4ea2 d73e
00000030: 237c d4be f5cd 453e 37c6 9ebe cdff d8be
00000040: 590e e3be 7a38 1f3f 275f 04bf a151 1fbf
00000050: 7ed4 163f c9bf 7f3d 3c3a 15be 2f6a bcbe
00000060: ad99 3bbf 9924 043e f21c c2be 3258 25bf
00000070: 1881 18bf 2027 a33e 893e b43d a9c7 0ebf
00000080: a1ac f2bd 4004 873d 40e3 613e 0f5e ef3e
00000090: 4731 313e d251 873e a1b6 8bbe 92f6 5d3f
000000a0: 3ce8 1e3f 5d86 e2be e024 8bbe 6311 11bb
000000b0: 18a0 e9be 7666 4fbf 87a5 95bd 2c6b 49bf
000000c0: f121 363f 4361 163e e5eb 173f 568a 11bf
000000d0: cdb5 ff3e 061c c9be dff5 eb3e f462 b03e
000000e0: f776 8bbd d0a9 963e 8a32 2ebe 53c5 d33d
000000f0: ded9 a5be 0af5 1b3f 9c5a 623f 5f87 eebe
00000100: b199 1ebf cede 943e d08c 4fbf fc18 3d3f
00000110: ca11 97be 15cb a43e 2498 9c3e b311 043f
00000120: 9da9 25bf 84c5 b1be 50ed b0bc af7c 35be
00000130: 60d3 2f3f 8f74 c73e 62ed ae3e de32 c33e
00000140: 20d9 d9be 6ac9 1abf 587d 093f 55b1 2cbe
00000150: 3cb3 0ebf d1c8 7d3e ccb2 163f 8914 58be
00000160: 952d 2e3f ad34 cd3e 8745 adbc 5c96 613e
00000170: fff0 86bf c46a bdbe 302e 833f 74a2 573f
00000180: 2762 eb3d 83f3 0d3f 0544 f43e 2905 e8be
00000190: eeea 1a3e f89f 10bf 9880 073e ca73 083f
000001a0: 1469 823e e736 90bf 8812 9f3e 1d6e 35bf
000001b0: d3f0 213d 670b 513f 9916 ccbe 9deb 1e3f
000001c0: 23eb 2dbf 1083 34bf 3182 343d af33 4fbe
000001d0: 1f81 e9be d75c 993e a7c2 013f 542b e43e
000001e0: 693e 75bf 3ada 973d bdab b5be dd31 0f3f
000001f0: 9adc a13e a754 20bf b665 163f 2dee 203f
00000200: ce1f fd3e 6b81 993e 193a 56be db41 fdbe
00000210: b734 2cbf 2ec6 22bf fdb7 833e 6803 8e3e
00000220: 4511 033f 6cd7 fc3e 2f24 6fbe f90e 393f
00000230: 40cc 32bf d5aa 393f f3e3 0c3f a7cc 29bf
00000240: 03d4 b73e 5f3e c8be 2656 36bf 9a52 4cbf
00000250: 2da9 b8be a83b e93e 684b d63e a3da 1fbe
00000260: 982f b33e 9611 49bf 441f 0a3f 0f11 68bf
00000270: 2b77 273f b67c f0be 0c02 643e aeb1 d5be
00000280: fe26 79bf c949 0a3f 0e04 e93b 0c1f d7be
00000290: 1429 ef3e 4ac8 7ebd 73b7 ec3e d6ee 0b3f
000002a0: d811 c8be c77a 403f 7aff 903e 1a5e 80bf
000002b0: ffa8 253d a613 11bc 7529 fabe 775f 21bf
000002c0: 4c77 80be ee5a 9bbe a0be 21bf 1cb6 f23e
000002d0: c0c0 063f d2e5 d6be bc7f 98bf ca34 8a3e
000002e0: b938 133e 3042 153f 1625 0bbf 52a3 21bf
000002f0: 3de3 023f 0fdb c13e 919a 41bf 6edd debd
00000300: 599b 043e 5dc7 643f cdf8 99be f9ed c83e
00000310: 9f1e fe3e 28cb 54be c0a5 9cbe adb5 673e
00000320: fa6a 2abe 7702 91be 62ca 0f3d fc6b 563f
00000330: c230 393f 64bd 62be 88d0 363e 82e0 743f
00000340: 2f77 0abd ec8e 4ebf 38a0 ce3d 11e6 c13e
00000350: 276c 293f dbe8 3abf 5d85 21bf 3b25 1bbe
00000360: 1274 2b3f d799 313f f598 d53e 5792 c3be
00000370: c447 ac3e 35e0 34bf 5434 843e 922c a83e
00000380: ce12 9cbe c485 c53e 2eae a3bd a632 bf3e
00000390: 159e 8a3e 84ed 8f3e 0207 0f3f 3add 4dbf
000003a0: ef5b 7dbe 895b bd3e 07c7 f1be bb7d 8f3d
000003b0: a5d2 06bf 420a d53e 2209 8b3e 5c32 02bf
000003c0: 05d0 81bf 6074 3d3e ea5e eebe 0c04 5f3e
000003d0: 3664 983e 67f5 e93e f469 8cbf daa7 43bf
000003e0: f36a bd3e a007 923e 05f1 09be 9203 9cbe
000003f0: 208c 11bf 32b7 cb3d 1086 353f ab0e 9c3e

net1.2.weight f4 [256, 256]
-0.6174439 0.019708572 0.23571229 0.14871134 0.089789644 0.14222482 0.18314703 -0.43844333
0.057911236 -0.027597336 0.06831193 -0.06325771 0.31191698 -0.2557171 0.41027704 0.29624107
-0.19132309 0.14161064 0.15039144 0.12124373 -0.1436647 -0.001130858 0.2431217 -0.2318412
0.02446642 -0.003194784 0.13956614 0.3306478 0.08518894 -0.12867233 0.062212236 -0.7494907
0.3262422 -0.22706138 0.08641918 -0.014252261 -0.05287463 -0.053857688 0.053632252 0.08976776
-0.035912868 -0.055898435 -0.17999652 0.11704805 0.10540969 -0.1764776 -0.07698425 0.1173286
-0.14363632 0.17171256 -0.367394 0.17598268 -0.18548422 0.21568826 -0.31092066 0.040906347
-0.08485891 0.0017291094 -0.080873884 -0.28912407 0.24190284 -0.25350574 -0.20015095 0.19728799
-0.10079326 0.042723376 -0.06842277 0.17981327 0.36370608 0.13909693 -0.27829263 0.012005968
0.10551116 0.24024941 -0.06884918 0.3472525 0.10942827 0.057276744 0.18080673 0.2351988
-0.05492599 0.12314651 0.058687575 0.15542544 0.32872942 -0.20141393 0.10167575 0.13024937
-0.20576592 -0.16430408 -0.35116586 0.4661995 0.1252254 -0.044027053 0.062477857 -0.0072745048
-0.08673912 0.052525602 -0.048896406 -0.41273898 -0.2461602 -0.039240718 -0.12585908 0.26269445
-0.30670056 -1.433029 0.032427456 0.3284154 -0.24891777 0.05766905 0.1038169 -0.6620717
-0.3087927 -0.27803728 0.10113828 0.25637895 0.045203462 0.14670223 -0.50091994 0.15512355
-0.18340471 0.113731325 -0.46177754 -0.44437698 -0.42962822 0.11413044 -0.06915356 -0.42961854
0.07907891 0.14589666 0.050125048 -0.029716568 -0.07601764 -0.6003135 -0.016524069 -0.0074604866
-0.1217973 0.13357794 0.15788451 -0.13937743 0.057781104 -0.29707545 -0.040629704 0.19111921
0.061289363 0.055211533 0.116657056 -0.034298822 -0.07699842 0.024194151 -0.3478525 -0.28693396
-0.3775018 -0.16385706 -0.3225549 0.30389252 -0.07743744 0.5914758 0.19494098 0.06793243
-0.11043797 -0.39030266 0.20960045 -0.025529705 -0.2087324 0.16826859 0.08288909 -0.31107834
0.20955639 -0.058137313 0.15900844 -0.2676987 0.07528233 0.10501642 -0.020938877 0.048077032
0.31597236 -0.32721317 -0.18492942 -0.881011 0.07764086 0.26224777 0.008003694 0.023737265
-0.1038782 -0.20785342 0.05728503 0.28579065 -0.1658511 0.24392599 0.1748268 0.12651767
-0.18644762 0.05996933 0.16888642 -0.12620828 -0.24696077 0.4579149 0.2454896 0.119092464
0.47601032 0.26350522 0.092117324 -0.07698572 -0.2300733 0.3092152 -0.22731785 -0.003739596
-0.0776262 -0.49145252 0.08279793 -0.2669558 0.2243903 0.19796722 0.052433725 0.16688776
0.13225478 0.38191068 0.17907631 0.17536125 0.15211348 0.23417702 0.077237435 0.040006604
-0.76415837 0.06657123 -0.35628784 -0.0547716 0.06573322 0.14007935 -0.40941477 -0.000619901
-0.49612397 0.32248437 0.49351203 0.22780393 0.027152967 0.058879066 -0.10368614 0.3688133
-0.27040917 -0.030130684 0.043853857 -0.18511657 -0.13024144 0.2006062 -0.41697374 -0.14459883
-0.0362655 0.0015761321 0.064298555 -0.44535813 0.25183782 -0.31756428 -0.41037977 -0.10833507
00000000: ce10 1ebf df73 a13c 905e 713e c947 183e
00000010: a2e3 b73d 62a3 113e e58a 3b3e a57b e0be
00000020: 5534 6d3d cf13 e2bc 20e7 8b3d 428d 81bd
00000030: 95b3 9f3e 5aed 82be d50f d23e e9ac 973e
00000040: 33ea 43be 6102 113e 3700 1a3e a24e f83d
00000050: d71c 13be 4c39 94ba e5f4 783e c867 6dbe
00000060: cd6d c83c 955f 51bb 6dea 0e3e ab4a a93e
00000070: 8a77 ae3d aec2 03be 42d2 7e3d 9fde 3fbf
00000080: 3809 a73e c782 68be 8afc b03d 5182 69bc
00000090: 1193 58bd e199 5cbd 7ead 5b3d 29d8 b73d
000000a0: 5f19 13bd c2f5 64bd 0251 38be e3b6 ef3d
000000b0: 09e1 d73d 8bb6 34be eba9 9dbd fa49 f03d
000000c0: 6615 13be 6bd5 2f3e 111b bcbe ce34 343e
000000d0: 93ef 3dbe 62dd 5c3e fe30 9fbe 6a8d 273d
000000e0: 82ca adbd 49a3 e23a 35a1 a5bd 1208 94be
000000f0: 61b5 773e 81cb 81be 5ff4 4cbe dd05 4a3e
00000100: b26c cebd b5fe 2e3d 3d21 8cbd f820 383e
00000110: af37 ba3e 6d6f 0e3e 5f7c 8ebe aeb4 443c
00000120: 3c16 d83d f103 763e cd00 8dbd 14cb b13e
00000130: ee1b e03d 059b 6a3d 6625 393e f4d7 703e
00000140: 13fa 60bd 3d34 fc3d 6262 703d d927 1f3e
00000150: 394f a83e 743f 4ebe 603b d03d 1760 053e
00000160: 4db4 52be 543f 28be 03cc b3be b3b1 ee3e
00000170: 163b 003e b655 34bd c8e8 7f3d f85e eebb
00000180: 48a4 b1bd 1625 573d 9947 48bd 8652 d3be
00000190: 6b11 7cbe e0ba 20bd 34e1 00be e37f 863e
000001a0: db07 9dbe 7f6d b7bf a7d2 043d 1026 a83e
000001b0: 4de4 7ebe 6236 6c3d f49d d43d 887d 29bf
000001c0: 141a 9ebe e75a 8ebe 9621 cf3d 1a44 833e
000001d0: 4427 393d 1c39 163e 4a3c 00bf b5d8 1e3e
000001e0: 72ce 3bbe f8eb e83d 1b6e ecbe 6185 e3be
000001f0: 3bf8 dbbe 38bd e93d 62a0 8dbd f6f6 dbbe
00000200: 20f4 a13d ef65 153e ec4f 4d3d 2970 f3bc
00000210: 23af 9bbd 25ae 19bf 7c5d 87bc 1977 f4bb
00000220: dd70 f9bd a8c8 083e 7aac 213e f5b8 0ebe
00000230: e1ab 6c3d 461a 98be 556b 26bd c1b4 433e
00000240: 8e0a 7b3d 7d25 623d e5e9 ee3d ec7c 0cbd
00000250: 59b1 9dbd d032 c63c b919 b2be 02e9 92be
00000260: ea47 c1be 25ca 27be ea25 a5be cd97 9b3e
00000270: 8597 9ebd f56a 173f 9c9e 473e 2820 8b3d
00000280: 4d2d e2bd c0d5 c7be 80a1 563e ac23 d1bc
00000290: f2bd 55be 9a4e 2c3e c1c1 a93d a945 9fbe
000002a0: f395 563e 6421 6ebd 1cd3 223e ce0f 89be
000002b0: 9f2d 9a3d d912 d73d 0288 abbc 6cec 443d
000002c0: 21c7 a13e 7c88 a7be 235e 3dbe f089 61bf
000002d0: 2c02 9f3d 5745 863e ed21 033c a774 c23c
000002e0: 18be d4bd 87d7 54be b5a3 6a3d 2753 923e
000002f0: dfd4 29be bcc7 793e cc05 333e d98d 013e
00000300: 20ec 3ebe 66a2 753d 90f0 2c3e be3c 01be
00000310: 49e3 7cbe d273 ea3e a061 7b3e c0e6 f33d
00000320: a0b7 f33e 28ea 863e 02a8 bc3d b0aa 9dbd
00000330: 5698 6bbe 7451 9e3e 03c6 68be 0314 75bb
00000340: 7cfa 9ebd aa9f fbbe f691 a93d 6eae 88be
00000350: 92c6 653e ebb7 4a3e bfc4 563d a0e4 2a3e
00000360: cc6d 073e cc89 c33e c85f 373e e691 333e
00000370: a3c3 1b3e 1acc 6f3e a92e 9e3d f7dd 233d
00000380: e29f 43bf 7f56 883d 5c6b b6be 2f58 60bd
00000390: 239f 863d f670 0f3e d09e d1be da80 22ba
000003a0: f603 febe ac1c a53e 9cad fc3e 6f45 693e
000003b0: e66f de3c 2d2b 713d 6659 d4bd 19d5 bc3e
000003c0: 1273 8abe a0d4 f6bc 1aa0 333d 338f 3dbe
000003d0: 035e 05be b66b 4d3e 957d d5be b711 14be
000003e0: 228b 14bd 3896 ce3a f6ae 833d fb05 e4be
000003f0: e3f0 803e c997 a2be 4c1d d2be c7de ddbd

net1.2.bias f4 [256]
-0.19546887 -0.3246935 0.28534216 -0.05484569 -0.0634739 -0.075775385 -0.041494433 0.07942818
0.019941056 0.00014268217 -0.25003764 -0.45170057 -0.048888993 -0.06498459 0.30149627 0.03541801
0.035710778 0.039831985 -0.013088313 -0.05209786 -0.9068985 -0.0016559106 0.012063137 0.1343808
-0.014765844 0.3445945 -0.051621016 0.028370306 -0.28769493 -0.00029803495 -0.06198425 -0.03625088
0.35271358 0.041491617 -0.11200384 -0.18539965 0.25558314 0.021106884 0.13527986 0.04792111
-0.24955888 -0.043133423 0.16875808 0.05645788 -0.68616384 -0.47937694 -0.091775455 -0.059412725
0.36883023 0.02668458 0.12862128 -0.04676222 -0.013168545 -0.3093182 0.018152677 0.030344237
-0.025974816 0.018485207 0.020154048 0.023590524 -0.077863544 -0.081008084 0.20923395 -0.27098534
-0.05112314 0.0015857992 -0.017729942 -0.037828006 0.009931559 -0.0037488618 0.31072897 -0.3314364
-0.28295296 -0.001018347 -0.22085421 -0.034529313 -0.022738129 -0.085549824 -0.5043804 -0.6477712
0.34512165 -0.2247059 -0.01443251 -0.76202273 0.118800804 -0.05524021 -0.0052145715 0.24482632
0.20838849 0.080670975 -0.07248925 -0.026648592 0.014568553 -0.051544406 0.013365799 0.053687654
-0.0031215544 0.30033883 0.023505393 -0.33522967 0.03701721 -0.71676403 -0.017008595 0.038001638
-0.022757873 0.10547807 0.0070374208 0.05187235 0.039890517 -0.07101012 -0.013559607 -0.054097354
-0.03102603 0.33425358 0.021090252 0.09704035 0.47306326 -0.46189922 0.02791157 -0.02922848
0.09082751 0.37743402 -0.15015179 -0.009106645 0.2912666 0.20863526 0.16073614 0.37188405
0.25465673 -0.019113125 0.2503989 0.20985188 0.11070526 -0.081492946 -0.0020328064 0.42915422
0.3289915 -0.22899671 0.0324546 -0.068397805 -0.48380485 -0.0047507077 0.009439398 0.0005151284
-0.12961318 0.06321217 -0.7627586 -0.4517817 0.30765277 0.21420038 0.29430693 0.0886903
-0.3158293 -0.20487939 -0.066916086 0.32226676 0.3335372 -0.016976284 -0.235781 0.008614034
-0.04441105 0.011936509 -0.50258315 0.3514571 0.040383015 -0.040873352 0.009495531 -0.46500495
-0.006803548 -0.063065976 0.32406625 0.27202055 0.05042335 -0.07299708 0.060515728 -0.004148457
-0.026074504 -0.056560837 -0.016667416 0.020680344 -0.0649414 -0.093384646 0.17343006 -0.06716873
0.138862 0.0336905 -0.06834666 0.2015164 -0.019657124 -0.33848903 -0.016705 0.22865221
-0.18671457 -0.04857133 -0.04028479 -0.062310096 -0.05473 0.03339115 0.01930039 0.09634473
-0.03758909 -0.023540942 0.023388138 -0.073713936 0.04768117 -0.041425984 0.2195197 -0.009395407
0.21535046 0.0066414485 -0.80257493 0.015517913 0.26352397 -0.05110371 -0.0125257475 -0.35644737
0.18208116 0.19099617 -0.07536914 0.19618851 0.036821086 -0.66265166 -0.3343136 0.017378397
0.2193615 -0.104809575 -0.068961516 -0.03436278 -0.32779247 -0.0071222056 0.005236821 0.25904602
-0.4170211 0.033388987 -0.044528536 -0.098308235 -0.062889926 -0.01738411 -0.067600235 -0.6069574
-0.06349072 0.19915122 -0.055910826 0.24170983 0.2616423 -0.39894927 0.2788519 -0.084282584
0.2693089 -0.17795607 0.03088346 0.04051402 0.03459655 0.2961595 -0.047409255 0.042283
00000000: fe28 48be 3a3e a6be 5e18 923e e0a5 60bd
00000010: 9bfe 81bd 2030 9bbd 11f6 29bd 3eab a23d
00000020: 6d5b a33c f49c 1539 ef04 80be 4c45 e7be
00000030: d33f 48bd a416 85bd b85d 9a3e 7a12 113d
00000040: 7745 123d dd26 233d 5d70 56bc 9164 55bd
00000050: 802a 68bf 240b d9ba 77a4 453c 1f9b 093e
00000060: 70ec 71bc b16e b03e 8f70 53bd d868 e83c
00000070: c04c 93be 9341 9cb9 32e3 7dbd ce7b 14bd
00000080: e096 b43e 1df3 293d 4562 e5bd 68d9 3dbe
00000090: cbdb 823e 58e8 ac3c ce86 0a3e ed48 443d
000000a0: 5d8c 7fbe acac 30bd ebce 2c3e 6140 673d
000000b0: 6fa8 2fbf e570 f5be c5f4 bbbd c25a 73bd
000000c0: 51d7 bc3e 9f99 da3c 4cb5 033e be89 3fbd
000000d0: e2c0 57bc f55e 9ebe ecb4 943c 7a94 f83c
000000e0: 23c9 d4bc 4a6e 973c 1a1a a53c ea40 c13c
000000f0: ec76 9fbd 91e7 a5bd 6d41 563e 97be 8abe
00000100: 7f66 51bd 97da cf3a 623e 91bc 8af1 1abd
00000110: fab7 223c 77af 75bb de17 9f3e 08b2 a9be
00000120: 36df 90be 0e7a 85ba 9b27 62be 9c6e 0dbd
00000130: 5045 babc bf34 afbd 131f 01bf 55d4 25bf
00000140: c9b3 b03e 4e19 66be 5676 6cbc ec13 43bf
00000150: d64d f33d 8f43 62bd ffde aabb c0b3 7a3e
00000160: cb63 553e d336 a53d 3e75 94bd 264e dabc
00000170: f1b0 6e3c 3a20 53bd 39fc 5a3c 96e7 5b3d
00000180: fe92 4cbb 03c6 993e 628e c03c 39a3 abbe
00000190: 5c9f 173d d97d 37bf 9c55 8bbc 9ba7 1b3d
000001a0: b86e babc e304 d83d 2a9a e63b 1a78 543d
000001b0: 3d64 233d c16d 91bd 1d29 5ebc 3095 5dbd
000001c0: 4d2a febc 4923 ab3e 77c5 ac3c 17bd c63d
000001d0: 5935 f23e 0e7e ecbe cea6 e43c 9170 efbc
000001e0: c603 ba3d 083f c13e 64c1 19be 0a34 15bc
000001f0: e520 953e 7ba4 553e 0498 243e 9667 be3e
00000200: 5e62 823e 2193 9cbc 4934 803e 69e3 563e
00000210: 70b9 e23d c6e5 a6bd d538 05bb 1aba db3e
00000220: 9371 a83e 1d7e 6abe 1def 043d 2614 8cbd
00000230: 45b5 f7be d3ab 9bbb b4a7 1a3c af09 073a
00000240: 51b9 04be 6275 813d 2644 43bf ee4f e7be
00000250: aa84 9d3e 5857 5b3e 66af 963e 43a3 b53d
00000260: 61b4 a1be e7cb 51be 4d0b 89bd 2600 a53e
00000270: 63c5 aa3e d911 8bbc 9370 71be e121 0d3c
00000280: 5ce8 35bd 5991 433c 4aa9 00bf 2ff2 b33e
00000290: a968 253d d16a 27bd 2593 1b3c 2115 eebe
000002a0: 4cf0 debb bc28 81bd 03ec a53e 4746 8b3e
000002b0: b788 4e3d 7e7f 95bd 57df 773d c8ef 87bb
000002c0: 339a d5bc 56ac 67bd 1b8a 88bc d369 a93c
000002d0: ffff 84bd 7340 bfbd a697 313e c28f 89bd
000002e0: d731 0e3e 0dff 093d 55f9 8bbd 515a 4e3e
000002f0: fa07 a1bc 6f4e adbe edd8 88bc ce23 6a3e
00000300: 1b32 3fbe bbf2 46bd aa01 25bd df38 7fbd
00000310: 912c 60bd 29c5 083d da1b 9e3c 6350 c53d
00000320: 05f7 19bd efd8 c0bc 7b98 bf3c 55f7 96bd
00000330: 554d 433d 4bae 29bd c6c9 603e 31ef 19bc
00000340: d584 5c3e 82a0 d93b 8d75 4dbf d83e 7e3c
00000350: 9dec 863e 2052 51bd cb38 4dbc 4580 b6be
00000360: 7c73 3a3e 8094 433e 235b 9abd a4e5 483e
00000370: b5d1 163d 8aa3 29bf 272b abbe 245d 8e3c
00000380: 4da0 603e 67a6 d6bd b23b 8dbd fdbf 0cbd
00000390: 6ad4 a7be 6461 e9bb a399 ab3b aea1 843e
000003a0: ca83 d5be e4c2 083d 8e63 36bd d455 c9bd
000003b0: 6fcc 80bd 1f69 8ebc fe71 8abd 8f61 1bbf
000003c0: 6c07 82bd 4cee 4b3e c002 65bd c882 773e
000003d0: fbf5 853e 1443 ccbe adc5 8e3e 599c acbd
000003e0: dbe2 893e 1e3a 36be 4fff fc3c 07f2 253d
000003f0: 1db5 0d3d 38a2 973e 3530 42bd f030 2d3d

net1.4.weight f4 [1, 256]
0.23303834 0.47399873 -0.9408792 0.0015945513 -0.0062851734 -0.0056537236 0.016802378 0.08969773
-0.0013917683 -0.028253924 0.038670905 0.6552588 -2.075832 0.008663922 -0.031755026 0.053342804
-0.003161136 0.0048751794 -0.009265111 -0.011769527 1.1075643 -0.9865823 0.04131588 -0.34423754
0.034887746 -0.11793514 0.036163304 -0.027412172 0.11406208 -0.024581457 -0.029787077 0.032494593
-0.122554146 -0.15961535 9.380186e-05 0.0007629779 -0.013324397 -0.22746518 -0.009685491 -0.23159976
0.007844844 0.005150688 -0.06061604 -2.0463638 1.6970323 1.3608658 1.0080273 -0.04071546
-0.12411825 0.029505022 -1.8003466 -0.022825854 0.026252016 0.44296876 0.009792793 0.029559027
-0.016339054 -0.012947322 -0.5599779 0.020070229 0.37426913 -0.008557158 -0.055953965 0.6636546
0.0006865388 0.0074952254 0.28882313 0.04394589 -3.0824485 0.01281166 -0.057374015 0.33932155
0.25084475 -0.0150224855 0.68559474 0.017662263 0.004508215 -0.050592013 0.39960846 1.160993
-0.12571593 0.5777796 0.10548032 0.8245643 -0.052262846 -0.025636196 0.008924848 -0.06402181
-0.07983594 -1.333612 -0.006032299 -0.021144802 -0.041346967 0.0049043098 -0.0010080321 0.032186054
-0.039974637 -0.108300745 -0.019883776 0.8358182 0.005381029 1.9033196 0.9042569 0.051071845
-0.0096968375 -0.013031764 0.005173895 -0.00028346642 -0.002757541 -0.025155192 0.004019477 0.0028259242
0.012861292 -0.11521805 -0.029106926 -0.00030525256 -0.72308 -1.9918032 0.02908059 -0.0116664395
0.12960374 -0.13073456 0.62551093 0.0007204473 -0.07642301 -0.02745137 -1.0519011 -0.19161683
-0.021122327 0.026341926 -0.047278844 -0.050467454 -0.0020358737 1.0395266 0.039209217 -1.1544847
-0.07489568 -2.3826668 -0.39504886 -0.042666376 0.32267284 0.008505946 0.010833596 -0.008266646
0.46821705 0.6945097 0.8158698 1.2258743 -0.049230494 -0.06983929 -0.07631872 0.5122189
1.4382182 0.1084072 -0.005449382 -0.13771047 -0.08664996 0.001213774 0.003564062 3.698174e-05
0.053298123 0.4196813 1.426034 -0.12123313 0.0015646828 -0.04370397 -1.7002376 0.58677846
-0.7589361 -0.038587444 -0.1119905 -0.027127927 0.019075869 -0.0024860317 -0.1816228 0.0035821623
-0.02152226 0.0041026333 0.0082932655 -0.009838502 -0.027098479 0.016582085 -0.08398699 -0.026110385
0.0004000016 -0.026455443 -0.0023648948 -0.070635736 0.001678872 0.7509056 -0.024359632 -0.067002214
-1.2578719 0.00079649506 0.03584871 -0.030342778 -0.01848895 0.007759934 -0.019643826 1.8575368
-0.028875083 -0.0050084554 0.021666704 0.043392494 -0.032800704 -0.029338913 -0.52586526 -0.041269902
-0.023128012 -0.005182966 1.4171222 0.008064922 -0.05668871 -0.02507934 0.005200025 -0.00905896
-0.038760405 -0.060446087 -0.0119500635 1.2058669 -0.48608246 0.88770735 0.7046288 -0.0061916485
-0.080321155 0.46941966 -0.0022101451 -0.0061694905 0.9265677 0.1611958 -0.28893408 -0.13543117
-0.0041576237 0.030526908 0.08527739 0.25534806 0.042775758 -0.67686594 -0.0081578195 0.36138156
-0.034735937 -0.903968 0.29306793 -0.024996843 -2.646731 1.3494617 -0.03220902 0.009114184
-0.13915823 -0.007852088 0.0027073005 0.006090169 -0.020038199 -1.0745656 0.007672549 -0.015130742
00000000: 9aa1 6e3e f6af f23e 76dd 70bf 4300 d13a
00000010: dbf3 cdbb df42 b9bb 24a5 893c 72b3 b73d
00000020: ff6b b6ba c674 e7bc 6265 1e3d 0abf 273f
00000030: 6eda 04c0 1ff3 0d3c 8f11 02bd fc7d 5a3d
00000040: 102b 4fbb f8bf 9f3b b1cc 17bc f9d4 40bc
00000050: abc4 8d3f a890 7cbf d73a 293d e73f b0be
00000060: 74e6 0e3d fb87 f1bd f91f 143d 7e8f e0bc
00000070: 6199 e93d 0d5f c9bc 0704 f4bc 0d19 053d
00000080: abfd fabd 3572 23be 7db7 c438 9502 483a
00000090: 924e 5abc a2ec 68be e5af 1ebc 7d28 6dbe
000000a0: a987 003c 1ac7 a83b 8648 78bd a0f7 02c0
000000b0: 5b38 d93f da30 ae3f 0a07 813f 41c5 26bd
000000c0: b631 febd 84b4 f13c c271 e6bf 49fd babc
000000d0: 780e d73c cdcc e23e f371 203c c625 f23c
000000e0: 7bd9 85bc 0121 54bc b65a 0fbf 526a a43c
000000f0: 34a0 bf3e 5233 0cbc fc2f 65bd 45e5 293f
00000100: d7f8 333a 829a f53b a0e0 933e 9b00 343d
00000110: d646 45c0 ffe7 513c 0401 6bbd 8ebb ad3e
00000120: b96e 803e df20 76bc 2383 2f3f 73b0 903c
00000130: a6b9 933b 9239 4fbd 7b99 cc3e 6b9b 943f
00000140: adbb 00be 5de9 133f 1106 d83d a516 533f
00000150: 9111 56bd 0003 d2bc 8739 123c de1d 83bd
00000160: 0681 a3bd ccb3 aabf 97aa c5bb dd37 adbc
00000170: 705b 29bd 55b4 a03b f21f 84ba 86d5 033d
00000180: 72bc 23bd c8cc ddbd 4de3 a2bc 2ef8 553f
00000190: 5853 b03b fa9f f33f 617d 673f b630 513d
000001a0: 7cdf 1ebc 2e83 55bc c789 a93b 389e 94b9
000001b0: dcb7 34bb 4312 cebc d1b5 833b 2433 393b
000001c0: 2bb8 523c 71f7 ebbd a671 eebc 4e0a a0b9
000001d0: c51b 39bf 68f3 febf 6b3a ee3c 9824 3fbc
000001e0: d8b6 043e 48df 05be 7c21 203f 66dc 3c3a
000001f0: ab83 9cbd b2e1 e0bc b2a4 86bf 3437 44be
00000200: bb08 adbc 06cb d73c 76a7 41bd f6b6 4ebd
00000210: 4b6c 05bb 350f 853f d899 203d 28c6 93bf
00000220: e862 99bd 9d7d 18c0 d843 cabe f0c2 2ebd
00000230: 6035 a53e 865c 0b3c 657f 313c d470 07bc
00000240: 25ba ef3e 63cb 313f d8dc 503f 73e9 9c3f
00000250: eaa5 49bd e707 8fbd fd4c 9cbd c720 033f
00000260: 8917 b83f 9804 de3d bb90 b2bb f903 0dbe
00000270: 8975 b1bd 7f17 9f3a 0a93 693b d71c 1b38
00000280: 224f 5a3d 78e0 d63e 4888 b63f 1349 f8bd
00000290: 0b16 cd3a ef02 33bd 63a1 d9bf 1d37 163f
000002a0: a349 42bf de0d 1ebd 465b e5bd 633b debc
000002b0: ff44 9c3c b1ec 22bb 54fb 39be b6c2 6a3b
000002c0: 734f b0bc 626f 863b 7ae0 073c ab31 21bc
000002d0: a1fd ddbc 27d7 873c 5f01 acbd 72e5 d5bc
000002e0: 4eb7 d139 16b9 d8bc 5afc 1abb 78a9 90bd
000002f0: 990d dc3a 593b 403f da8d c7bc 7538 89bd
00000300: f201 a1bf e1cb 503a 19d6 123d 6b91 f8bc
00000310: 2376 97bc 0b47 fe3b 17ec a0bc c4c3 ed3f
00000320: 708b ecbc f81d a4bb 5f7e b13c 54bc 313d
00000330: 085a 06bd 2958 f0bc 1b9f 06bf a10a 29bd
00000340: f576 bdbc dfd5 a9bb 4364 b53f bc22 043c
00000350: 6c32 68bd 3073 cdbc f964 aa3b 086c 14bc
00000360: 3bc3 1ebd 5196 77bd 33ca 43bc d959 9a3f
00000370: cddf f8be ca40 633f 8e62 343f 50e3 cabb
00000380: 6b7f a4bd c657 f03e 15d8 10bb 7029 cabb
00000390: 8a33 6d3f 8310 253e 2bef 93be 78ae 0abe
000003a0: ad3c 88bb 9113 fa3c eaa5 ae3d fbbc 823e
000003b0: a235 2f3d 1647 2dbf 60a8 05bc 0107 b93e
000003c0: 4547 0ebd 726a 67bf 000d 963e 2ec6 ccbc
000003d0: 0a64 29c0 29bb ac3f 9bed 03bd a953 153c
000003e0: 7f7f 0ebe 0ba6 00bc f76c 313b 0a90 c73b
000003f0: 2627 a4bc 5e8b 89bf 026a fb3b efe6 77bc

net2.0.weight f4 [256, 7]
-0.92304367 0.009560194 -0.12541857 -0.6969116 0.13497338 -0.086892866 0.21431363 -0.25137687
-0.2987535 0.106388964 0.8409791 0.59917617 -0.02916871 -0.002367954 -0.21234533 0.12347496
-0.29941544 0.45915708 0.9950618 -0.044569883 -0.005641178 0.122204736 -0.05268071 0.34174487
0.8122691 -0.854759 0.003193578 0.0045465464 -0.5060994 -0.1500312 0.050564535 -1.1689923
-0.8036852 -0.12571901 -0.010533308 -0.35911146 -0.49089652 -0.55076104 -0.61176777 0.39216605
-0.08213725 0.138982 0.39524674 0.1607017 -0.22973749 0.0466012 -0.029180784 -0.048023447
-0.08152604 0.029859083 0.043481935 -0.092034146 1.172631 -0.807713 0.048890978 -0.048004285
0.092204295 -0.28707445 -0.3694171 0.72926515 -0.7479781 0.114990614 -0.13012001 -0.27702263
0.41503975 0.03950991 -0.9084909 0.025737217 -0.06444138 0.0047709113 -0.20233318 -0.42316395
0.32492787 0.29628676 -0.20859013 -0.026648302 0.09915396 -0.055574927 0.26444983 -0.014043849
-0.029573437 1.7746224 -0.008457336 -0.03560983 -0.25848648 0.46654415 -0.014325503 0.59729445
0.5994021 0.03404763 -0.041226033 0.18901107 -0.3441291 -0.03347715 -0.46804637 0.56655526
-0.053734772 0.15730849 -0.026229601 -0.7050551 -0.18915081 -0.45229068 -0.46510476 0.009515683
0.008252453 -0.10651213 -0.049878675 -0.26394972 1.0306624 0.323303 -0.0951013 -0.2824835
0.07033926 -0.6580476 -0.13487752 0.65089124 -0.7236714 -0.064156994 0.04982375 0.034248635
0.02394078 -0.18553564 -0.14112493 -0.94563186 0.015422707 -0.046850186 -0.62400836 0.064240344
-0.030842368 -0.93410265 -0.3129164 0.008498922 -0.08678743 0.34741196 0.19502069 0.24910627
-0.31091824 -0.6203697 0.123558894 0.073220514 0.06336935 0.20290503 0.21329701 0.42387247
0.8751824 0.04724846 -0.038014743 -0.40790248 -1.101561 -0.6217026 -0.32706448 -0.7477959
0.28955793 0.037438136 -0.52756923 0.39705583 0.06675617 0.059368763 0.73339576 -0.028890964
0.05048158 -0.26187342 0.029381627 0.17340313 0.67637336 1.5466671 0.077718 0.05756844
0.08615544 0.16986863 -0.3317297 0.1455248 -0.61767817 -0.16910142 -0.09503692 0.22030671
-0.2819971 0.21881464 -0.7510237 0.37401962 0.059265457 -0.03360787 -0.0058643715 0.016609907
-0.03043432 0.863472 0.518022 -0.04412632 0.047236077 -0.05069267 0.01704797 -0.17738788
0.7179205 -0.4545694 -0.09805026 -0.0061296267 -0.62688863 -0.22489193 -0.43348214 -0.136795
-0.34129906 -0.11369251 -0.0461902 -0.26492602 -0.7238185 0.040656473 0.1123484 -0.31349576
-0.012535382 -0.060646523 -0.12634428 0.13368782 -0.21505891 -0.55633765 -0.5012274 0.31682727
0.24268489 -0.047783826 0.12658738 -0.068976715 0.02245097 0.44253024 0.1450913 -0.07452727
0.041623287 -0.0149808815 0.12626384 -1.1377453 -0.8842946 -0.070247725 -0.0026842041 0.017777532
-0.45208502 0.04105492 0.29050198 -0.029281009 -0.074043624 0.043407325 -0.24809106 0.5055251
-0.017949235 -0.51626074 0.27731577 0.05197779 0.16111943 -0.059863504 -0.28963375 0.31178793
-0.09363479 0.30319816 -0.019496007 0.023204144 0.10195394 0.08465213 0.0069442205 -0.70294267
00000000: 974c 6cbf 5ca2 1c3c ba6d 00be cc68 32bf
00000010: 7636 0a3e e3f4 b1bd 0875 5b3e 78b4 80be
00000020: 38f6 98be 75e2 d93d 684a 573f 9c63 193f
00000030: 38f3 eebc ad2f 1bbb 0e71 59be 71e0 fc3d
00000040: fb4c 99be a316 eb3e 5fbc 7e3f e98e 36bd
00000050: a2d9 b8bb 7a46 fa3d bac7 57bd 2ff9 ae3e
00000060: def0 4f3f 7cd1 5abf 594b 513b 32fb 943b
00000070: bb8f 01bf c7a1 19be c21c 4f3d 8aa1 95bf
00000080: 50be 4dbf 7cbc 00be e593 2cbc 75dd b7be
00000090: ca56 fbbe adfe 0cbf d09c 1cbf fdc9 c83e
000000a0: 9337 a8bd 4c51 0e3e c85d ca3e fd8e 243e
000000b0: 4e40 6bbe e6e0 3e3d 8a0c efbc 3cb4 44bd
000000c0: 20f7 a6bd 099b f43c 1d1a 323d 667c bcbd
000000d0: c618 963f 47c6 4ebf e841 483d 24a0 44bd
000000e0: 9bd5 bc3d 6cfb 92be 3d24 bdbe 1fb1 3a3f
000000f0: 7e7b 3fbf 3380 eb3d 2e3e 05be e9d5 8dbe
00000100: 1780 d43e 25d5 213d dc92 68bf dbd6 d23c
00000110: d8f9 83bd 4e55 9c3b 6e30 4fbe f2a8 d8be
00000120: f25c a63e e6b2 973e a798 55be 8a4d dabc
00000130: 3b11 cb3d 89a2 63bd f865 873e 2c18 66bc
00000140: fe43 f2bc d426 e33f a390 0abc 9ddb 11bd
00000150: 5758 84be e0de ee3e 84b5 6abc 4ae8 183f
00000160: 6b72 193f 8775 0b3d a1dc 28bd 1e8c 413e
00000170: b031 b0be 561f 09bd c6a3 efbe c409 113f
00000180: fe18 5cbd 7a15 213e 76df d6bc 7e7e 34bf
00000190: c0b0 41be a592 e7be 3622 eebe abe7 1b3c
000001a0: 4c35 073c 0823 dabd 954d 4cbd 6b24 87be
000001b0: bfec 833f f987 a53e 78c4 c2bd ada1 90be
000001c0: 080e 903d cf75 28bf 551d 0abe cfa0 263f
000001d0: 8742 39bf be64 83bd fd13 4c3d 4c48 0c3d
000001e0: 741f c43c 0efd 3dbe 0e83 10be ee14 72bf
000001f0: 86af 7c3c fbe5 3fbd 03bf 1fbf 7190 833d
00000200: 22a9 fcbc 5a21 6fbf 9436 a0be 103f 0b3c
00000210: 9cbd b1bd fbdf b13e 81b3 473e b715 7f3e
00000220: ad30 9fbe 8cd0 1ebf 720c fd3d a3f4 953d
00000230: cac7 813d 56c6 4f3e 886a 5a3e d005 d93e
00000240: f40b 603f 9a87 413d 59b5 1bbd 98d8 d0be
00000250: f3ff 8cbf e727 1fbf ff74 a7be 8d6f 3fbf
00000260: f040 943e bb58 193d c70e 07bf e74a cb3e
00000270: 75b7 883d a92c 733d d3bf 3b3f beac ecbc
00000280: c6c5 4e3d 4614 86be bdb1 f03c 9790 313e
00000290: ce26 2d3f 30f9 c53f 9d2a 9f3d e2cc 6b3d
000002a0: 4372 b03d 0bf2 2d3e 7ad8 a9be 7404 153e
000002b0: 2820 1ebf ec28 2dbe b7a2 c2bd 1598 613e
000002c0: ed61 90be f210 603e 1743 40bf 807f bf3e
000002d0: 56c0 723d 68a8 09bd ea29 c0bb 8011 883c
000002e0: 6551 f9bc 800c 5d3f 179d 043f cdbd 34bd
000002f0: 9e7a 413d 1ea3 4fbd 2fa8 8b3c 2ba5 35be
00000300: a3c9 373f 52bd e8be 93ce c8bd 09db c8bb
00000310: c67b 20bf 124a 66be 5ff1 ddbe fd13 0cbe
00000320: c0be aebe 9ed7 e8bd ef31 3dbd 62a4 87be
00000330: 2b4c 39bf 6787 263d eb16 e63d 8482 a0be
00000340: 3461 4dbc 7d68 78bd 6560 01be 76e5 083e
00000350: 6738 5cbe 256c 0ebf 7050 00bf 2f37 a23e
00000360: 6382 783e f9b8 43bd 1fa0 013e aa43 8dbd
00000370: 19eb b73c 5393 e23e d092 143e c1a1 98bd
00000380: 2e7d 2a3d 5f72 75bc 4f4b 013e a3a1 91bf
00000390: 2261 62bf 0ade 8fbd 79e9 2fbb 30a2 913c
000003a0: b077 e7be 3429 283d adbc 943e bade efbc
000003b0: 2fa4 97bd e1cb 313d 950b 7ebe 186a 013f
000003c0: 460a 93bc aa29 04bf 55fc 8d3e aae6 543d
000003d0: 7efc 243e 6f33 75bd e04a 94be aba2 9f3e
000003e0: 99c3 bfbd ca3c 9b3e 17b6 9fbc 9e16 be3c
000003f0: 3acd d03d 195e ad3d 588c e33b 0df4 33bf

net2.0.bias f4 [256]
0.13597406 -0.2406386 -0.5520653 -0.6618759 0.26405224 -0.060606338 -0.8479187 -0.33689192
-0.29465726 -0.08711394 0.21417163 -0.5916029 -0.2029948 0.24273579 0.41393757 -0.79942465
0.29045266 0.4257878 0.46017045 -0.4914769 -0.92556614 0.26225865 -0.2508366 -0.28955686
0.46280178 -0.14701015 -0.038904883 0.65036273 -0.24231139 -0.46148553 -0.034821004 0.20026304
0.17892322 0.31305352 -0.22729765 0.5104564 0.47606403 0.22576284 0.40644753 -0.3480803
-0.28299496 -0.11768393 0.41762835 0.39599383 0.23714095 0.10463763 -0.38999254 -0.31656924
-0.21283817 0.10023836 -0.77954376 -0.5647946 0.50791985 0.11685529 0.2521907 -0.54503673
-1.0897571 -0.7899545 0.8829654 0.46215656 0.7318388 -0.47335008 -1.1136855 -1.1066334
-0.15622295 -0.11805413 0.46457893 0.45440525 0.19382775 0.38145006 0.79739976 0.5572386
-0.15037996 0.7648466 0.45565665 -0.71927273 -0.2164163 -0.145695 0.4262204 0.6274933
0.6909554 -0.782288 0.039873593 0.11201275 0.82436913 -0.6668835 -0.65601695 0.23129767
-0.60252976 -0.693998 -0.6890076 -0.73527014 0.31697962 -0.2621034 -0.5430762 0.20093176
-0.32476395 0.23624651 0.6535767 0.5280215 0.80314493 0.5621463 0.40258068 0.63395095
0.33281848 -0.7954229 0.32754102 0.09554155 0.449831 -0.3317279 -0.1516884 0.7358187
-0.107956536 -0.6456547 0.025388852 -0.6424896 0.030265456 -0.40374368 -0.66980666 0.46047002
-0.056720614 0.6144934 -0.5112266 -0.07839875 0.13458782 0.30950207 -0.44023305 -0.2665953
0.54146534 -0.65709513 -0.5335134 -0.34245417 -0.3559381 0.5540229 -0.20809521 -0.4793918
-0.18567818 -0.7060732 -0.38928583 0.1502218 -0.6547184 -0.5743881 0.30464748 0.28672177
0.5205359 0.8418966 0.51202214 0.6826845 -0.09726503 -0.6465676 0.63025033 0.45942223
-0.2802224 -0.7571341 0.90324014 0.55748326 0.47286376 -0.48206908 -0.50912225 0.53675866
0.56225234 -0.41801116 0.5987936 -0.697968 -0.549892 -0.6178196 0.48197487 -0.3873659
-0.3332032 0.12689728 0.013984879 0.26766846 0.11817366 -0.03381571 0.46093795 0.408685
-0.4578605 0.049843267 0.57975453 0.115505986 -0.72793764 -0.27996147 0.08786076 0.30181518
-0.07864416 0.3295628 0.6295109 0.61825246 -1.0099486 -0.45837778 -0.89889276 0.14363547
-0.18249072 -0.56757635 0.031952064 0.5045378 0.0050983885 0.26352346 -0.22144134 -0.84869814
0.08840367 -0.5642721 0.09229631 0.12994419 0.3058576 -0.85999966 0.45604804 0.19048063
-0.08031067 -0.31146187 -0.46262679 0.25992563 -0.4713636 -0.17800839 0.09704532 -0.96251756
0.63222504 0.40372467 -0.630815 -0.25000978 0.20102891 -0.6685523 -0.26175338 -0.6385616
-0.33711764 0.5947444 -0.30501205 0.61788034 -0.5267769 0.19961329 -0.00908302 0.47964507
0.11015066 -0.6737061 0.5729568 0.31079352 -0.4776375 -0.19904253 -0.21233964 -0.27382192
-0.19725618 0.52293 -0.24235642 0.32224858 0.09485439 -0.2585448 0.70644426 -1.0033678
-0.23819698 -0.20048565 0.5944301 0.5673663 -0.56654483 -0.7996942 0.7202376 -0.4801869
00000000: c93c 0b3e f769 76be 2754 0dbf b370 29bf
00000010: db31 873e 5a3e 78bd 3311 59bf 197d acbe
00000020: 51dd 96be cb68 b2bd cf4f 5b3e 4a73 17bf
00000030: dedd 4fbe bb8f 783e a0ef d33e 18a7 4cbf
00000040: 36b6 943e dc00 da3e 769b eb3e dca2 fbbe
00000050: e7f1 6cbf c446 863e a86d 80be cc40 94be
00000060: 5bf4 ec3e d489 16be ba5a 1fbd 2c7e 263f
00000070: 7a20 78be d547 ecbe 78a0 0ebd c111 4d3e
00000080: a637 373e 8d48 a03e b7c0 68be 45ad 023f
00000090: aabe f33e 602e 673e e419 d03e 9537 b2be
000000a0: b7e4 90be 4604 f1bd 62d3 d53e b4bf ca3e
000000b0: 14d5 723e 414c d63d 1aad c7be 5d15 a2be
000000c0: 40f2 59be c549 cd3d 2e90 47bf 6196 10bf
000000d0: 0907 023f d451 ef3d 241f 813e 8787 0bbf
000000e0: 297d 8bbf 753a 4abf 050a 623f c99f ec3e
000000f0: ca59 3b3f f15a f2be 3f8d 8ebf 2aa6 8dbf
00000100: e9f8 1fbe 5dc6 f1bd 4add ed3e cea7 e83e
00000110: c87a 463e 6c4d c33e 6422 4c3f 30a7 0e3f
00000120: 34fd 19be fdcc 433f d44b e93e 4222 38bf
00000130: 3c9c 5dbe 1231 15be 8f39 da3e 67a3 203f
00000140: 74e2 303f 0744 48bf 7e52 233d f166 e53d
00000150: db09 533f e1b8 2abf baf0 27bf 4cd9 6c3e
00000160: 643f 1abf daa9 31bf cd62 30bf aa3a 3cbf
00000170: 274b a23e 6b32 86be 0b07 0bbf 0ec1 4d3e
00000180: 7647 a6be 9bea 713e cd50 273f 6b2c 073f
00000190: e89a 4d3f d2e8 0f3f 0e1f ce3e 9c4a 223f
000001a0: 2f67 aa3e d6a0 4bbf 75b3 a73e 4aab c33d
000001b0: 4050 e63e 3dd8 a9be 3454 1bbe 9d5e 3c3f
000001c0: 5118 ddbd a049 25bf 48fc cf3c 337a 24bf
000001d0: 43ef f73c 7eb7 cebe 7378 2bbf bac2 eb3e
000001e0: e053 68bd 714f 1d3f bfdf 02bf 868f a0bd
000001f0: 64d1 093e 0e77 9e3e 3a66 e1be 2e7f 88be
00000200: 799d 0a3f 6337 28bf 5694 08bf 2756 afbe
00000210: 853d b6be 72d4 0d3f e916 55be d872 f5be
00000220: 6c22 3ebe 37c1 34bf 7950 c7be bed3 193e
00000230: a09b 27bf 190b 13bf c1fa 9b3e 32cd 923e
00000240: d741 053f 8986 573f e213 033f 69c4 2e3f
00000250: e332 c7bd 7485 25bf 1658 213f 6439 eb3e
00000260: 4f79 8fbe 8ad3 41bf bf3a 673f 39b7 0e3f
00000270: 331b f23e c2d1 f6be d655 02bf 0469 093f
00000280: c5ef 0f3f 8f05 d6be 8a4a 193f 08ae 32bf
00000290: b9c5 0cbf 6d29 1ebf 69c5 f63e d354 c6be
000002a0: 9c99 aabe 5cf1 013e d520 653c d70b 893e
000002b0: 0805 f23d 5882 0abd 0f00 ec3e 293f d13e
000002c0: b16c eabe 7428 4c3d cb6a 143f 678e ec3d
000002d0: 1f5a 3abf 1c57 8fbe 58f0 b33d 8587 9a3e
000002e0: 3010 a1bd 75bc a83e a027 213f cb45 1e3f
000002f0: ff45 81bf 7eb0 eabe d61d 66bf 2d15 133e
00000300: d9de 3abe af4c 11bf 2be0 023d 6429 013f
00000310: 6210 a73b 8cec 863e 85c1 62be 4844 59bf
00000320: fc0c b53d 2374 10bf d905 bd3d 1710 053e
00000330: 5e99 9c3e f028 5cbf 217f e93e 5b0d 433e
00000340: ec79 a4bd ee77 9fbe 6bdd ecbe f914 853e
00000350: 9256 f1be d547 36be b2bf c63d 8d67 76bf
00000360: 80d9 213f 00b5 ce3e 187d 21bf 4801 80be
00000370: 86da 4d3e 3e26 2bbf 8a04 86be c678 23bf
00000380: af9a acbe 2b41 183f 8a2a 9cbe 682d 1e3f
00000390: dada 06bf 6d67 4c3e f2d0 14bc 0a94 f53e
000003a0: ab96 e13d 0178 2cbf 4cad 123f 5420 9f3e
000003b0: e78c f4be ced1 4bbe 906f 59be 6332 8cbe
000003c0: 86fd 49be bede 053f 482c 78be c4fd a43e
000003d0: 0543 c23d fc5f 84be 88d9 343f 5b6e 80bf
000003e0: e9e9 73be 1c4c 4dbe 922c 183f eb3e 113f
000003f0: 1509 11bf c2b8 4cbf 7e61 383f 0fdb f5be

net2.2.weight f4 [256, 256]
-0.014537647 0.018359685 0.12127818 -0.018035287 -0.037684955 -0.04857774 -0.040161602 -0.052571632
-0.03616221 -0.20800698 0.038797416 -0.20936166 -0.43542576 -0.046749305 -0.100792706 -0.091256164
0.00908111 -0.30854297 -0.10541996 -0.04247736 -0.32244027 0.024275882 -0.039962016 -0.14280896
-0.1212807 -0.013638117 -0.2472215 -0.17087385 0.085730456 -0.07267799 -0.39131826 -0.5520554
0.031907022 0.017386504 -0.34423456 -0.0031528648 -0.11014366 0.04642716 -0.035427712 -0.38180518
-0.3655628 -0.1541026 -0.09504691 -0.13462317 0.017402561 -0.09756078 0.07663539 -0.104137674
-0.029073471 0.09073336 -0.0809056 -0.038940877 -0.1211251 0.02057573 -0.095994204 -0.030094493
0.07312218 -0.045575235 -0.11383741 0.12952746 -0.028664323 -0.3677592 0.07060353 0.0330134
-0.15506315 -0.42205414 -0.13107483 0.0063437214 -0.066746876 0.02354282 -0.058798272 -0.038685985
-0.038103055 -0.069524825 -0.015292716 -0.1121325 -0.03896909 -0.030379308 -0.015259105 -0.112984926
-0.11431273 -0.5062256 0.098677084 0.011286282 -0.1878662 -0.26744252 0.030323407 0.03917946
0.048264038 -0.18016298 -0.19390206 0.019252025 0.024090642 -0.15130848 -0.029353356 -0.09384631
-0.1072496 -0.025320802 0.017084781 -0.13605124 -0.031555206 0.06212433 -0.22592846 -0.012634373
-0.191816 -0.26175123 0.010151736 -0.1446546 0.03306014 -0.04676575 -0.15173429 -0.41359144
0.093682595 0.08950199 -0.27432016 -0.09680582 0.03733732 -0.19071664 0.17715184 0.079354286
-0.0753461 -0.10851479 -0.009606589 0.06354663 -0.027521214 0.30716777 0.02265262 -0.034744177
0.011011496 0.042882375 -0.43691716 0.024507426 0.031137401 -0.16494016 0.03691806 -0.02967462
-0.0050357897 0.07306919 -0.15687308 -0.051590193 -0.2985671 -0.3231562 -0.2427222 -0.33937207
-0.052165788 -0.10952394 -0.059272196 -0.1213424 0.007084386 0.025580717 -0.023860073 0.06891455
-0.027230166 0.098843746 0.0016726466 -0.19324785 -0.10174158 0.0005380267 0.05129406 -0.26292536
0.09202088 -0.041643962 -0.12332198 -0.24890569 0.0959365 -0.6322731 -0.015450572 0.0029189554
-0.1606167 -0.12986426 -0.07117745 -0.10642794 -0.012375967 -0.14394642 -0.058731057 -0.3886756
0.0013399957 -0.1907863 -0.08911998 -0.15234601 0.0009982883 -0.12737533 -0.036260296 -0.40236512
0.041902553 -0.20813517 -0.1581154 -0.12235887 0.035324484 0.040364508 -0.53398687 0.07897595
0.003817182 -0.034829866 0.1562585 -0.029025046 -0.06997273 -0.040286507 -0.001525354 -0.08013644
-0.022897396 -0.076597035 -0.24095769 0.016016826 -0.091523886 0.055611815 -0.14797698 -0.3357238
-0.024886204 -0.25490105 0.003642692 -0.013544309 -0.011802023 0.043022532 -0.2032446 -0.010574475
-0.013067937 -0.12233704 0.08639555 0.1004952 0.036483463 -0.18585779 -0.029729025 -0.04924042
0.10342417 -0.0338886 -0.1694102 -0.010771446 -0.09511035 0.015107346 0.058035262 -0.05526409
-0.67029244 -0.1384409 -0.25446782 0.031074837 0.08420274 0.06949646 0.07662685 -0.48941872
0.079754256 -0.06940756 0.07348775 -0.043567564 -0.04306184 -0.12804087 -0.056078747 -0.13189338
-0.09848104 0.0710836 -0.010570932 0.005022326 0.006465298 -0.20203534 -0.008609104 -0.033519078
00000000: 502f 6ebc 0d67 963c b260 f83d bdbe 93bc
00000010: 8a5b 1abd 74f9 46bd 7e80 24bd 5a55 57bd
00000020: d31e 14bd c8ff 54be 0aea 1e3d e762 56be
00000030: 20f0 debe 337c 3fbd 686c cebd 83e4 babd
00000040: f0c8 143c 58f9 9dbe 6ce6 d7bd befc 2dbd
00000050: e416 a5be 37de c63c 36af 23bd 833c 12be
00000060: 0462 f8bd 6972 5fbc a227 7dbe 8ef9 2ebe
00000070: 7393 af3d 33d8 94bd de5a c8be 8153 0dbf
00000080: f0b0 023d 246e 8e3c 833f b0be 4ba0 4ebb
00000090: 0093 e1bd 682a 3e3d a61c 11bd f87b c3be
000000a0: 0c2b bbbe 12cd 1dbe f4a7 c2bd a8da 09be
000000b0: d18f 8e3c f2cd c7bd 04f3 9c3d 2246 d5bd
000000c0: 7d2b eebc 69d2 b93d d6b1 a5bd 7880 1fbd
000000d0: 7010 f8bd 6f8e a83c 9c98 c4bd ba88 f6bc
000000e0: 15c1 953d 19ad 3abd 9723 e9bd d9a2 043e
000000f0: 71d1 eabc ef4a bcbe 9598 903d 0f39 073d
00000100: e0c8 1ebe 7b17 d8be 7b38 06be fede cf3b
00000110: 96b2 88bd dfdc c03c 75d6 70bd 3275 1ebd
00000120: f311 1cbd 0863 8ebd 4d8e 7abc b9a5 e5bd
00000130: 0d9e 1fbd 07de f8bc 5301 7abc a464 e7bd
00000140: cb1c eabd 0098 01bf 3617 ca3d 19ea 383c
00000150: ff5f 40be 3aee 88be cb68 f83c a47a 203d
00000160: 83b0 453d a57c 38be 438e 46be 6cb6 9d3c
00000170: bd59 c53c 9cf0 1abe 7376 f0bc 7f32 c0bd
00000180: aea5 dbbd 926d cfbc 62f5 8b3c 0451 0bbe
00000190: 0840 01bd 1576 7e3d ca59 67be 6700 4fbc
000001a0: 6a6b 44be 4204 86be 7853 263c 5620 14be
000001b0: 126a 073d 718d 3fbd 3c60 1bbe 42c2 d3be
000001c0: a9dc bf3d d24c b73d b173 8cbe 2142 c6bd
000001d0: 05ef 183d 394b 43be 4b67 353e 8084 a23d
000001e0: 0e4f 9abd 013d debd f464 1dbc bc24 823d
000001f0: 2b74 e1bc 1845 9d3e fd91 b93c e94f 0ebd
00000200: 9069 343c 6ea5 2f3d 9bb3 dfbe ccc3 c83c
00000210: dd13 ff3c 13e6 28be 6437 173d 3018 f3bc
00000220: 4403 a5bb 4da5 953d 56a3 20be 3d50 53bd
00000230: c9dd 98be bb74 a5be 2b8c 78be 2dc2 adbe
00000240: cbab 55bd 164e e0bd 67c7 72bd 5d82 f8bd
00000250: 2324 e83b a78e d13c 3376 c3bc 1223 8d3d
00000260: cc11 dfbc 976e ca3d b53c db3a c4e2 45be
00000270: e45d d0bd 5c0a 0d3a b819 523d 279e 86be
00000280: 7175 bc3d dc92 2abd 3c90 fcbd 22e1 7ebe
00000290: 5b7a c43d a6dc 21bf 6524 7dbc f24b 3f3b
000002a0: b478 24be 23fb 04be 7cc5 91bd e4f6 d9bd
000002b0: 91c4 4abc b166 13be fa8f 70bd 7d00 c7be
000002c0: cba2 af3a 7c5d 43be 8984 b6bd 9800 1cbe
000002d0: ffd8 823a ae6e 02be ad85 14bd cd02 cebe
000002e0: 03a2 2b3d 6321 55be 01e9 21be 4a97 fabd
000002f0: 68b0 103d 4155 253d 5db3 08bf 25be a13d
00000300: b029 7a3b c3a9 0ebd 3a02 203e efc5 edbc
00000310: dd4d 8fbd 7703 25bd 63ee c7ba 931e a4bd
00000320: 5293 bbbc e8de 9cbd 9dbd 76be b835 833c
00000330: e070 bbbd 37c9 633d 4787 17be fde3 abbe
00000340: 27de cbbc 6482 82be 3bba 6e3b f3e8 5dbc
00000350: 465d 41bc 6538 303d 5a1f 50be 9040 2dbc
00000360: e71a 56bc d88b fabd 26f0 b03d 6dd0 cd3d
00000370: af6f 153d 8151 3ebe 498a f3bc 53b0 49bd
00000380: 0dd0 d33d c6ce 0abd de79 2dbe b87a 30bc
00000390: 37c9 c2bd cd84 773c 62b6 6d3d 995c 62bd
000003a0: 4998 2bbf 74c3 0dbe 9b49 82be a890 fe3c
000003b0: 7c72 ac3d 2954 8e3d 8aee 9c3d 1795 fabe
000003c0: 3356 a33d 8d25 8ebd bf80 963d e773 32bd
000003d0: 9d61 30bd 251d 03be d4b2 65bd 0f0f 07be
000003e0: 6db0 c9bd 4794 913d b431 2dbc 5392 a43b
000003f0: dada d33b 5ae2 4ebe 330d 0dbc 4d4b 09bd
