tau_data/seed0/SAC_STL_critic_100000.pth (torch, 549013 bytes, 10 tensors)

net1.0.weight f4 [256, 7]
0	0x3e4d87f3	0.20071392
1	0x3e934a75	0.28767744
2	0xbb647989	-0.003486248
3	0xbebc0d08	-0.36728692
4	0xbee6e1df	-0.450942
5	0x3e5aadb9	0.21355332
6	0x3e97d017	0.29650947
7	0xbe015960	-0.1263175
8	0xbe75605c	-0.2396254
9	0x3d4e66a3	0.05039085
10	0xbe8e2694	-0.27763808
11	0x3e0df887	0.13864337
12	0xbc98b299	-0.01863985
13	0xbe8d73e3	-0.27627477
14	0x3ea12466	0.31473082
15	0x3dd92d08	0.10604292
16	0xbbc7b5a5	-0.0060946518
17	0x3ec5eedc	0.38658798
18	0x3f0b7c56	0.54486597
19	0xbd456027	-0.0481874
20	0x3ccbfca8	0.02490075
21	0x3eb0f657	0.34562942
22	0xbc65c798	-0.014024638
23	0x3e984ed9	0.29747656
24	0xbcdc76d5	-0.026912132
25	0xbe8cc6c4	-0.27495396
26	0xbb29cab1	-0.0025908167
27	0x3df78d46	0.12087493
28	0xbdd36146	-0.10321288
29	0xbccaabe1	-0.024740161
30	0x3e7e2813	0.24819975
31	0xbedf2c47	-0.43588468
32	0xbed26cfc	-0.41098773
33	0x3dcf7fea	0.101318195
34	0x3e455461	0.19270469
35	0x3ea00e4b	0.31260905
36	0xb901c2e2	-0.00012374998
37	0x3e858482	0.26077658
38	0xbd0bc46e	-0.034122877
39	0x3f2a142a	0.6643702
40	0xbd9f033c	-0.07764289
41	0xbd273c85	-0.0408292
42	0x3e8aac40	0.2708454
43	0xbdc0031c	-0.09375593
44	0x3e5a3317	0.21308552
45	0xbf0a7326	-0.5408195
46	0x3f08c9d6	0.5343298
47	0xbe11500c	-0.14190692
48	0xbd8a3ecc	-0.06750259
49	0xbd9da0c4	-0.07696679
50	0xbdd6464a	-0.10462625
51	0xbe95af96	-0.29235524
52	0xbeff42d5	-0.49855676
53	0x3d6c5b42	0.057704218
54	0x3d940af8	0.072286546
55	0x3d2995e2	0.041402705
56	0xbe286b8d	-0.16447277
57	0x3d84d63f	0.06486177
58	0x3e3a5393	0.18195944
59	0x3eea6f1a	0.4578789
60	0xbda414e0	-0.08011794
61	0x3e14c1c8	0.14527047
62	0xbd9254c8	-0.07145077
63	0xbe6a89de	-0.22904155
64	0xbdb878c1	-0.09007407
65	0x3e8eab3a	0.2786501
66	0xbe88f746	-0.26751155
67	0xbed4d29c	-0.41566932
68	0xbd9fad0b	-0.07796677
69	0xbd701346	-0.05861213
70	0x3eb01c82	0.3439675
71	0xbe3d3df7	-0.18480669
72	0xbe8ab4a0	-0.2709093
73	0xbe1f106c	-0.15533608
74	0x3eb568a4	0.35431397
75	0xbd58bbfe	-0.05291366
76	0xbc98ed8c	-0.018667959
77	0x3ddef678	0.10886854
78	0xbe205fd1	-0.15661551
79	0xbe6d0488	-0.2314626
80	0x3e427700	0.18990707
81	0xbd0a76ee	-0.033804826
82	0x3e12b44c	0.1432659
83	0xbe85f89b	-0.26166233
84	0x3e594c66	0.2122055
85	0xbe91e1ac	-0.28492486
86	0x3bb037b9	0.0053777364
87	0x3ecc5f4b	0.39916453
88	0xbe37c899	-0.17947616
89	0x3d40de52	0.04708702
90	0x3cf5649b	0.029955199
91	0xbc687d09	-0.014189967
92	0xbcc93543	-0.02456153
93	0xbeb1af47	-0.34704039
94	0x3f3ba6b2	0.7330123
95	0x3f4b2122	0.7934743
96	0x3da6504c	0.08120784
97	0xbe47c8ed	-0.19510241
98	0x3ea53f8d	0.32275048
99	0x3e1af5cf	0.15132831
100	0x3c29a2e3	0.010353777
101	0x3c388901	0.011263133
102	0x3f3bf1a8	0.73415613
103	0x3c719683	0.014745357
104	0xbc976c1c	-0.018484168
105	0x3eaa58a2	0.33270746
106	0xbdd73fad	-0.10510192
107	0xbdd82f3e	-0.10555886
108	0x3ecb21fb	0.39674363
109	0xbef31d24	-0.4748317
110	0xbd832599	-0.064036556
111	0xbdde7959	-0.10862989
112	0x3cf035fa	0.029322613
113	0x3e897282	0.26845175
114	0x3e1b015b	0.15137236
115	0xbe191e96	-0.14953074
116	0xbeb3648a	-0.35037643
117	0xbcd44a8c	-0.025914453
118	0x3ca607a5	0.020267317
119	0x3cf02e5e	0.029318985
120	0x3e82c03b	0.25537285
121	0xbe4d577b	-0.20052902
122	0xbd21b70c	-0.039481208
123	0x3ccebff5	0.025238017
124	0xbd112493	-0.03543527
125	0xbb780776	-0.0037846244
126	0xbea57d8b	-0.32322344
127	0x3e2e1bdf	0.1700282
128	0xbe502d60	-0.20329809
129	0x3e7f71db	0.24945776
130	0x3ef1d009	0.4722903
131	0x3e0a68b1	0.13516499
132	0xbcd67026	-0.026176523
133	0xbe8a19d4	-0.2697283
134	0x3d77dad3	0.06051142
135	0x3ea6fbb2	0.32613903
136	0x3dd815a6	0.10551004
137	0x3e486108	0.19568264
138	0xbde942dd	-0.11389706
139	0xbe16129a	-0.14655533
140	0xbe1f7f26	-0.15575847
141	0x3dec5632	0.11539878
142	0x3ca17593	0.019709384
143	0xbe3fc11c	-0.18726009
144	0xbf1ee5cb	-0.62069386
145	0x3c9b7001	0.018974306
146	0x3c580e59	0.0131870145
147	0x3dad9a4a	0.08476694
148	0xbe0f6f52	-0.14007309
149	0xbe092ab4	-0.13395196
150	0x3e218856	0.15774664
151	0x3f1d553b	0.61458176
152	0x3d98992d	0.07451091
153	0x3e1eff41	0.15527059
154	0xbeaa8a4b	-0.33308634
155	0x3e4763a9	0.19471611
156	0x3e5c368f	0.21505187
157	0x3edc92fa	0.43080884
158	0x3ed1c0fd	0.4096755
159	0x3e744d38	0.23857582
160	0xbe69eb7d	-0.22843738
161	0x3ea7ecba	0.32797796
162	0x3e5bb8c8	0.21457207
163	0x3cecfe69	0.028929906
164	0xbf0eebe1	-0.5582867
165	0x3f077fd2	0.52929413
166	0xbd1122a1	-0.035433415
167	0x3d2fedbc	0.04295133
168	0xbeaa714f	-0.33289573
169	0xbe6b4ae5	-0.22977789
170	0xbe0c60fe	-0.13708875
171	0xbcb4853b	-0.022036185
172	0x3e825fde	0.25463766
173	0x3d51b58e	0.051198535
174	0xbe04b815	-0.12960847
175	0xbe6024ce	-0.2188904
176	0xbe4bb702	-0.1989403
177	0x3e9bb732	0.30413204
178	0xbed51ecb	-0.41625056
179	0xbef2c126	-0.47412986
180	0xbe1f61cc	-0.1556465
181	0xbe322643	-0.17397408
182	0xbe4bb3be	-0.19892785
183	0x3eb89dc6	0.36057872
184	0xbd9dc0d2	-0.07702793
185	0xbe0c006a	-0.13672033
186	0x3e5fc14a	0.21851078
187	0xb96b326e	-0.00022430133
188	0x3b261951	0.002534468
189	0xbdee23ef	-0.116279475
190	0x3e8831c2	0.26600462
191	0xbd3901da	-0.04516778
192	0x3ec5ff9b	0.38671574
193	0x3e24f386	0.16108522
194	0x3ef3270c	0.47490728
195	0xbe374996	-0.17899165
196	0xbe5b6de2	-0.21428636
197	0xbe92f8b1	-0.2870536
198	0x3e99e914	0.30060637
199	0xbbbee3b4	-0.005825484
200	0x3e808c85	0.25107208
201	0x3d8e153d	0.06937645
202	0xbc26e63e	-0.01018673
203	0x3e1ed368	0.15510333
204	0x3e0c7b96	0.1371902
205	0xbdeaf135	-0.11471788
206	0x3e41d76a	0.1892983
207	0x3ddb0264	0.10693815
208	0x3d50c450	0.05096847
209	0x3e2bf1d3	0.16791467
210	0x3e8818e7	0.265815
211	0xbdbc9594	-0.09208217
212	0x3e9a83d8	0.30178714
213	0xbefdf329	-0.4959958
214	0xbe52a3f3	-0.20570354
215	0xbd56a8e3	-0.052407157
216	0x3d0ea0ae	0.034821205
217	0x3e03a5e9	0.12856258
218	0x3e403b04	0.18772513
219	0x3d90df81	0.0707388
220	0xbe0cad95	-0.13738091
221	0x3da7d329	0.081945725
222	0x3e1de015	0.15417512
223	0x3ebaeca6	0.36508673
224	0xbd50810f	-0.05090433
225	0x3ead07dc	0.3379506
226	0xbe810feb	-0.25207457
227	0x3e0b9cf5	0.13634093
228	0xbeb5e6e3	-0.35527715
229	0xbce22e31	-0.027609916
230	0x3d045349	0.03230599
231	0xbc5d644c	-0.013512682
232	0xbdc098f8	-0.094041765
233	0x3e02dd6a	0.12779775
234	0xbea0547c	-0.31314456
235	0xbe6cbbef	-0.23118566
236	0x3e340d06	0.17583093
237	0xbd990bfb	-0.07472988
238	0xbe8cd5b2	-0.27506787
239	0xbe77b67c	-0.24190706
240	0x3d83d069	0.064362355
241	0x3e018581	0.12648584
242	0xbed71100	-0.42005157
243	0x3e4ddb99	0.20103301
244	0x3e2a9fed	0.1666257
245	0x3e591df1	0.21202828
246	0xbe0681ad	-0.13135405
247	0xbe1cc859	-0.15310802
248	0x3e050a77	0.12992273
249	0xbeef3ec1	-0.46727565
250	0xbdcf17be	-0.1011195
251	0x3dfe46bc	0.12415835
252	0x3e1f0d6b	0.15532462
253	0xbe969588	-0.29410958
254	0xbe4118f3	-0.18857174
255	0xbf05448d	-0.52057725

net1.0.bias f4 [256]
0	0x3ef4b0f6	0.4779126
1	0x3f08ef81	0.53490454
2	0x3ef47b22	0.47750193
3	0xbf0256d8	-0.50913763
4	0x3e8bc1ad	0.272962
5	0x3dbeb727	0.09312277
6	0x3e412cc7	0.18864737
7	0x3d79222c	0.060823604
8	0xbf25ff88	-0.64843035
9	0x3f233292	0.6374904
10	0x3eff38a9	0.49847916
11	0x3efaba6b	0.4897035
12	0xbe947040	-0.2899189
13	0x3e185469	0.1487595
14	0xbd4c985a	-0.04994998
15	0xbe6d47fc	-0.23171991
16	0x3e83b17f	0.25721356
17	0x3f00d733	0.5032837
18	0xbef0e74c	-0.47051466
19	0xbf0e6436	-0.5562166
20	0x3e55f6c5	0.20894916
21	0x3e595c0d	0.21226521
22	0xbe6f3fb4	-0.23364145
23	0xbe73f642	-0.23824409
24	0xbf084641	-0.532322
25	0x3e1ac97a	0.1511592
26	0xbf10cd1e	-0.56562984
27	0xbed56d6d	-0.41685048
28	0xbf01aa4e	-0.5065049
29	0x3f01d021	0.50708205
30	0x3f0ac159	0.54201275
31	0xbeba6574	-0.36405528
32	0x3d775f1a	0.06039343
33	0x3e81f475	0.25381818
34	0x3eb9961d	0.3624734
35	0x3f2a517d	0.6653059
36	0x3eb67446	0.35635585
37	0x3f0cb9bc	0.5497091
38	0xbe83d21a	-0.25746232
39	0x3f1ef071	0.62085634
40	0x3f37a8d5	0.7174199
41	0xbe98f512	-0.29874474
42	0x3e473a8d	0.19455929
43	0xbebcda02	-0.36885077
44	0xbf0956e4	-0.5364821
45	0xbe9df701	-0.30852512
46	0xbe9be7d8	-0.3045032
47	0xbed82ebe	-0.4222316
48	0x3f0db6f9	0.5535732
49	0x3ec04fa7	0.3756077
50	0x3f3f9e7f	0.7485122
51	0xbe97a3ce	-0.2961716
52	0x3d93d7a0	0.072188616
53	0xbe88828b	-0.26662096
54	0x3f2b8699	0.67002255
55	0x3e0fbc7c	0.14036745
56	0x3e068c1c	0.13139385
57	0x3e34f7fc	0.17672724
58	0xbe39f1fb	-0.18158714
59	0x3e96566e	0.29362816
60	0x3e6e6e25	0.23284204
61	0x3eeefebc	0.46678722
62	0x3f1ba1bf	0.6079368
63	0xbf0c3bb1	-0.5477858
64	0xbeec00bb	-0.46094307
65	0x3d91ab39	0.07112736
66	0xbeeb5782	-0.459652
67	0x3edb6054	0.4284693
68	0xbed09c63	-0.40744314
69	0x3f0241f2	0.50881875
70	0x3e100e9f	0.14068078
71	0x3e715688	0.23568165
72	0xbed69790	-0.41912508
73	0xbe8626e4	-0.26201546
74	0x3eec1c5d	0.4611539
75	0xbd810c4a	-0.06301172
76	0x3f2faf8d	0.68627244
77	0x3ed6aea9	0.4193013
78	0x3ee85ae3	0.4538184
79	0x3ed85e4e	0.4225945
80	0xbef33ddf	-0.4750814
81	0xbee90ecd	-0.45519105
82	0x3e90d847	0.28290007
83	0xbe0683a0	-0.13136148
84	0xbec15aa5	-0.3776447
85	0x3e81698e	0.25275844
86	0x3f204d8a	0.62618315
87	0x3eaf9816	0.3429572
88	0x3ee743d4	0.45168936
89	0x3f347e35	0.70505077
90	0x3dd38157	0.10327404
91	0xbe044a48	-0.12918961
92	0xbf02d948	-0.51112795
93	0xbea93fb7	-0.33056423
94	0x3f15e245	0.58548385
95	0x3f23f187	0.64040416
96	0x3e39e9ec	0.1815564
97	0x3eb9aea0	0.3626604
98	0x3f2f62c0	0.68510056
99	0xbeb39b89	-0.350796
100	0xbec7608b	-0.38940844
101	0xbf108a80	-0.56461334
102	0xbe19b539	-0.15010537
103	0x3ec6192a	0.38691074
104	0x3ce2782f	0.027645199
105	0xbeeb1f1d	-0.45922175
106	0xbe037430	-0.12837291
107	0xbe9be227	-0.30445978
108	0x3ee0ea1c	0.4392861
109	0x3f1245f1	0.5713797
110	0xbed61955	-0.41816202
111	0x3e8b87de	0.27252096
112	0xbe4774c6	-0.1947814
113	0xbf00b83c	-0.5028112
114	0xbd9b84ad	-0.07593665
115	0xbe71671a	-0.23574486
116	0xbed67833	-0.4188858
117	0x3f03782f	0.5135526
118	0x3ef13e94	0.47118056
119	0x3d9d7925	0.07689122
120	0xbef0e503	-0.47049722
121	0xbe2bd733	-0.1678131
122	0xbde2612d	-0.11053691
123	0x3eafe702	0.34355932
124	0x3ed53865	0.41644588
125	0xbeffac8b	-0.49936327
126	0x3ebe5420	0.37173557
127	0x3ed2f6de	0.4120397
128	0x3f04ce87	0.51877636
129	0x3e99b619	0.30021742
130	0xbe45ccbb	-0.1931638
131	0x3d8933f0	0.066993594
132	0xbf071862	-0.5277158
133	0xbe92eb0e	-0.28694957
134	0x3e754fdc	0.23956245
135	0x3ec9bb9f	0.39400956
136	0x3f323ef7	0.69627327
137	0x3e826f72	0.2547565
138	0xbec1769a	-0.37785798
139	0x3ef68deb	0.4815515
140	0xbf16fd9f	-0.58980745
141	0x3edd958c	0.43278158
142	0x3efbbac5	0.4916593
143	0xbea97847	-0.33099577
144	0x3f05c103	0.5224764
145	0xbec9a9e7	-0.39387438
146	0xbf036329	-0.5132318
147	0xbed5410f	-0.41651198
148	0xbec72885	-0.388981
149	0x3ed200fc	0.41016376
150	0x3ecc2668	0.39873052
151	0x3e1fdc97	0.15611492
152	0x3ea99154	0.3311869
153	0xbea2628b	-0.31715807
154	0x3f1fa092	0.62354386
155	0xbf040053	-0.51562995
156	0x3ed48dd3	0.41514453
157	0x3e0354b2	0.12825277
158	0x3ef7c2b1	0.48390725
159	0xbe540b0b	-0.20707338
160	0xbef93c97	-0.4867904
161	0x3ef90063	0.48633108
162	0x3eb67e53	0.35643253
163	0xbeec5338	-0.4615724
164	0x3f18deda	0.59715044
165	0xbe5ac3e0	-0.21363783
166	0x3f18c688	0.59677935
167	0x3f36d4f8	0.71418715
168	0xbecb573d	-0.39714995
169	0x3ef1d117	0.47229835
170	0x3ec4ed7a	0.3846243
171	0xbf10c123	-0.56544703
172	0x3e79d5ce	0.24397966
173	0xbe85d47e	-0.2613868
174	0xbe5ba72c	-0.2145049
175	0xbede2751	-0.4338937
176	0xbecf8b09	-0.40535763
177	0xbec2aadb	-0.38020977
178	0xbee6ae24	-0.45054734
179	0x3f317a75	0.6932748
180	0x3f26836d	0.6504429
181	0xbea1fde8	-0.31639028
182	0xbf169b99	-0.58831173
183	0x3e90a193	0.2824827
184	0x3ed1e992	0.40998513
185	0x3f2aafab	0.666743
186	0xbeed72c3	-0.4637662
187	0xbef49d7a	-0.47776395
188	0x3ebfc5cd	0.37455598
189	0x3ee1d3a0	0.4410677
190	0xbf07f986	-0.5311512
191	0x3e6870ea	0.22699323
192	0x3e3ccbe6	0.18437156
193	0x3f210006	0.6289066
194	0x3d90dde8	0.07073575
195	0x3f0a74bf	0.5408439
196	0x3f05e97b	0.5230939
197	0xbe1100f0	-0.14160514
198	0xbeadd0ed	-0.3394846
199	0x3f2a7e9c	0.6659944
200	0xbe4dfb1c	-0.20115322
201	0xbeeeab6f	-0.46615168
202	0x3e1c731e	0.15278289
203	0x3f2a13ec	0.6643665
204	0x3f2581af	0.64651006
205	0xbecdc2b6	-0.40187615
206	0x3e8171cd	0.25282136
207	0x3f1f72e9	0.62284714
208	0x3eae7041	0.34070018
209	0xbf0fc4f8	-0.56159925
210	0x3edddefd	0.4333419
211	0x3eeb8467	0.45999452
212	0x3ee13c3b	0.43991265
213	0xbf10e5d1	-0.5660067
214	0xbf146283	-0.57962817
215	0x3d079e7d	0.03311013
216	0x3ee3f70b	0.44524416
217	0x3ef1c420	0.47219944
218	0x3f17a80d	0.592408
219	0xbea312ce	-0.31850284
220	0x3ea9f008	0.33190942
221	0xbf08ce01	-0.53439337
222	0x3ece3279	0.40272883
223	0x3f04d7c8	0.51891756
224	0xbd9faedf	-0.07797026
225	0x3f00ecc6	0.5036129
226	0xbe443379	-0.1916026
227	0x3ec036cb	0.37541804
228	0x3ee17742	0.440363
229	0x3ef83700	0.48479462
230	0x3f3aeead	0.7302044
231	0xbef63ba5	-0.4809238
232	0xbec677ab	-0.38763174
233	0x3dc22e32	0.09481467
234	0xbed6ec03	-0.41976938
235	0x3ee1beec	0.44090974
236	0xbf19bfcb	-0.6005828
237	0x3ee6e930	0.45099783
238	0x3f2ad965	0.6673797
239	0xbec3edd9	-0.382674
240	0xbf367691	-0.7127467
241	0x3e37b018	0.17938268
242	0xbe3f8543	-0.18703179
243	0x3f0b3ddc	0.54391265
244	0x3eba1dde	0.36350912
245	0x3f329091	0.6975184
246	0xbef2a07f	-0.47388074
247	0xbf042402	-0.51617444
248	0x3f0fdd1e	0.56196773
249	0x3eaf0abe	0.34187883
250	0xbed52f23	-0.41637525
251	0xbec11f20	-0.3771906
252	0xbea9146a	-0.33023387
253	0x3e13f99e	0.1445069
254	0x3f3620df	0.7114391
255	0x3eccf010	0.40026903

net1.2.weight f4 [256, 256]
0	0xbf15e8eb	-0.5855853
1	0xbd460906	-0.04834845
2	0x3d1a63a5	0.037692685
3	0x3d712b2c	0.058879063
4	0x3ccd3fd7	0.025054855
5	0x3d2d3caf	0.0422942
6	0x3d6f5bde	0.05843722
7	0xbd35a3a5	-0.044345517
8	0x3e1b9822	0.15194753
9	0xbd1ce502	-0.038304336
10	0x3d378d60	0.04481256
11	0xbdc46a25	-0.09590558
12	0x3e24abcb	0.16081159
13	0x3c8d6e9b	0.017264655
14	0xbe6195e0	-0.22029829
15	0x3de4da1d	0.11174414
16	0xbd2678d1	-0.040642563
17	0xbd22ef36	-0.03977891
18	0x3e1779d3	0.14792566
19	0x3db5e9f1	0.088825114
20	0xbca15e74	-0.01969836
21	0x3c414297	0.011795661
22	0x3d4dc47d	0.050236214
23	0xbde580b1	-0.112061866
24	0x3d48f780	0.04906416
25	0xbd077d21	-0.033078317
26	0x3db8c1dc	0.09021351
27	0x3e10ec8f	0.1415274
28	0x3de4daf8	0.111745775
29	0xbf294149	-0.6611524
30	0xbd866a15	-0.06563202
31	0xbef31e83	-0.47484216
32	0x3d92e330	0.07172239
33	0xbd195ddc	-0.037443027
34	0x3d8df95d	0.06932328
35	0xbd12fec5	-0.0358875
36	0xbd566f08	-0.05235198
37	0xbcacec06	-0.021108638
38	0xbd92db54	-0.0717074
39	0x3d49d852	0.049278565
40	0xbdd405dd	-0.10352681
41	0x3d9914b5	0.07474653
42	0xbc35590a	-0.011068592
43	0x3e1c172d	0.15243216
44	0x3dea7ca6	0.11449556
45	0xbe158af2	-0.14603785
46	0xbdc8178b	-0.097701155
47	0x3bf83816	0.0075750453
48	0xbd13eb5d	-0.03611313
49	0xbbd3372c	-0.006445786
50	0xbe5291d7	-0.20563446
51	0x3d44fe2d	0.048093963
52	0x3da2363d	0.079205014
53	0x3e0ee9e0	0.13956404
54	0xbd995b0d	-0.0748807
55	0xbc109c38	-0.008826308
56	0xbcb28421	-0.02179152
57	0x3c8b51dd	0.017006809
58	0x3de628d7	0.11238258
59	0xbd1b6a12	-0.037942953
60	0x3dbf6d8f	0.093470685
61	0xbc7f9b91	-0.015601055
62	0xbdc52bc5	-0.09627489
63	0x3d040771	0.03223366
64	0x3e23ecf8	0.16008365
65	0x3dba0711	0.09083379
66	0x3e03d93c	0.12875837
67	0x3cd27bb2	0.025693748
68	0x3e45b9df	0.19309185
69	0x3d9b3567	0.07578545
70	0xbc06f13c	-0.008236226
71	0xbcf9e905	-0.03050662
72	0x3e13a799	0.14419402
73	0x3bd7dcf2	0.006587618
74	0xbc88735b	-0.016656568
75	0x3d5cfde2	0.05395306
76	0x3d1fec13	0.039043497
77	0xbad9675a	-0.0016586587
78	0x3ca8359b	0.020533374
79	0xb931d230	-0.00016958336
80	0xbd5dde3c	-0.054167017
81	0xbd5ad578	-0.053426236
82	0x3d6110dc	0.05494772
83	0x3c9b4ca4	0.018957444
84	0x3e538cdc	0.20659202
85	0xbcce7212	-0.025200877
86	0x3ce5ebd2	0.02806655
87	0x3cd812b6	0.02637611
88	0x3d168c8f	0.03675514
89	0xbd9128e6	-0.07087879
90	0x3d559916	0.052147947
91	0x3e4cb820	0.19992113
92	0x3e19a022	0.15002492
93	0x3d123157	0.035691585
94	0xbcc0cb8e	-0.023534562
95	0x3d3c02d9	0.045901153
96	0x3e0278cc	0.12741393
97	0xbcfbeee7	-0.030753566
98	0xbd86c269	-0.065800495
99	0xbde25552	-0.1105143
100	0x3da95a0b	0.082691275
101	0xbde54575	-0.111948885
102	0x3c054843	0.008134904
103	0xbc2e5235	-0.010639717
104	0xbe60036b	-0.21876304
105	0xbeda030b	-0.42580447
106	0x3dde4b09	0.108541556
107	0x3cd8344d	0.026392126
108	0xbddd05f9	-0.10792155
109	0xbc57528d	-0.01314224
110	0x3daf207d	0.085511185
111	0xbd06c724	-0.03290476
112	0xbd6e4bb8	-0.05817768
113	0xbd11de0c	-0.03561215
114	0x3dfd4b10	0.12367833
115	0x3df38a88	0.11891657
116	0x3d396d47	0.04527023
117	0x3d811ea0	0.063046694
118	0xbdae596b	-0.08513149
119	0x3d4a612c	0.049409077
120	0xbe80cbca	-0.2515548
121	0xbe20bb79	-0.15696515
122	0xbdac9045	-0.08425955
123	0xbd44466d	-0.047918726
124	0xbeacb067	-0.33728334
125	0x3d2e47f2	0.04254908
126	0xbd561898	-0.05226955
127	0xbda5e879	-0.08100981
128	0x3ba6d788	0.0050916113
129	0xbdc454c7	-0.095864825
130	0x3e3b921a	0.18317452
131	0x3c81aa0a	0.015828151
132	0x3d30d199	0.043168638
133	0xbe8c269c	-0.27373207
134	0xbba92a7f	-0.0051625366
135	0xbca8a786	-0.020587694
136	0xbe2668e8	-0.16250956
137	0x3d197c4f	0.037472066
138	0x3d7b5a04	0.061365142
139	0x3ca85a43	0.020550853
140	0x3d96061b	0.07325383
141	0xbd5cd454	-0.05391343
142	0xbdaf3fb2	-0.08557071
143	0xbcb79d78	-0.022413954
144	0xbd4ee4d4	-0.050511196
145	0x3d2e4a47	0.042551305
146	0x3e07188d	0.13192959
147	0x3cc944bf	0.024568914
148	0x3cafa560	0.021441162
149	0x3d355028	0.044265896
150	0xbd36096e	-0.044442587
151	0xbdc336d6	-0.095319435
152	0xbce66c35	-0.028127769
153	0xbd39792d	-0.045281578
154	0xbe986666	-0.29765624
155	0x3e2642ae	0.16236374
156	0xbd25cc57	-0.040478077
157	0x3e4e0961	0.20120765
158	0x3dcd436b	0.100226246
159	0x3ce17f18	0.027526423
160	0xbd4ffa4d	-0.050775815
161	0xbd892bc4	-0.06697801
162	0xbc4fb44e	-0.012677265
163	0x3b544ffe	0.0032396312
164	0xbe6921ad	-0.22766753
165	0x3cf230e9	0.029564338
166	0xbcd8cf59	-0.026466059
167	0xbe6d2b70	-0.23161101
168	0x3dcaeaf7	0.09908097
169	0xbd38390e	-0.044976287
170	0x3d1dceff	0.038527485
171	0xbe1251dd	-0.14289041
172	0x3d6ced49	0.05784348
173	0x3dbdeeba	0.09274049
174	0x3db5b1d6	0.0887181
175	0x3db3d4a3	0.087807916
176	0x3e56ae8a	0.20965019
177	0xba13587f	-0.0005620792
178	0xbd9cc7a1	-0.07655264
179	0xbf12302e	-0.57104766
180	0x3d043cf9	0.03228471
181	0x3db4af9b	0.088225566
182	0x3d10390a	0.035210647
183	0x3dad5546	0.0846353
184	0xbd104695	-0.035223562
185	0xbd8b833d	-0.06812141
186	0x3dae3af9	0.08507342
187	0x3e1ec5e9	0.15505184
188	0x3d24cbfe	0.040233605
189	0x3dc3f3fc	0.09568021
190	0xbc3a1594	-0.011357684
191	0x3d4326e3	0.047644507
192	0xbdfed0fd	-0.12442205
193	0xbc38664d	-0.011254859
194	0x3d8f4280	0.06995106
195	0xbdad8256	-0.08472125
196	0xbd8ed132	-0.069734946
197	0x3db7872e	0.0896133
198	0x3e1d237f	0.15345572
199	0x3ccc9c85	0.024976978
200	0x3d6edd75	0.058316667
201	0x3e04717e	0.12933919
202	0x3d7c0186	0.06152489
203	0xbb109f17	-0.0022067481
204	0xbdcc510b	-0.09976395
205	0x3ddae0f8	0.10687441
206	0xbde97eeb	-0.11401161
207	0x3b8fe49e	0.004391267
208	0xbd77581c	-0.060386762
209	0xbe44bc72	-0.19212511
210	0xbd334d42	-0.04377485
211	0xbe107750	-0.14108014
212	0xbcf6b36e	-0.030114856
213	0x3d934c4d	0.071922876
214	0xbcd3f47e	-0.025873419
215	0x3cd3a9d1	0.02583781
216	0x3c8e02e8	0.01733537
217	0x3d04cb1f	0.032420274
218	0x3d8f604a	0.070007876
219	0x3d8a95c4	0.06766847
220	0x3d8d9f27	0.069151215
221	0x3c44b38f	0.012005701
222	0x3d6330e1	0.055466536
223	0xbca858c0	-0.020550132
224	0xbe6e581b	-0.23275797
225	0x3cca66b9	0.024707185
226	0x3e07268a	0.13198295
227	0xbe0c00b1	-0.13672139
228	0x3d06a78f	0.03287464
229	0x3b893b59	0.004187983
230	0xbe4b43bc	-0.19850057
231	0x3dbaebae	0.091269836
232	0xbe74b72b	-0.23897998
233	0x3da3db51	0.08000816
234	0x3e12e500	0.14345169
235	0x3da00d6c	0.0781506
236	0x3c409497	0.011754177
237	0xbbe7a1eb	-0.0070688627
238	0xbd84f4db	-0.06492015
239	0x3d7367fa	0.05942533
240	0xbe33abfc	-0.17546076
241	0x3d6e75f1	0.058217946
242	0x3e0417d8	0.1289972
243	0xbeadb5a5	-0.33927646
244	0xbd0bb742	-0.034110315
245	0x3d59763b	0.05309127
246	0xbc14203c	-0.009040888
247	0xbdbdacca	-0.092614725
248	0xbdb14856	-0.08656375
249	0x3d8beaaa	0.06831868
250	0x3e01eb46	0.12687406
251	0xbe18dcb9	-0.14927949
252	0x3e2de364	0.16981274
253	0xbe3e8f6d	-0.186094
254	0xbdbed5bb	-0.093181096
255	0xbd45e0fe	-0.048310272

net1.2.bias f4 [256]
0	0xbe23a2b9	-0.15980043
1	0xbe979038	-0.29602218
2	0x3e6f3925	0.23361643
3	0xbd60a5e0	-0.05484569
4	0xbd5d054f	-0.05396014
5	0xbd87ad88	-0.06624895
6	0xbd29f611	-0.041494433
7	0x3eab3fc3	0.33447084
8	0x3ca35b6d	0.019941056
9	0x3afed968	0.0019443454
10	0xbe16496a	-0.14676443
11	0xbe5797d5	-0.21054013
12	0x3e54b45d	0.20771928
13	0xbd600f9d	-0.05470239
14	0x3ec57617	0.38566658
15	0x3e8f738e	0.2801785
16	0x3d39426b	0.045229357
17	0x3d4a269e	0.049353234
18	0x3bb6eb99	0.0055822846
19	0xbd2e6321	-0.042575005
20	0xbe91a7ec	-0.28448427
21	0x3e1e7dd2	0.15477684
22	0x3cfd5272	0.030923102
23	0x3e8cd052	0.27502686
24	0xbc71ec70	-0.014765844
25	0x3ec4f801	0.38470462
26	0xbd53708f	-0.051621016
27	0x3d25934a	0.04042367
28	0xbe4fa3fe	-0.20277402
29	0x3c173331	0.009228514
30	0xbd7de332	-0.06198425
31	0xbcdae9e8	-0.026722863
32	0x3ec7402a	0.3891614
33	0x3e864abd	0.26228896
34	0xbdcbf02d	-0.09957919
35	0xbe1d9f75	-0.1539286
36	0x3eb57be9	0.35446098
37	0x3e8e143f	0.27749822
38	0x3ea00f8d	0.31261864
39	0x3e4ecca9	0.20195259
40	0xbe1402e9	-0.14454235
41	0xbd09a989	-0.033608947
42	0x3ea5ec99	0.32407072
43	0x3e0507a4	0.12991196
44	0xbe3b9ebf	-0.18322276
45	0xbe789620	-0.24276018
46	0xbe37632f	-0.1790893
47	0xbd4c6ae4	-0.049906626
48	0x3ed029b4	0.40656817
49	0x3d0e73ae	0.03477829
50	0x3e44ba95	0.192118
51	0xbd3f89be	-0.04676222
52	0xbb6eaa5a	-0.0036417455
53	0xbe6dbf79	-0.23217572
54	0x3c94b4ec	0.018152677
55	0x3d20141a	0.03908167
56	0xbc86c7c9	-0.016452687
57	0x3c976e4a	0.018485207
58	0x3e8a26f5	0.26982847
59	0x3cfe98f2	0.03107879
60	0xbddd11a7	-0.107943825
61	0xbda5e791	-0.081008084
62	0x3e889c3e	0.26681703
63	0xbe91f8ae	-0.2851004
64	0xbd22ea3d	-0.03977417
65	0x3c356293	0.011070865
66	0x3e82e94d	0.2556862
67	0xbce7dccc	-0.028303526
68	0x3e50775b	0.2035803
69	0x3bbd642f	0.005779765
70	0x3ec1388b	0.3773845
71	0xbe3c4bf9	-0.18388356
72	0xbe1f9173	-0.15582828
73	0xba857a0e	-0.001018347
74	0xbe24a926	-0.1608015
75	0xbd0d6e9c	-0.034529313
76	0xbc5a18f2	-0.0133116115
77	0xbd94d3d2	-0.07266964
78	0xbe8d894f	-0.2764382
79	0xbe52f6a7	-0.20601903
80	0x3ec2ff9a	0.38085634
81	0xbe1436d1	-0.14474036
82	0xbc6c7656	-0.01443251
83	0xbea67b84	-0.3251611
84	0x3e8edc67	0.2790253
85	0xbd3b3e62	-0.04571379
86	0x3bb46db8	0.0055062436
87	0x3e9cae4e	0.30601734
88	0x3e8406ed	0.25786534
89	0x3e1fb80d	0.15597554
90	0xbd80f5bb	-0.06296869
91	0xbcda4e26	-0.026648592
92	0x3c6eb0f1	0.014568553
93	0xbd2c1fbb	-0.042022448
94	0x3cb34663	0.021884149
95	0x3d5be796	0.053687654
96	0xbb4c92fe	-0.0031215544
97	0x3eafc576	0.34330338
98	0x3d0021b3	0.031282138
99	0xbe647802	-0.22311404
100	0x3d3ea14c	0.046540543
101	0xbe79bec7	-0.24389182
102	0xbe46f249	-0.19428362
103	0x3d1ba79b	0.038001638
104	0xbc38421d	-0.011246231
105	0x3e839706	0.2570116
106	0x3c9b9972	0.018994067
107	0x3d53f02a	0.05174271
108	0x3d5894d2	0.0528763
109	0xbd51fc03	-0.051265728
110	0xbb850868	-0.00405984
111	0xbd5d9530	-0.054097354
112	0xbcbbaec4	-0.022910483
113	0x3ebde9dd	0.37092486
114	0x3cf6e331	0.03013763
115	0x3ea8f657	0.33000442
116	0x3e767bf8	0.24070728
117	0xbe6974de	-0.22798488
118	0x3ce4a6ce	0.02791157
119	0xbcef7091	-0.02922848
120	0x3ead2884	0.33819973
121	0x3ed36d9c	0.41294563
122	0xbe69ff9f	-0.22851418
123	0xbc15340a	-0.009106645
124	0x3eae9cf8	0.34104133
125	0x3e94d1f7	0.2906644
126	0x3e465cdc	0.1937136
127	0x3ec91fa2	0.39281946
128	0x3eb266ae	0.34843963
129	0xbc1d3980	-0.009596229
130	0x3ea3a762	0.3196364
131	0x3e8b28b3	0.2717949
132	0x3e96772f	0.29387805
133	0xbe076cea	-0.13225141
134	0x3bf0914d	0.00734154
135	0x3e3d47d7	0.18484436
136	0x3ec4a884	0.38409817
137	0x3e4ad745	0.19808681
138	0x3c901c20	0.017591536
139	0xbd8c1426	-0.068397805
140	0xbe7c32dc	-0.24628776
141	0x3b9bb7ee	0.0047521507
142	0x3c1aa7b4	0.009439398
143	0x3c72c8d0	0.014818385
144	0xbe3f5a53	-0.186868
145	0xbe151823	-0.14559989
146	0xbe90b349	-0.28261784
147	0xbe82f699	-0.25578764
148	0x3ec1f9e8	0.37885976
149	0x3e8a3462	0.2699309
150	0x3eb1dcae	0.34738678
151	0xbe186e98	-0.14885938
152	0xbd955eac	-0.07293448
153	0xbdfc7a25	-0.12327985
154	0xbd6b15ee	-0.05739396
155	0x3eb6a8d9	0.35675696
156	0x3ec324b1	0.3811393
157	0x3be8cba7	0.0071043554
158	0xbe073b9c	-0.13206333
159	0x3c38c63b	0.011277731
160	0xbd35e85c	-0.04441105
161	0xbd4069f7	-0.046976056
162	0xbe536fd9	-0.20648135
163	0x3ec7a3f2	0.38992268
164	0x3d4c6d75	0.049909074
165	0xbd00625a	-0.031343795
166	0x3e702f85	0.23455627
167	0xbe73c801	-0.23806764
168	0x3ded53c3	0.11588242
169	0xbd8128bc	-0.063065976
170	0x3eb997a9	0.3624852
171	0x3eb55605	0.3541719
172	0x3d758d03	0.059948932
173	0xbd957f7e	-0.07299708
174	0x3e90a71c	0.28252494
175	0x3b0bcf00	0.0021333098
176	0xbca26109	-0.01982166
177	0xbd477de3	-0.04870404
178	0xbc888a1b	-0.016667416
179	0x3ca969d3	0.020680344
180	0xbd62f871	-0.055412713
181	0xbd9f1ee3	-0.07769563
182	0x3ebcf4d6	0.36905545
183	0xbd6c1930	-0.05764121
184	0x3e8c0a29	0.27351502
185	0x3d09ff0d	0.0336905
186	0xbd8bf955	-0.06834666
187	0x3e81e5c7	0.2537062
188	0x3ac08d10	0.0014690477
189	0xbe320f9b	-0.17388766
190	0x3b127ca4	0.0022352124
191	0x3e928414	0.28616393
192	0xbcfe6119	-0.03105216
193	0xbd203fdd	-0.039123405
194	0xbd03a16e	-0.032136373
195	0xbd7f38df	-0.062310096
196	0xbd602c91	-0.05473
197	0x3d08c529	0.03339115
198	0x3c9e1bda	0.01930039
199	0xbdcccf97	-0.10000532
200	0xbce5e356	-0.028062504
201	0xbcc0d8ef	-0.023540942
202	0x3d00df68	0.031463057
203	0xbd8374e8	-0.064187825
204	0x3d60221a	0.05472002
205	0xbd29ae4b	-0.041425984
206	0x3e6f8c9f	0.23393486
207	0xbc19ef31	-0.009395407
208	0x3e9af156	0.3026225
209	0x3c82f763	0.015987104
210	0xbe69a5d3	-0.22817163
211	0x3cccbe5c	0.024993114
212	0x3ea79085	0.32727447
213	0xbd515220	-0.05110371
214	0xbc4d38cb	-0.0125257475
215	0xbe921814	-0.28533995
216	0x3e81cb26	0.25350302
217	0x3e824f46	0.25451106
218	0xbd9a5b23	-0.07536914
219	0x3ca2093f	0.0197798
220	0x3e31a70d	0.17348881
221	0xbe09b124	-0.1344648
222	0xbe43f5a9	-0.1913668
223	0x3d09752d	0.033559013
224	0x3e8a3320	0.2699213
225	0xbe24b687	-0.16085254
226	0xbd7393a7	-0.059466984
227	0xbd0cbffd	-0.03436278
228	0xbe832e40	-0.25621223
229	0x3e99bcad	0.3002676
230	0x3e688ff0	0.22711158
231	0x3ea3b26c	0.31972063
232	0xbea363ba	-0.31912023
233	0x3d08c2e4	0.033388987
234	0xbd36638e	-0.044528536
235	0xbe341420	-0.17585802
236	0xbd80cc6f	-0.062889926
237	0x3e95db6b	0.29268965
238	0xbd8a71fe	-0.067600235
239	0xbe8cbdb6	-0.27488488
240	0xbd82076c	-0.06349072
241	0x3e1ccc8d	0.15312405
242	0xbd2d21ae	-0.042268448
243	0x3ea2f0fd	0.31824484
244	0x3e40ec7e	0.18840215
245	0xbe84e6a4	-0.25957215
246	0x3eb5f6f3	0.3553997
247	0xbdac9c59	-0.084282584
248	0x3e9a16b1	0.30095437
249	0xbdc28172	-0.09497346
250	0x3d258580	0.04041052
251	0x3d25f207	0.04051402
252	0x3d0db51d	0.03459655
253	0x3e8c3741	0.27385905
254	0xbd24885d	-0.04016911
255	0x3d542fd6	0.051803432

net1.4.weight f4 [1, 256]
0	0x3e0eb669	0.13936771
1	0x3e1a9f82	0.1509991
2	0xbf189d79	-0.59615284
3	0x3ad10043	0.0015945513
4	0x3b4b0782	0.0030979817
5	0xbc78bacb	-0.015181254
6	0x3c89a524	0.016802378
7	0xbe04a171	-0.1295221
8	0xbab66bff	-0.0013917683
9	0xbd10e601	-0.0353756
10	0x3e029e93	0.12755804
11	0x3de501b0	0.111819625
12	0xbebe5057	-0.3717067
13	0xb902cdb5	-0.00012474398
14	0xbe1d61dd	-0.15369363
15	0xbe015d8e	-0.12633345
16	0xbc49c936	-0.012316039
17	0xbb9838ec	-0.0046454575
18	0xbc171f22	-0.009223731
19	0xbcae59ee	-0.021283116
20	0x3dedb2ad	0.11606345
21	0xbe1c505e	-0.15265033
22	0x3d533801	0.05156708
23	0xbe01be27	-0.12670194
24	0x3d0ee674	0.034887746
25	0xbe41f1b9	-0.18939866
26	0x3d141ff9	0.036163304
27	0xbd466633	-0.04843731
28	0x3d8be959	0.06831617
29	0xbd0ba4e0	-0.034092784
30	0xbcf40407	-0.029787077
31	0x3d29f35a	0.041491844
32	0xbe3d8797	-0.18508755
33	0xbe047c1b	-0.12937967
34	0x3c15342b	0.009106676
35	0x3d297ad1	0.041376892
36	0xbe13659e	-0.14394233
37	0xbe0b37c6	-0.13595495
38	0xbe0b46fe	-0.136013
39	0xbdfad8ed	-0.122484066
40	0x3d53e9da	0.05173669
41	0x3c6f1949	0.014593431
42	0xbe006dc6	-0.12541875
43	0xbef7f5e4	-0.48429787
44	0x3dc1878a	0.0944968
45	0x3de92e22	0.11385752
46	0x3e32ed9c	0.17473453
47	0xbd45ea13	-0.048318934
48	0xbe41077d	-0.18850513
49	0x3d1e4062	0.03863562
50	0xbee6ebc2	-0.45101744
51	0xbcbafd49	-0.022825854
52	0x3d11cd13	0.035595965
53	0x3daceb3b	0.08443304
54	0x3c2071f3	0.009792793
55	0x3d08eb32	0.033427425
56	0xbcd340f0	-0.0257878
57	0xbc542101	-0.012947322
58	0xbdf4ae83	-0.11947348
59	0x3d09d35f	0.033648845
60	0x3e202f2e	0.15642998
61	0xbc0c3352	-0.008557158
62	0xbe26fcfc	-0.16307443
63	0x3e0e5c35	0.13902362
64	0x3a09da69	0.0005258681
65	0xbb000a0d	-0.001953724
66	0xbdf6c126	-0.12048559
67	0x3d58d960	0.05294168
68	0xbf748446	-0.95514333
69	0x3cb6f3cc	0.022333048
70	0xbe1d83db	-0.1538233
71	0x3de0a987	0.10969835
72	0x3e07334f	0.13203166
73	0xbc7620df	-0.0150224855
74	0x3e4238ed	0.18967028
75	0x3c90b073	0.017662263
76	0xbb9b6502	-0.0047422657
77	0xbd63b316	-0.05559071
78	0x3e4447ba	0.19167987
79	0x3de20ef0	0.11038005
80	0xbe49d602	-0.19710544
81	0x3e1a2b1f	0.15055512
82	0x3dd80611	0.10548032
83	0x3e063267	0.13105164
84	0xbe00eef1	-0.12591149
85	0xbd100633	-0.035162162
86	0xbc9d074e	-0.019168522
87	0xbe25b2ce	-0.1618149
88	0xbe2b2629	-0.16713776
89	0xbeb4fd31	-0.3534942
90	0xbc7c3b5e	-0.015395014
91	0xbcad37dd	-0.021144802
92	0xbd295b70	-0.041346967
93	0x3c6c274d	0.014413667
94	0x3b7814f3	0.0037854284
95	0x3d03d586	0.032186054
96	0xbd23bc72	-0.039974637
97	0xbe377f1e	-0.17919585
98	0xbcb2eb6f	-0.02184078
99	0x3dee89d6	0.11647384
100	0x3c701794	0.014654059
101	0x3d37883f	0.04480767
102	0x3d98ad6e	0.07454954
103	0x3d5130b6	0.051071845
104	0xbc9a3fb8	-0.018829212
105	0xbe1345c6	-0.14382085
106	0x3b290940	0.0025792867
107	0x3b6a2cd7	0.0035732293
108	0xbca447d1	-0.020053776
109	0xbd38d901	-0.045128826
110	0x3c566647	0.013085908
111	0x3b393324	0.0028259242
112	0x3cc45260	0.02396506
113	0xbe41e85d	-0.18936296
114	0xbd340e25	-0.0439588
115	0xbe17fd24	-0.14842659
116	0xbe1c8f69	-0.15289082
117	0x3e0da915	0.13834031
118	0x3cee3a6b	0.02908059
119	0xbc3f2498	-0.0116664395
120	0xbe0fc7fa	-0.14041129
121	0xbe49db89	-0.19712652
122	0x3dc6570b	0.09684571
123	0x3a3cdc66	0.0007204473
124	0xbe384cf3	-0.17998104
125	0xbe1bb4f9	-0.15205754
126	0xbe9ecb6f	-0.31014583
127	0xbe727dec	-0.23680848
128	0xbe1322bd	-0.1436872
129	0x3d115858	0.03548464
130	0xbe20688d	-0.15664883
131	0xbe24a752	-0.16079453
132	0xbe0de7e5	-0.13857992
133	0x3dacd3d1	0.08438838
134	0x3d3351d4	0.04377921
135	0xbee0236c	-0.43777025
136	0xbe2c18cb	-0.16806333
137	0xbf09fae3	-0.5389845
138	0xbd07b407	-0.03313067
139	0xbd2ec2f0	-0.042666376
140	0x3e222edf	0.15838192
141	0xba85b122	-0.0010199884
142	0x3c317f65	0.010833596
143	0x3c454a6f	0.012041672
144	0x3e1f3940	0.15549183
145	0x3def3b7a	0.11681266
146	0x3df38bf1	0.11891926
147	0x3e0e71b9	0.13910569
148	0xbe17b208	-0.14814007
149	0xbe2b6fc2	-0.16741851
150	0xbe28c638	-0.16481864
151	0x3e38387f	0.17990302
152	0x3e21bf04	0.15795523
153	0x3da1e433	0.07904854
154	0x3b85850c	0.0040746983
155	0xbe466a21	-0.19376422
156	0xbe3a2852	-0.18179443
157	0xbd20691f	-0.03916275
158	0x3e379151	0.17926528
159	0x3b03c80b	0.0020108249
160	0x3d5a4f22	0.053298123
161	0x3d1cc4d9	0.038273666
162	0x3e216e68	0.15764773
163	0xbe3a4bdc	-0.18193
164	0xbc0199ec	-0.007910233
165	0xbd5a0a18	-0.053232282
166	0xbeed370c	-0.4633106
167	0x3e44f19d	0.19232793
168	0xbe65c2dd	-0.22437616
169	0xbd1e0dde	-0.038587444
170	0xbe4420a3	-0.19153075
171	0xbe1b8d03	-0.1519051
172	0x3cea1f31	0.028579326
173	0xbb22ecb1	-0.0024860317
174	0xbdf097ae	-0.117476806
175	0x3c43ced8	0.011951171
176	0xbcf471ae	-0.029839363
177	0xbbde339e	-0.0067810556
178	0x3c07e07a	0.0082932655
179	0xbc2131ab	-0.009838502
180	0xbd15f5b3	-0.03661127
181	0x3ca0dade	0.019635614
182	0xbe0fe233	-0.14051132
183	0xbd11ec61	-0.03562582
184	0xbe1cf457	-0.15327583
185	0xbcd8b916	-0.026455443
186	0xbb1afc5a	-0.0023648948
187	0xbe2cfb7b	-0.16892807
188	0xb921f2b0	-0.00015444565
189	0x3dbd3b22	0.09239794
190	0xbd2276b9	-0.039664004
191	0xbe1e0dae	-0.15434906
192	0xbd1c0c80	-0.03809786
193	0x3c262c23	0.010142359
194	0x3d27537c	0.0408511
195	0xbcf8916b	-0.030342778
196	0xbc977623	-0.01848895
197	0x3bfe470b	0.007759934
198	0xbca0ec17	-0.019643826
199	0x3e07f1e9	0.13275875
200	0xbd1d4d41	-0.038403753
201	0xbba41df8	-0.0050084554
202	0x3ce4b678	0.02791904
203	0x3d567022	0.052353032
204	0xbd28e7b7	-0.041236605
205	0xbcf05829	-0.029338913
206	0xbe63d274	-0.2224825
207	0xbd290aa1	-0.041269902
208	0xbe122bbc	-0.14274496
209	0x3c7179b0	0.014738485
210	0x3e2b0cca	0.16704097
211	0xbab67d47	-0.0013922834
212	0xbe1d5437	-0.15364157
213	0xbccd7330	-0.02507934
214	0x3baa64f9	0.005200025
215	0x3d9ab68f	0.075543515
216	0xbe1b9257	-0.15192543
217	0xbe1d01b1	-0.15332676
218	0xbc43ca33	-0.0119500635
219	0x3f02120c	0.5080879
220	0xbe8eeea5	-0.27916446
221	0x3e055314	0.13019973
222	0x3dbd4ef3	0.09243574
223	0xbabf33a1	-0.001458753
224	0xbe2d31d1	-0.16913535
225	0x3d9b1ef4	0.07574263
226	0x3bd73f24	0.0065688062
227	0xbbca2970	-0.0061694905
228	0x3b502e4d	0.0031765879
229	0xbe0a8990	-0.13529038
230	0xbdd17e85	-0.1022921
231	0xbe4aac8e	-0.19792387
232	0x3e2504d9	0.1611513
233	0x3cfa1391	0.030526908
234	0x3daea5ea	0.08527739
235	0x3d985123	0.074373506
236	0x3d2f35a2	0.042775758
237	0xbde07c82	-0.10961248
238	0xbc05a860	-0.0081578195
239	0x3e086d70	0.13322997
240	0xbd0e4745	-0.034735937
241	0xbf116a9d	-0.56803304
242	0x3e00ac36	0.12565693
243	0xbe2139ee	-0.15744755
244	0xbeb79396	-0.35854787
245	0x3e23e134	0.16003877
246	0xbe1ed303	-0.15510182
247	0x3c1553a9	0.009114184
248	0xbe4f34fd	-0.20235057
249	0x3d6cff41	0.057860617
250	0x3c48694a	0.012232134
251	0x3bc7900a	0.006090169
252	0xbca42726	-0.020038199
253	0xbef78d37	-0.48349926
254	0x3c6d489f	0.014482646
255	0xbcc8ec17	-0.024526639

net2.0.weight f4 [256, 7]
0	0xbe916342	-0.2839604
1	0xbb07d949	-0.0020728877
2	0xbe879887	-0.26483557
3	0xbef4961b	-0.4777077
4	0xbef4b0a1	-0.47791007
5	0xbb88bf0f	-0.0041731666
6	0x3e0e0aa5	0.13871248
7	0xbe1bf3a5	-0.15229662
8	0xbea682c2	-0.32521635
9	0x3e0de2ba	0.1385602
10	0x3e9c57d2	0.30535752
11	0x3e7d577d	0.24740405
12	0x3ca94420	0.020662367
13	0xbaa06c9d	-0.00122394
14	0xbe084300	-0.13306808
15	0x3e007d9f	0.1254792
16	0xbe662746	-0.22475919
17	0x3dd7bfe3	0.10534646
18	0x3e9ca466	0.30594176
19	0xbe7383d4	-0.23780757
20	0x3e922b7a	0.28548795
21	0x3e4768e1	0.19473602
22	0xbe77a349	-0.24183382
23	0x3ca5b27b	0.020226708
24	0xbc1bf6f9	-0.009519332
25	0xbecdbf7e	-0.4018516
26	0x3ddd8e21	0.108181246
27	0xbd800492	-0.06250872
28	0xbe98cd0b	-0.29843935
29	0xbe4e0614	-0.20119506
30	0x3cc7057a	0.024294604
31	0xbf0ace05	-0.5422061
32	0xbde9668c	-0.113965124
33	0x3e24ab76	0.16081032
34	0x3cc1de36	0.023665529
35	0xbdfdaeff	-0.123868935
36	0xbe0486ff	-0.12942122
37	0xbe517c09	-0.20457472
38	0xbee3ff97	-0.44530937
39	0xbc88895a	-0.016667057
40	0xbe069c5a	-0.13145581
41	0xbdd5d1e1	-0.10440422
42	0x3e2f9035	0.17144854
43	0xbdac5113	-0.08413901
44	0xbe6896c8	-0.22713768
45	0x3da1a7ca	0.07893331
46	0x3ea9f764	0.33196557
47	0xbddedc16	-0.10881822
48	0x3e620928	0.22073805
49	0x3d93d153	0.0721766
50	0x3dee10a9	0.116242714
51	0xbe1c870f	-0.15285896
52	0x3f34013d	0.7031439
53	0xbe87dcf2	-0.26535755
54	0xbe66d5a8	-0.22542441
55	0x3dab6f7c	0.08370873
56	0x3d4b4c62	0.04963339
57	0xbe9181fc	-0.28419483
58	0xbe7a827b	-0.24463837
59	0x3ea50d64	0.3223678
60	0x3db831cb	0.08993872
61	0xbdcee3c3	-0.10102036
62	0xbd1c90c0	-0.03822398
63	0xbde752f5	-0.1129512
64	0x3e4e27b1	0.20132329
65	0xbceb301b	-0.028709462
66	0xbeea65d0	-0.45780802
67	0xbeda7fe2	-0.42675692
68	0x3e7ee667	0.24892579
69	0x3dabb96d	0.083849765
70	0xbe1e24ff	-0.154438
71	0xbe747a44	-0.23874766
72	0x3df2ac5d	0.11849282
73	0xbed1e860	-0.409976
74	0xbdf61f51	-0.12017692
75	0xbd6513e4	-0.055927172
76	0x3ca14024	0.019683905
77	0xbe620a9b	-0.22074358
78	0x3e971a9b	0.29512486
79	0xbdbe557d	-0.09293649
80	0x3ec320f9	0.38111094
81	0x3f0ce0d7	0.5503058
82	0xbe65ad57	-0.22429405
83	0xbde59669	-0.11210329
84	0xbe15418e	-0.14575788
85	0x3e3d27ed	0.18472262
86	0xbd435291	-0.047686163
87	0x3ea76745	0.32695976
88	0x3e8ba4b8	0.27274108
89	0x3e0edc01	0.13951112
90	0xbdac53c8	-0.084144175
91	0x3dd0388f	0.10167038
92	0xbe877e80	-0.264637
93	0xbd9145af	-0.07093369
94	0xbf0aa73f	-0.5416145
95	0x3e382176	0.17981514
96	0xbe742ba3	-0.23844771
97	0x3e69cea3	0.22832732
98	0xbd9ea66c	-0.07746586
99	0xbea1ecb1	-0.31625894
100	0xbe897475	-0.26846662
101	0xbeec09f0	-0.46101332
102	0xbc10eb35	-0.00884514
103	0xbe799ef9	-0.2437705
104	0xbbaa21a5	-0.005191999
105	0xbdd3e3e6	-0.103462026
106	0xbe789636	-0.24276051
107	0xbe8f9d04	-0.2804948
108	0x3ea5e2c9	0.32399586
109	0x3e909b3c	0.28243434
110	0x3d736644	0.0594237
111	0xbd089b31	-0.033351127
112	0x3e4c1d3c	0.19933027
113	0xbea1fb10	-0.31636858
114	0x3d9c4a8c	0.07631406
115	0x3e52d544	0.20589167
116	0xbed8f085	-0.42371002
117	0x3df823de	0.12116216
118	0xbc55cac5	-0.013048832
119	0xba468495	-0.0007572857
120	0xbb0cdabb	-0.0021492678
121	0xbe697037	-0.22796713
122	0xbeb5bdfb	-0.35496506
123	0xbf0f3c3a	-0.55951273
124	0x3bc9ea13	0.006161937
125	0xbd901806	-0.07035832
126	0xbebb8a2b	-0.3662885
127	0xbc656d1a	-0.014003063
128	0xbd681e3c	-0.05666946
129	0xbf151de9	-0.58248764
130	0xbf07a56b	-0.5298678
131	0x3da42853	0.08015504
132	0xbd4ebe40	-0.050474405
133	0x3ebc26d8	0.36748385
134	0x3dc629a4	0.09675911
135	0x3e336187	0.17517672
136	0xbd50e16d	-0.050996233
137	0xbea0ad27	-0.31382105
138	0xbe51ab19	-0.20475425
139	0x3dc76ad1	0.097371705
140	0xbd1df94a	-0.03856782
141	0x3e7a55db	0.24446814
142	0x3e478eec	0.19488114
143	0x3da40b13	0.08009925
144	0x3ebff93f	0.37494847
145	0xbd44513b	-0.04792903
146	0xbd892c31	-0.06697882
147	0xbea05176	-0.3131215
148	0xbe94a1d9	-0.2902973
149	0xbe8be58d	-0.2732357
150	0xbf188101	-0.59571844
151	0xbe062cb4	-0.1310299
152	0x3c942436	0.018083673
153	0x3ce8844f	0.028383402
154	0xbead7c02	-0.33883673
155	0x3e821ae1	0.25411132
156	0xbd6774cf	-0.05650788
157	0x3efdae6e	0.49547142
158	0x3ec9b90d	0.39398995
159	0xbe08a89c	-0.1334557
160	0x3d4899f6	0.048974954
161	0xbe804bb0	-0.25057745
162	0x3e5878b5	0.21139796
163	0x3e1ee61e	0.1551747
164	0x3e2957f7	0.16537462
165	0x3ed68193	0.41895732
166	0x3e054916	0.13016161
167	0xbd917133	-0.07101669
168	0x3e78df72	0.24303988
169	0x3e8adfb2	0.2712379
170	0xbe1fa264	-0.15589291
171	0x3e242c00	0.1603241
172	0xbef04ae9	-0.46932152
173	0xbcdd7106	-0.027031433
174	0xbc097287	-0.008389122
175	0x3e0e05b3	0.13869362
176	0xbe62fb03	-0.22166066
177	0x3e7895cd	0.24275894
178	0xbf192e03	-0.59835833
179	0x3e512ad3	0.20426492
180	0xbe53c758	-0.20681512
181	0xbc8fad8e	-0.017538812
182	0xbdf47932	-0.11937179
183	0x3e550db7	0.20806013
184	0xbddac476	-0.10682003
185	0x3ee829ef	0.45344493
186	0x3eacbc4e	0.33737415
187	0x3e0b34eb	0.13594405
188	0xbe52b5b0	-0.20577121
189	0xbc0a4c81	-0.0084410915
190	0x3e3bbf1e	0.18334624
191	0xbc6e362c	-0.014539283
192	0x3e83b1cf	0.25721595
193	0xbdce7b0b	-0.10082062
194	0xbd9233e4	-0.071388036
195	0xbd4069fd	-0.04697608
196	0xbeb6621b	-0.35621724
197	0xbd9bf8ce	-0.07615815
198	0xbd5c4356	-0.053775154
199	0x3e4216ca	0.18954006
200	0x3ec0ede5	0.376815
201	0x3dc1b503	0.09458353
202	0x3cfab894	0.030605592
203	0xbe5d848b	-0.21632592
204	0xbeaa8048	-0.33300996
205	0xbe1ed8f5	-0.1551245
206	0x3ef7b910	0.4838338
207	0xbe16ef5a	-0.14739743
208	0x3bef2ae1	0.0072988127
209	0x3c4aa305	0.012367968
210	0xbcd926e4	-0.026507802
211	0x3dc12a5e	0.09431909
212	0xbdf7f21a	-0.12106724
213	0xbec453a0	-0.3834505
214	0xbf1cd99e	-0.6126956
215	0x3e52fcdb	0.20604269
216	0xbe6d7fa0	-0.23193216
217	0x3e5875da	0.21138707
218	0x3e239e1d	0.15978284
219	0xbd8eafbc	-0.069671124
220	0x3eab546a	0.3346284
221	0x3ee6abb8	0.45052886
222	0xba543703	-0.00080953556
223	0xbe1ae1e1	-0.15125228
224	0x3b9237a9	0.0044622016
225	0xbd47dba4	-0.04879345
226	0x3e54a0d7	0.2076448
227	0xbf0fd2c5	-0.56180984
228	0xbf0df722	-0.5545522
229	0x3d8028d7	0.062577896
230	0x3e0ddea0	0.13854456
231	0x3e074269	0.13208927
232	0xbe9541e9	-0.29151848
233	0x3e12d7de	0.1434016
234	0xbe8d756e	-0.27628654
235	0xbdfe5784	-0.12419036
236	0x3dc8f7d9	0.09812898
237	0x3e1fb27d	0.15595432
238	0xbe712cbd	-0.23552223
239	0x3e8d8bc0	0.27645683
240	0xbd72745e	-0.059193008
241	0x3ddfdbee	0.1093062
242	0x3e2bdbfe	0.16783139
243	0x3e4c1ef3	0.19933681
244	0xbd904d0b	-0.07045945
245	0xbd1f884e	-0.03894835
246	0xbd3251d0	-0.043535054
247	0x3ec62582	0.3870049
248	0x3e598b67	0.21244584
249	0xbe72f656	-0.23726782
250	0x3d7e9398	0.062152475
251	0x3e1c3ee2	0.15258363
252	0x3e540ef7	0.20708834
253	0x3e4a9500	0.19783401
254	0x3de71655	0.11283556
255	0xbecb3779	-0.3969076

net2.0.bias f4 [256]
0	0x3d670c27	0.056408074
1	0xbeb6cd02	-0.35703284
2	0xbed36575	-0.41288343
3	0xbe8faba5	-0.28060642
4	0x3eafae0f	0.34312484
5	0x3e98fc93	0.298802
6	0xbf00d96f	-0.5033178
7	0x3cb3e197	0.021958156
8	0xbf0b6d39	-0.54463536
9	0xbc65e0a8	-0.014030613
10	0x3e2351d9	0.15949191
11	0xbf0068cb	-0.501599
12	0xbe8890ec	-0.26673067
13	0x3eebe122	0.460702
14	0x3f142193	0.5786373
15	0xbeae7628	-0.3407452
16	0x3f360a24	0.71109223
17	0x3ebbd438	0.36685348
18	0x3ec16e85	0.37779632
19	0xbed19e7b	-0.40941224
20	0xbf239513	-0.63899344
21	0x3e73a3a9	0.237929
22	0xbed7af24	-0.4212581
23	0xbf03f0d2	-0.5153934
24	0x3f40878f	0.75206846
25	0x3e97bdda	0.29637033
26	0xbdcdc48d	-0.10047255
27	0x3f337e27	0.7011437
28	0xbed2194e	-0.4103493
29	0xbeeac09c	-0.45850074
30	0x3df6ec5a	0.12056799
31	0x3edb5a30	0.42842245
32	0x3e251f73	0.16125278
33	0x3f2eb531	0.68245226
34	0xbee6146d	-0.4493746
35	0x3e96f441	0.29483226
36	0x3f2c1c7f	0.6723098
37	0x3effcecb	0.49962458
38	0x3f132a32	0.5748626
39	0xbea41d6c	-0.32053697
40	0xbe52f765	-0.20602186
41	0x3ce4050d	0.02783444
42	0x3f28300c	0.65698314
43	0x3f1faa83	0.62369555
44	0x3ef424a4	0.47684205
45	0x3ee5e207	0.44899008
46	0xbea8245e	-0.32840246
47	0xbeab080e	-0.33404583
48	0xbeed0602	-0.46293646
49	0x3e431cd0	0.1905396
50	0xbf146880	-0.57971954
51	0xbeb24525	-0.34818378
52	0x3eec01c1	0.46095088
53	0x3e888d43	0.26670274
54	0x3e7ba93c	0.24576277
55	0xbefc4c28	-0.49276853
56	0xbf155fd8	-0.5834937
57	0xbf2a70ee	-0.6657857
58	0x3f0db304	0.5535128
59	0x3f030c53	0.5119068
60	0x3f19f8d1	0.6014529
61	0xbf0454dc	-0.51691985
62	0xbf163a3c	-0.5868261
63	0xbeedadc7	-0.46421644
64	0x3e5f793a	0.21823588
65	0xbe919663	-0.28435048
66	0x3f3a6472	0.7280952
67	0x3ef53c56	0.47897595
68	0x3eddc309	0.43312863
69	0x3f2d3847	0.67664
70	0x3f0ed687	0.5579609
71	0x3f0a2eed	0.53977853
72	0xbe5db417	-0.2165073
73	0x3f101673	0.56284255
74	0x3eda65ab	0.42655692
75	0xbf299c0d	-0.6625374
76	0x3e404dae	0.18779632
77	0x3ddae7d7	0.10688751
78	0x3f06cb2e	0.5265378
79	0x3f07751a	0.5291306
80	0x3f0cce57	0.5500235
81	0xbe103953	-0.14084367
82	0xbebae38f	-0.36501738
83	0x3ea7873b	0.3272036
84	0x3f0f6eab	0.5602824
85	0xbf0fbd77	-0.56148475
86	0xbf1a98bf	-0.6038932
87	0x3f0d2f6c	0.55150485
88	0xbec52e7e	-0.38512033
89	0xbea4f806	-0.32220477
90	0xbef41572	-0.4767261
91	0xbec7f9d7	-0.390578
92	0x3ef923d3	0.48660144
93	0xbe938e17	-0.28819343
94	0x3c9ae336	0.01890717
95	0x3e97ddee	0.29661506
96	0xbe983f3a	-0.29735738
97	0x3e813985	0.25239196
98	0x3f28ec52	0.65985596
99	0x3f304394	0.68853116
100	0x3f2fc4d7	0.6865973
101	0x3ec61b4c	0.386927
102	0x3f076d77	0.52901405
103	0x3ea91455	0.33023325
104	0x3f2a9b67	0.66643375
105	0xbeb44af5	-0.35213438
106	0x3ebc8029	0.36816528
107	0x3ed3a147	0.41333982
108	0x3f27c058	0.6552787
109	0xbee1813b	-0.44043908
110	0x3dda6e17	0.10665529
111	0x3f2d5574	0.67708516
112	0xbed897d7	-0.42303345
113	0xbeaf9d99	-0.34299925
114	0xbe89b0e9	-0.26892784
115	0xbed3d0d4	-0.4137026
116	0x3ea24b70	0.3169818
117	0xbeebbd02	-0.4604264
118	0xbeeddcfc	-0.4645766
119	0x3e3f5000	0.18682861
120	0x3eea22f2	0.45729786
121	0x3f2c88d9	0.6739631
122	0xbedfff1e	-0.43749326
123	0x3e3c2d2a	0.18376604
124	0x3ee7cc08	0.4527285
125	0xbc7cecca	-0.015437314
126	0xbe95bf97	-0.29247734
127	0x3e060d4c	0.1309101
128	0x3f2954b7	0.6614489
129	0xbf0fba40	-0.5614357
130	0xbef053fd	-0.46939078
131	0xbec3a13d	-0.38208953
132	0xbeb275db	-0.34855542
133	0x3f0f755f	0.5603847
134	0xbe07a829	-0.13247742
135	0xbeec06d1	-0.4609895
136	0xbec2835f	-0.37990853
137	0xbf05d4e5	-0.52277976
138	0xbdf34706	-0.11878781
139	0x3f01e6a6	0.50742567
140	0xbec47e5f	-0.38377663
141	0xbd8da07e	-0.06915377
142	0x3f1b806a	0.6074282
143	0x3ef62a74	0.48079264
144	0x3f1afd5a	0.60542834
145	0x3f0c4a14	0.54800534
146	0x3f273653	0.6531727
147	0x3f224d12	0.6339885
148	0x3df66700	0.120313644
149	0xbf0c5316	-0.5481428
150	0x3f0256ad	0.50913507
151	0x3e825150	0.25452662
152	0xbe9c0073	-0.30469093
153	0xbf0d0f1b	-0.55101174
154	0x3f10badf	0.5653514
155	0x3f263df0	0.6493826
156	0x3f1a10ab	0.60181683
157	0xbf17c181	-0.5927964
158	0xbf23c378	-0.63970137
159	0x3f1e88c7	0.61927456
160	0x3f1b1451	0.60577875
161	0xbed13a11	-0.40864614
162	0x3f2acf2e	0.6672238
163	0xbe695b76	-0.22788796
164	0xbe7fd310	-0.24982858
165	0x3de0627e	0.10956286
166	0x3f0345ac	0.51278186
167	0xbe72c973	-0.2370966
168	0x3e70b5cd	0.23506851
169	0x3e014ee3	0.12627749
170	0xbde6d51e	-0.11271118
171	0x3eda9472	0.4269138
172	0x3f05997f	0.5218734
173	0x3da99f63	0.08282354
174	0x3f18fe8c	0.5976341
175	0x3f138733	0.5762817
176	0xbef3b252	-0.47596985
177	0x3e7926be	0.24331185
178	0x3f26e0c5	0.6518672
179	0xbcf7523e	-0.030190583
180	0xbed6d9d4	-0.41963065
181	0xbed5d759	-0.4176586
182	0x3e73f792	0.2382491
183	0x3f150550	0.5821123
184	0x3dd3e554	0.10346475
185	0x3e8ff9d9	0.28120306
186	0x3f2fd1d6	0.6867956
187	0x3ec44b0f	0.38338515
188	0xbed7b657	-0.42131302
189	0xbe3b4925	-0.18289621
190	0xbef2a9f0	-0.47395277
191	0xbdf89022	-0.12136866
192	0x3c180674	0.009278882
193	0xbee9a19a	-0.45631105
194	0xbe01cd14	-0.12675887
195	0xbcdc6137	-0.026901824
196	0xbe5ad1b5	-0.2136906
197	0x3f142f7c	0.57884955
198	0xbecf9c93	-0.40549144
199	0xbe999c1c	-0.30001915
200	0x3eb463d3	0.3523241
201	0x3dcd00ef	0.10009944
202	0x3e6f7aae	0.23386642
203	0x3e0af561	0.13570167
204	0x3ee298e3	0.44257268
205	0xbf096a5e	-0.5367793
206	0x3ea2e48c	0.31814992
207	0x3ed027af	0.40655276
208	0x3e7a0d9c	0.24419254
209	0xbd1ebd21	-0.038754586
210	0xbee22275	-0.44166914
211	0x3f053249	0.52029854
212	0xbe80c115	-0.2514731
213	0xbe9421bb	-0.28931984
214	0x3da6f213	0.08151641
215	0xbe9d011b	-0.30664906
216	0x3ec30f4a	0.38097602
217	0x3ea0f51e	0.3143701
218	0xbe27f15b	-0.16400664
219	0xbeb61dab	-0.3556951
220	0x3d030697	0.031988706
221	0xbe23ec41	-0.16008092
222	0xbd76aaea	-0.06022159
223	0xbf271adc	-0.6527536
224	0xbe6885aa	-0.22707239
225	0x3f1a2ccc	0.60224605
226	0x3e98c6a5	0.29839054
227	0x3f349d43	0.7055246
228	0xbf110e9b	-0.5666291
229	0x3f09d06d	0.5383366
230	0x3d059336	0.032611094
231	0x3ec6e6df	0.38848016
232	0x3ec8e347	0.392359
233	0xbea98260	-0.3310728
234	0x3ea8e600	0.32987976
235	0x3efec673	0.4976078
236	0xbec81e5d	-0.39085665
237	0xbe6bf3f1	-0.23042275
238	0xbef87c66	-0.48532408
239	0x3c401f5e	0.0117262285
240	0xbe745400	-0.23860168
241	0x3ef23bfa	0.47311383
242	0xbeba0141	-0.36329082
243	0x3f2f7a23	0.6854574
244	0x3db974cb	0.090554796
245	0xbe9e13fa	-0.30874616
246	0x3eb459cd	0.35224763
247	0xbeb53693	-0.353932
248	0x3d8268d5	0.063676514
249	0x3e595808	0.21224988
250	0x3f151759	0.5823875
251	0x3f3107c3	0.6915247
252	0xbf02ba46	-0.5106548
253	0xbec29761	-0.38006118
254	0x3f0ed6ac	0.55796313
255	0xbdf1bfed	-0.11804185
