tau_data/seed0/SAC_STL_actor_300000.pth (torch, 275779 bytes, 6 tensors)

net.0.weight f4 [256, 5]
0	0x3db99ae2	0.09062745
1	0x3e43baeb	0.19114272
2	0xbf27767e	-0.6541518
3	0xbeac9a12	-0.33711296
4	0xbeb0fed1	-0.3456941
5	0x3e70f93c	0.23532575
6	0xbec554a9	-0.38541153
7	0xbd6a7536	-0.057240687
8	0x3f2e2bb0	0.6803541
9	0x3e201bdd	0.15635629
10	0x3ced822d	0.028992737
11	0x3ea6a3eb	0.32546934
12	0xbe50e9c3	-0.20401673
13	0xbd13c2a1	-0.036074284
14	0xbd1a5096	-0.03767451
15	0xbd15c674	-0.036566213
16	0x3bf6b136	0.0075284494
17	0xbe8c64e2	-0.27420717
18	0xbf50a7b6	-0.81505907
19	0xbd43f241	-0.047838453
20	0x3ea7e07d	0.32788458
21	0x3e4f8875	0.20266898
22	0xbd957fbc	-0.07299754
23	0x3df2e567	0.11860161
24	0xbe97b835	-0.29632726
25	0xbec95f04	-0.39330304
26	0x3f13ffce	0.578122
27	0xbe62094c	-0.22073859
28	0xbec1619c	-0.37769783
29	0xbd11e807	-0.03562167
30	0xbea4ca71	-0.321857
31	0x3e2991c2	0.16559508
32	0xbf302a1b	-0.6881425
33	0x3da925f0	0.08259189
34	0x3f3ae935	0.73012096
35	0xbe37942a	-0.17927614
36	0x3d382ed3	0.04496653
37	0x3ed08713	0.40728053
38	0x3fa88501	1.316559
39	0x3fb79631	1.434271
40	0xbea67725	-0.32512775
41	0xbcb97326	-0.022637915
42	0x3eb35489	0.35025433
43	0x3dc87d5a	0.09789534
44	0x3ea5ea0d	0.3240513
45	0xbeaa762d	-0.33293286
46	0x3f12ef2f	0.57396215
47	0x3e9e634d	0.30935135
48	0xbe9de4ee	-0.30838722
49	0xbe53f29d	-0.20698018
50	0x3d14aabe	0.036295645
51	0x3f1af0b6	0.60523546
52	0x3df06008	0.117370665
53	0x3f3a206d	0.7270573
54	0x3fa70e3e	1.3051221
55	0x3d5fe7f7	0.05466458
56	0x3ddebe06	0.10876088
57	0xbe27c804	-0.16384894
58	0xbf449210	-0.76785374
59	0xbe0179f4	-0.12644178
60	0x3eadce02	0.33946234
61	0x3ef231f4	0.47303736
62	0xbe57a075	-0.21057303
63	0x3f5e2c26	0.86786115
64	0x3e14fc69	0.14549412
65	0xbeb81de1	-0.35960296
66	0x3e94f325	0.29091755
67	0x3ed52cd8	0.41635776
68	0x3f8b021a	1.0860016
69	0xbc812542	-0.015764836
70	0xbf05ef57	-0.5231833
71	0xbf05c7d8	-0.5225806
72	0x3f1c145e	0.6096858
73	0x3ef6ea8f	0.4822583
74	0xbd9ae329	-0.075628586
75	0x3eabfe40	0.33592415
76	0x3ead6ee6	0.3387367
77	0xbf01784e	-0.50574195
78	0x3e181bfc	0.14854425
79	0xbe8c1cfd	-0.27365866
80	0xbf07e42d	-0.53082544
81	0x3ebb2e6d	0.36558858
82	0x3e1e5abe	0.15464303
83	0xbe7fed59	-0.24992885
84	0xbbae7c39	-0.005324867
85	0x3c2da496	0.010598322
86	0x3d49b0e5	0.049240965
87	0xbf0caeed	-0.54954416
88	0x3f5a9f84	0.8539965
89	0xbf324d6d	-0.6964939
90	0xbdf01f45	-0.11724714
91	0xbe0162d0	-0.1263535
92	0x3f03f123	0.5153982
93	0x3ec3ab87	0.38216802
94	0xbf10f1e1	-0.5661908
95	0xbe3458fb	-0.17612068
96	0x3ef48326	0.47756308
97	0xbe83a609	-0.25712612
98	0xbea6d2e4	-0.32582772
99	0x3eababab	0.3352941
100	0x3e553908	0.20822537
101	0xbdb70f80	-0.08938503
102	0xbef4eb73	-0.47835883
103	0x3d2e88a8	0.042610794
104	0xbeec083f	-0.4610004
105	0x3da8229e	0.08209728
106	0x3d5dcbe2	0.054149516
107	0xbeb00ea9	-0.34386185
108	0xbe573c67	-0.21019135
109	0xbeae7dd8	-0.34080386
110	0x3e0aa0a9	0.1353785
111	0x3ecaab8e	0.3958401
112	0xbf3dc6c6	-0.7413143
113	0x3ea44cc7	0.32089826
114	0x3e81916e	0.25306267
115	0xbe91ca71	-0.28474763
116	0xbe861434	-0.2618729
117	0x3ab4c644	0.0013791998
118	0xbec27292	-0.37978035
119	0xbcb86846	-0.022510659
120	0x3d9eb1b8	0.07748741
121	0x3d280182	0.041017063
122	0xbda9a464	-0.08283308
123	0x3f392126	0.72316206
124	0x3e7a0b7a	0.2441844
125	0x3e2b021b	0.16700022
126	0x3dbe69ae	0.092975006
127	0xbedbcf4b	-0.4293159
128	0xbd74462e	-0.05963724
129	0x3cdac7ae	0.026706543
130	0xbecb756a	-0.39738017
131	0xbdb7d42e	-0.08976017
132	0xbed5ae58	-0.41734576
133	0xbd7ca3eb	-0.06167976
134	0x3f661de9	0.8988939
135	0xbf0da530	-0.5533018
136	0xbe090160	-0.13379431
137	0xbd299bd4	-0.041408375
138	0x3f2db835	0.678592
139	0x3f67113a	0.9026066
140	0x3f0e632d	0.5562008
141	0xbcfff1d1	-0.031243237
142	0x3eec9c88	0.46213174
143	0x3e63d764	0.22250134
144	0xbd1dc05f	-0.038513537
145	0xbdfdce7b	-0.12392899
146	0x3d1975c8	0.03746584
147	0x3e5f8ab4	0.21830255
148	0xbf254596	-0.64559305
149	0xbe811a4b	-0.25215372
150	0xbdb9db12	-0.090749875
151	0xbe0645de	-0.1311259
152	0xbd9c68f7	-0.07637208
153	0x3f1d879a	0.61535037
154	0x3f4d3f12	0.8017436
155	0xbf1dbba7	-0.6161446
156	0x3e95ef70	0.2928424
157	0xbe8998fa	-0.26874524
158	0xbeb51647	-0.3536856
159	0x3f20582a	0.6263453
160	0xbda94ca9	-0.08266575
161	0x3e36b8d0	0.17843938
162	0x3e393326	0.18085918
163	0xbf9187bb	-1.1369547
164	0x3c39b665	0.01133499
165	0xbebd390b	-0.36957583
166	0xbcee9a47	-0.0291263
167	0x3f042036	0.5161165
168	0xbe593f40	-0.21215534
169	0xbe049bbe	-0.12950036
170	0x3d92bbf1	0.07164753
171	0xbeaff12d	-0.3436369
172	0x3e6635ca	0.22481456
173	0x3f4224d1	0.7583743
174	0xbea2c013	-0.31787166
175	0x3df2d989	0.11857898
176	0xbd4c43d7	-0.049869385
177	0xbd1f6552	-0.038914986
178	0x3f658b8d	0.8966606
179	0x3cca2f0a	0.024680633
180	0xbd873b18	-0.06603068
181	0xbefdc6d0	-0.49565744
182	0x3edbc390	0.4292264
183	0xbc8aa02c	-0.016922079
184	0x3f0ab332	0.5417968
185	0x3e71fd50	0.23631787
186	0xbea48a5d	-0.32136813
187	0x3de9238a	0.11383732
188	0xbceb953a	-0.02875768
189	0x3f6d9274	0.92801595
190	0x3df34095	0.118775524
191	0x3d88631b	0.06659528
192	0xbc659c17	-0.0140142655
193	0x3e60eca6	0.21965274
194	0xbea91ede	-0.33031362
195	0xbea2f282	-0.31825644
196	0xbebc3480	-0.36758804
197	0x3e839317	0.25698158
198	0x3e70ef5d	0.2352881
199	0x3f72488a	0.94641936
200	0xbede5d51	-0.4343057
201	0x3f098e01	0.53732306
202	0xbeecb9a7	-0.46235391
203	0xbd0312a3	-0.032000195
204	0x3e6ca864	0.23111111
205	0x3e5cfb27	0.21580182
206	0xbe75dccb	-0.24010007
207	0x3e2e0b08	0.16996396
208	0x3f78f064	0.97241807
209	0x3ea72c9c	0.32651222
210	0x3d8af0ed	0.06784234
211	0xbe677f71	-0.22607209
212	0x3e36cc1e	0.17851302
213	0x3f4bfee0	0.79685783
214	0x3f0e08f8	0.55482435
215	0x3e0538b2	0.13009909
216	0xbed042aa	-0.4067586
217	0xbeb9cafa	-0.3628767
218	0x3f461bb5	0.7738603
219	0xbf623243	-0.88357943
220	0xbe05bd6e	-0.13060543
221	0x3f174581	0.5909043
222	0x3e613294	0.2199195
223	0x3e34b8ab	0.1764857
224	0xbf104939	-0.5636173
225	0xbca7f04d	-0.020500327
226	0xbe1be0c9	-0.15222467
227	0xbd7a94fa	-0.06117723
228	0xbec4de0d	-0.3845066
229	0x3f04b589	0.518395
230	0xbda468f4	-0.08027831
231	0x3f8417c4	1.0319753
232	0x3e0b16c2	0.135829
233	0x3ef8db92	0.4860502
234	0x3e9546b1	0.29155496
235	0xbef568cd	-0.4793152
236	0x3ed4d49a	0.41568452
237	0xbe746e05	-0.23870094
238	0xbeb53848	-0.35394502
239	0x3f23038b	0.6367728
240	0x3dddc7ae	0.108291015
241	0x3e447710	0.19186044
242	0x3e439805	0.1910096
243	0xbf28681e	-0.6578387
244	0x3eae89ee	0.34089607
245	0xbf317557	-0.6931967
246	0x3e6be1ab	0.23035304
247	0xbea51f7a	-0.32250577
248	0x3ea77b79	0.3271139
249	0x3f1a7249	0.60330635
250	0xbe23b3c7	-0.15986548
251	0x3e411bdb	0.18858282
252	0x3f039ec3	0.51414126
253	0xbf067887	-0.5252766
254	0xbf287c45	-0.6581462
255	0x3c9364bd	0.017992372

net.0.bias f4 [256]
0	0xbefab316	-0.48964757
1	0xbe921a76	-0.28535813
2	0xbe5aa0ed	-0.21350451
3	0x3c972091	0.018448146
4	0x3d984282	0.0743456
5	0xbee4d3e7	-0.4469292
6	0xbf63c46f	-0.8897161
7	0xbe1c0193	-0.15234976
8	0xbeffa0f9	-0.499275
9	0xbf4170eb	-0.75562924
10	0xbbaee493	-0.0053373068
11	0x3e874f33	0.26427612
12	0xbef5b4e3	-0.47989568
13	0xbd8e5de1	-0.069515
14	0xbe9b8206	-0.30372638
15	0xbf0331ee	-0.5124806
16	0xbe85ebf0	-0.2615657
17	0xbf6e539a	-0.93096316
18	0x3ee2455a	0.44193536
19	0xbf586225	-0.84524757
20	0xbe47d901	-0.19516374
21	0xbe3181dc	-0.17334694
22	0xbe82d3f0	-0.2555232
23	0x3f0e3121	0.55543715
24	0x3db0cee0	0.08633208
25	0xbebdcd6d	-0.3707079
26	0xbe38e955	-0.18057759
27	0xbf7001ee	-0.93752944
28	0xbf80c659	-1.0060531
29	0xbd1f8589	-0.03894571
30	0x3f08136f	0.53154653
31	0xbef01694	-0.46892226
32	0x3d44faef	0.04809087
33	0xbf2aa658	-0.6666007
34	0xbeb1feb1	-0.34764627
35	0x3e62cb45	0.22147854
36	0xbf0096be	-0.50230014
37	0xbefb27cd	-0.49053803
38	0x3d70f378	0.05882594
39	0xbdc50f24	-0.096220285
40	0xbf12607c	-0.57178473
41	0xbf51fe41	-0.82028586
42	0xbec1dd52	-0.37864166
43	0xbf42f345	-0.7615245
44	0xbf4c49a2	-0.79799855
45	0x3e83ff45	0.25780693
46	0xbe24ff22	-0.1611295
47	0xbe97ec1d	-0.29672328
48	0x3e3f380b	0.18673722
49	0xbf1c00d1	-0.60938746
50	0x3de8a2e5	0.11359195
51	0xbf1ec97b	-0.62026185
52	0x3e761b7f	0.24033926
53	0x3de55411	0.11197675
54	0xbf2a294c	-0.66469264
55	0xbf275f28	-0.6537957
56	0xbe7fb47c	-0.24971193
57	0xbf035e32	-0.51315606
58	0xbccb0cc4	-0.02478636
59	0xbed7dc6e	-0.42160362
60	0xbecc2afb	-0.39876541
61	0xbeccd583	-0.40006647
62	0xbdb626af	-0.08894097
63	0x3e6ec8b3	0.23318748
64	0xbed43d15	-0.41452852
65	0xbecb26f8	-0.39678168
66	0xbc63095f	-0.013857215
67	0xbf55fae0	-0.8358593
68	0xbce5d217	-0.02805428
69	0x3ef2fb15	0.47457185
70	0xbe9bc5b3	-0.3042427
71	0x3ebcdc70	0.3688693
72	0xbe8bf3c6	-0.27334422
73	0x3e078028	0.13232481
74	0xbf01be4e	-0.50681007
75	0x3e3b1b32	0.18272093
76	0xbf052fe4	-0.520262
77	0xbf08f0a2	-0.53492177
78	0xbd7a761a	-0.061147787
79	0xbe8a9597	-0.27067253
80	0xbd19800d	-0.037475634
81	0x3ea0ab8c	0.3138088
82	0xbf60a8d1	-0.87757593
83	0x3d5cd865	0.053917307
84	0x3e955591	0.29166844
85	0x3eb54326	0.35402793
86	0x3e1fe1a6	0.15613422
87	0xbf10bed8	-0.56541204
88	0xbf23bc16	-0.6395887
89	0x3e027c56	0.12742743
90	0xbf9788c0	-1.1838608
91	0x3df459ae	0.119311675
92	0xbf4bd5a6	-0.79622877
93	0xbea091b1	-0.31361154
94	0x3dc76b12	0.09737219
95	0xbed53123	-0.4163905
96	0xbeb53985	-0.35395446
97	0xbe95b75c	-0.29241455
98	0xbefbfa62	-0.49214464
99	0x3e2e6aa8	0.17032874
100	0x3e2df5e0	0.16988325
101	0xbf2daefb	-0.67845124
102	0xbf09afde	-0.5378398
103	0xbf4d3de8	-0.80172586
104	0x3e0d28e4	0.1378513
105	0x3f11606a	0.5678774
106	0xbdc9f27e	-0.09860705
107	0xbf60e721	-0.87852675
108	0xbf464949	-0.77455574
109	0xbc8c5edd	-0.017135078
110	0xbf051065	-0.5197814
111	0x3e8f777e	0.28020853
112	0x3d6748c9	0.056465898
113	0xbe73b75f	-0.2380042
114	0x3e7379d1	0.23776938
115	0xbf49ed7d	-0.78878003
116	0xbeb3566c	-0.35026872
117	0xbef77615	-0.48332277
118	0x3ecbbd87	0.39793035
119	0xbebeefee	-0.37292427
120	0xbf4aafe5	-0.79174644
121	0xbe1b3b34	-0.15159303
122	0xbf026d1d	-0.50947744
123	0xbe5f9932	-0.21835783
124	0xbd2bdd1a	-0.041958906
125	0xbd55de13	-0.05221374
126	0x3db53c2e	0.08849369
127	0xbef3772a	-0.47551852
128	0x3ec8b346	0.39199275
129	0xbf4d8e33	-0.80295104
130	0xbf1ad36d	-0.6047886
131	0xbf3a5adb	-0.72794884
132	0x3e3f8018	0.18701208
133	0x3da7d3bb	0.08194681
134	0xbd61c135	-0.055115897
135	0xbe29c989	-0.16580786
136	0xbe090e6d	-0.13384409
137	0xbf885492	-1.0650809
138	0xbf28fbc6	-0.66009176
139	0x3e82bab4	0.25533068
140	0x3e8389ba	0.25691015
141	0xbf0c9199	-0.54909664
142	0xbeffa647	-0.49931547
143	0xbf01786d	-0.5057438
144	0xbf8952cc	-1.0728393
145	0x3dce0c95	0.100609936
146	0x3db31771	0.087447055
147	0xbc3f37f4	-0.011671055
148	0xbf5841ba	-0.8447529
149	0xbf274ab0	-0.6534834
150	0xbf724139	-0.9463077
151	0xbf0ed234	-0.55789495
152	0x3e827223	0.25477704
153	0xbf2270c4	-0.63453317
154	0xbee4ab47	-0.44661924
155	0xbf488242	-0.7832376
156	0xbf1069da	-0.56411517
157	0xbf265399	-0.6497131
158	0xbf6de3de	-0.9292582
159	0x3ba36683	0.0049865856
160	0xbef2db0c	-0.47432745
161	0x3e97e8b0	0.29669714
162	0xbec59e80	-0.38597488
163	0xbf634345	-0.8877452
164	0xbefdbb5b	-0.49557003
165	0xbe5f30d2	-0.21795967
166	0xbf146789	-0.5797048
167	0xbef7c64d	-0.4839348
168	0xbe45dee1	-0.19323303
169	0xbf272b90	-0.65300846
170	0x3dcac0cc	0.09900054
171	0x3ed090af	0.40735385
172	0x3dcb53e3	0.099281095
173	0xbf2193e5	-0.63116294
174	0x3c3d3929	0.011549273
175	0xbf09f375	-0.5388711
176	0xbed6fdb3	-0.41990432
177	0xbe8c7d09	-0.27439144
178	0x3d8ddca9	0.06926853
179	0xbe687611	-0.22701289
180	0xbf5419ea	-0.8285204
181	0xbef112a9	-0.4708455
182	0xbf49aeab	-0.7878215
183	0xbf52e791	-0.8238459
184	0xbf77a2ae	-0.96732605
185	0xbf8d1e2f	-1.1024836
186	0xbd2352b7	-0.039873805
187	0x3e3e0300	0.18555832
188	0x3db5a8ac	0.08870062
189	0xbe445e57	-0.19176613
190	0xbea128fc	-0.3147658
191	0xbf04902c	-0.5178249
192	0x3e660374	0.22462255
193	0x3f0ec928	0.5577569
194	0xbf505e44	-0.8139384
195	0xbf2db2bd	-0.6785086
196	0xbf112fe8	-0.56713724
197	0xbf1bbcac	-0.60834765
198	0x3ed00308	0.40627313
199	0xbd85a4fa	-0.065256074
200	0x3de58bf7	0.11208337
201	0x3e7591ef	0.2398145
202	0xbe48fc2e	-0.19627449
203	0xbf45073c	-0.76964164
204	0x3ec38b31	0.38192132
205	0x3e1c747a	0.15278807
206	0xbdbd53e1	-0.09244514
207	0xbf1ac8f4	-0.6046288
208	0x3eaa0892	0.33209664
209	0xbe75d83f	-0.24008273
210	0x3eacbf4b	0.33739695
211	0x3e8fe391	0.28103307
212	0xbcf740da	-0.03018229
213	0xbe1c861d	-0.15285535
214	0xbe697881	-0.22799875
215	0xbeb8cb93	-0.36092815
216	0xbec7cb5d	-0.3902234
217	0xbf7f3eac	-0.99705005
218	0x3ed08c76	0.40732163
219	0xbf2c6c39	-0.67352635
220	0x3f126863	0.5719053
221	0xbf024323	-0.5088369
222	0xbda2587c	-0.07927033
223	0xbe8a36d9	-0.2699497
224	0xbed9c098	-0.4252975
225	0xbe8312c9	-0.2560027
226	0xbf1fc2ff	-0.62406915
227	0x3d7c15b0	0.06154412
228	0xbf331e84	-0.6996844
229	0x3e8d5c08	0.27609277
230	0xbefc36c2	-0.49260527
231	0xbf21fc7a	-0.63275874
232	0xbecef01b	-0.4041756
233	0xbf248508	-0.6426549
234	0xbee0a408	-0.43875146
235	0xbf242aa2	-0.6412755
236	0xbe90d229	-0.2828534
237	0xbef7af54	-0.48375952
238	0xbeec3cd5	-0.4614016
239	0xbf00174d	-0.50035554
240	0x3e880596	0.26566762
241	0x3d1dd359	0.038531635
242	0xbee9a542	-0.45633894
243	0x3dc814b3	0.09769573
244	0x3e290b32	0.16508177
245	0xbef3af41	-0.47594646
246	0xbf1ac6ca	-0.6045958
247	0xbf043803	-0.5164797
248	0xbe0e108c	-0.138735
249	0xbe669eaa	-0.22521463
250	0x3eac01b8	0.3359506
251	0x3dcde69e	0.10053752
252	0x3dc9dc03	0.09856417
253	0xbea9e491	-0.33182195
254	0xbeaa3dce	-0.33250278
255	0xbef73ea0	-0.48289967

net.2.weight f4 [256, 256]
0	0xbcaa3e48	-0.020781651
1	0x3b873d4c	0.00412718
2	0x3c99dc9b	0.01878195
3	0xbc2a49c3	-0.010393563
4	0x3d73ed82	0.059552677
5	0xbd312f9e	-0.043258302
6	0x3c92bdc0	0.017912745
7	0x3d1e416c	0.03863661
8	0xbcf31405	-0.029672632
9	0x3d3c6745	0.045996923
10	0xbbf5789d	-0.007491185
11	0xbd6685c8	-0.056279927
12	0xbd0c7220	-0.034288526
13	0x3cf1d234	0.029519178
14	0xbd2ace19	-0.041700456
15	0x3c764888	0.015031941
16	0x3d603be9	0.054744635
17	0x3c873191	0.016503127
18	0xbc6f1811	-0.01459314
19	0x3c2d0016	0.0105591025
20	0xbd137e28	-0.036008984
21	0xbd67ed63	-0.056622874
22	0xbd5562f2	-0.052096315
23	0xbd8f6edc	-0.070035666
24	0x3b7722d5	0.003770997
25	0xbbbc95e3	-0.0057551726
26	0xbcd99568	-0.0265605
27	0xbd7a6814	-0.061134413
28	0x3c91b8d3	0.017788326
29	0xbd2a0d33	-0.041516494
30	0xbce4ff2d	-0.027953709
31	0xbd72130c	-0.059100196
32	0xbd2e48f2	-0.042550035
33	0x3c2396e0	0.009984702
34	0xbd9ff5c6	-0.078105494
35	0xbd2a3bbd	-0.041560877
36	0x3cd635dc	0.026148729
37	0xbd54f17a	-0.051988102
38	0xbd1e03b1	-0.03857774
39	0xbd11fdf9	-0.035642598
40	0x3caed244	0.021340497
41	0xbd730353	-0.059329342
42	0xbc2a774c	-0.010404419
43	0x3c792ac4	0.01520795
44	0xbb811fe1	-0.003940568
45	0xbbcb25ed	-0.0061995895
46	0xbd4d96ad	-0.050192524
47	0x3caa9184	0.02082134
48	0x3cbf5978	0.023358092
49	0xbc690ded	-0.014224512
50	0xbd7108e2	-0.058846362
51	0x3c014a22	0.00789121
52	0x3d0f78bf	0.03502726
53	0xbce5279c	-0.027972989
54	0x3cc4ecb9	0.02403866
55	0x3c9223e2	0.017839376
56	0xbce8ab2c	-0.028401934
57	0xbca5c6a2	-0.020236317
58	0x3d619cac	0.055081055
59	0xbbdf6936	-0.006817962
60	0xbd5a0a04	-0.053232208
61	0xbc408286	-0.011749869
62	0x3cc1e548	0.0236689
63	0xbcf49ed3	-0.02986089
64	0xbd061020	-0.03273022
65	0x3d2c5504	0.042073265
66	0x3c75d662	0.015004726
67	0xbc81efbb	-0.015861383
68	0xbc6802cd	-0.014160824
69	0xbc9cef6c	-0.019157134
70	0x3c73d285	0.014881735
71	0xbc0f2446	-0.008736676
72	0xbd605bfb	-0.05477522
73	0x3c06deb4	0.0082318075
74	0xbbb1b700	-0.0054234266
75	0xbaa9d135	-0.0012956025
76	0xbd1acac4	-0.03779103
77	0x3b9fccf8	0.004876729
78	0xbd7374ac	-0.05943744
79	0x3c17e25e	0.009270279
80	0x3cc88b4a	0.02448048
81	0xbc5ee052	-0.013603287
82	0xbd636062	-0.05551184
83	0xbc88c080	-0.016693354
84	0xbc78c1cd	-0.015182924
85	0xbd7d41d3	-0.061830353
86	0xbd55c4cb	-0.05218963
87	0x3d5a020d	0.053224612
88	0x3cfe7c57	0.03106515
89	0x3cc9a8ca	0.024616618
90	0x3ce6f28f	0.028191833
91	0x3c57f87f	0.013181805
92	0x3cebb93e	0.028774854
93	0x3cdde2d7	0.027085705
94	0xbc94be8d	-0.018157268
95	0xbcd16d3a	-0.025564779
96	0x3d18dce5	0.037320036
97	0xbc7d0ad1	-0.015444473
98	0xbd4002a7	-0.04687753
99	0xbd77018c	-0.06030421
100	0x3ceb7dff	0.028746603
101	0x3d430f8e	0.047622256
102	0x3d3777f9	0.04479215
103	0xbb2c0c03	-0.0026252277
104	0x3d0152dc	0.03157316
105	0xbd82d767	-0.06388741
106	0xbd387042	-0.045028932
107	0xbd84ab5d	-0.064779975
108	0x3d38ed55	0.045148212
109	0xbca1fe48	-0.019774571
110	0xbd3db947	-0.046319272
111	0x3c37771d	0.011197832
112	0xbd017c16	-0.03161248
113	0xbd3b2fde	-0.045699947
114	0x3c4e9fbc	0.012611326
115	0x3b00552b	0.0019582014
116	0xbd64c4e2	-0.055851825
117	0xbd3146ad	-0.043280292
118	0x3c7ce0d4	0.015434463
119	0x3cfc64ae	0.030809727
120	0xbc36e97e	-0.011164067
121	0xbd131804	-0.035911575
122	0x3c74aed2	0.014934259
123	0x3ac2c96b	0.0014861053
124	0xbd798451	-0.060917202
125	0xbd3cb11c	-0.046067342
126	0x3ae8606f	0.0017728935
127	0x3d0c4d69	0.03425351
128	0xbce6e4b1	-0.02818522
129	0x3c4b435e	0.012406198
130	0xbd6f396c	-0.05840437
131	0x3d59ae04	0.05314447
132	0x3cd2e7cc	0.025745295
133	0xbbfad9ee	-0.007655374
134	0x3ca2d2f4	0.01987598
135	0x3c016400	0.007897377
136	0xbd604e22	-0.054762013
137	0xbc2330e1	-0.009960384
138	0x3b1675cf	0.0022958403
139	0xbca78314	-0.020448245
140	0x3d56236f	0.052279886
141	0xbce5e12b	-0.02806147
142	0xbd8cb351	-0.068701394
143	0xbd0aae5c	-0.03385769
144	0xbd9174a2	-0.07102324
145	0x3d52f4d2	0.05150301
146	0xbd0d5cb7	-0.034512248
147	0xbd3d3bfe	-0.04619979
148	0xbc55441a	-0.013016725
149	0xbd2c7eb6	-0.04211303
150	0xbd195216	-0.0374318
151	0x3c53f2cd	0.012936306
152	0xbd403424	-0.046924725
153	0x3cb24c0f	0.021764783
154	0x3d06b648	0.03288868
155	0xbb6a44cd	-0.0035746575
156	0x3cb33ae0	0.02187866
157	0xbd2716ef	-0.040793356
158	0x3d384913	0.044991564
159	0x3d5477c9	0.05187205
160	0xbb63b2c3	-0.0034744001
161	0x3d694960	0.05695474
162	0xbd8ee1ad	-0.06976638
163	0xbcbd8424	-0.023134299
164	0xbbb04726	-0.0053795753
165	0xbd7b4b17	-0.061350908
166	0x3c57529c	0.013142254
167	0xbcc32170	-0.023819655
168	0xbcb26a4f	-0.021779208
169	0xbd4dbb62	-0.05022753
170	0x3c9847cf	0.018588929
171	0xbd5d2fbc	-0.0540006
172	0xbcc73974	-0.024319388
173	0x3cb5e23f	0.02220261
174	0x3d2b5e45	0.04183795
175	0x3c38ee19	0.011287236
176	0xbd14643a	-0.036228396
177	0xbcdeb3c8	-0.027185336
178	0x3d05aa06	0.03263285
179	0xbbc0e201	-0.0058863168
180	0x3d24b23f	0.04020905
181	0x3c871f4c	0.016494416
182	0x3d01b3c0	0.031665564
183	0xbd81d32b	-0.06339105
184	0x3d17a29f	0.037020322
185	0xbd0c80b2	-0.03430242
186	0xbceab202	-0.028649334
187	0x39c42100	0.0003740862
188	0xbcf12a34	-0.02943907
189	0xbabaca5c	-0.0014250982
190	0x3d452cbe	0.048138373
191	0xbd18f4ca	-0.037342824
192	0x3a82e18e	0.0009985433
193	0xbd558e25	-0.052137513
194	0x3b73eaed	0.0037218884
195	0x3d436719	0.047705743
196	0x3cdc5901	0.02689791
197	0x3d1d7ce2	0.038449176
198	0x3cf9344e	0.030420449
199	0xbc8caead	-0.017173136
200	0xbb48b0c7	-0.0030622946
201	0xbd2fcd4f	-0.042920407
202	0x3d3500f8	0.044190377
203	0x3d002e30	0.031294048
204	0xbd7f8050	-0.062378228
205	0x3d1434c6	0.03618314
206	0xbc30b015	-0.010784169
207	0xbc6abcfe	-0.014327286
208	0xbcbd4483	-0.023103958
209	0xbc9cc560	-0.019137084
210	0xbbc4d564	-0.0060068835
211	0xbd01f899	-0.03173122
212	0xbd807496	-0.06272237
213	0xbd1636fb	-0.036673527
214	0xbd0f47d7	-0.03498062
215	0x3cf65e97	0.0300744
216	0x3cedf257	0.02904622
217	0xbd3f8196	-0.046754442
218	0xbc18c8bf	-0.009325205
219	0xbcc37490	-0.023859292
220	0xbd2e334c	-0.04252939
221	0xbcbefd9b	-0.023314288
222	0xbd21ba41	-0.039484266
223	0x3ce2dbc5	0.027692685
224	0xbd3d4ab4	-0.04621382
225	0xbb9dd6b4	-0.0048168544
226	0xbd21cf7c	-0.039504513
227	0xbce8fe74	-0.028441645
228	0x3d44af29	0.04801861
229	0xbd1fb6ef	-0.03899282
230	0xbc88a933	-0.016682243
231	0x3d566fbc	0.052352652
232	0x3be77b33	0.007064247
233	0xbd19faf3	-0.03759284
234	0xbd341a88	-0.043970615
235	0xbcb38b90	-0.021917135
236	0xbd1b9b1b	-0.037989717
237	0x3ca2346a	0.019800384
238	0xbc621871	-0.013799773
239	0x3d485b07	0.048914935
240	0xbd2d7c41	-0.042354826
241	0xbd1be12d	-0.03805654
242	0x3c63bcc0	0.013899982
243	0x3d33c78d	0.04389148
244	0x3d5658ce	0.052330784
245	0xbc1742bf	-0.009232222
246	0x3b2ca6a0	0.0026344433
247	0xbd0a7e6a	-0.033811964
248	0x3ce3a2df	0.027787624
249	0xbd2d03bb	-0.042239886
250	0xbccf3d35	-0.02529774
251	0xbd55f6c6	-0.052237295
252	0xbd8c248c	-0.06842908
253	0x3ccae7bc	0.024768703
254	0xbae7aa55	-0.0017674664
255	0x3d503886	0.050835155

net.2.bias f4 [256]
0	0xbc81d7ed	-0.015850032
1	0xbd516202	-0.05111886
2	0x3b395273	0.0028277903
3	0xbc978081	-0.018493893
4	0xbd94b698	-0.072613895
5	0x3e22b762	0.15890267
6	0x3bb3538d	0.0054726065
7	0x3d202762	0.03910006
8	0xbd18ad4b	-0.03727464
9	0xbdc0aca8	-0.094079316
10	0xbd9ecfeb	-0.07754501
11	0xbda330dc	-0.079683036
12	0x3bc099a2	0.0058776895
13	0x3c2de8aa	0.0106145535
14	0xbca0b987	-0.019619716
15	0xbd58a4dd	-0.0528916
16	0xbcd5bd65	-0.026091287
17	0x3e057a53	0.13034944
18	0xbd9725c9	-0.07380254
19	0xbd2e7765	-0.042594332
20	0x3a3e13ca	0.00072508736
21	0xbd0074e0	-0.03136146
22	0x3e16e207	0.1473466
23	0xbd9c663a	-0.07636686
24	0x3ce5a872	0.028034423
25	0x3bf87e8c	0.007583445
26	0x3dada074	0.0847787
27	0x3ec9d057	0.39416763
28	0x3e3e53cc	0.18586653
29	0xbe0dfdc8	-0.13866341
30	0xbd9c37d1	-0.07627834
31	0xbd81f866	-0.06346206
32	0xbb3e4135	-0.0029030566
33	0xbd37cc80	-0.04487276
34	0x3ccddcf5	0.025129775
35	0x3e9e0241	0.30861095
36	0x3a9bf010	0.0011897106
37	0xbe0ea935	-0.13931735
38	0x3dc80b95	0.09767834
39	0xbd912d95	-0.07088772
40	0x3cf0f382	0.029412989
41	0x3d8ac63b	0.06776091
42	0xbd55b716	-0.052176557
43	0xbdb072b3	-0.08615627
44	0xbdaa9c51	-0.08330596
45	0xbcc01ee9	-0.02345224
46	0xbed4d7a1	-0.41570762
47	0xbc710387	-0.014710314
48	0x3d47a73c	0.04874347
49	0x3cc33771	0.023830147
50	0xbd95c407	-0.0731278
51	0x3e3ce821	0.18447925
52	0x3d11467a	0.035467602
53	0xbd7b354b	-0.06133012
54	0xbd515b84	-0.051112667
55	0x3b891777	0.0041837054
56	0xbd928053	-0.07153382
57	0x3dff6e5a	0.1247222
58	0xbedf462c	-0.43608224
59	0xbb512c2a	-0.0031917193
60	0xbd1bf098	-0.038071245
61	0xbdaa788c	-0.08323774
62	0xbc99a6c8	-0.018756285
63	0x3d92d46f	0.07169425
64	0xbd3b1d91	-0.045682494
65	0xbd19d9af	-0.037561115
66	0xbd2a2303	-0.041537296
67	0xbbda72ed	-0.0066665323
68	0xbd18de67	-0.037321474
69	0xbd3af2dd	-0.04564177
70	0x3ca0872b	0.019595703
71	0x3d72e329	0.059298668
72	0x3c3bce5c	0.011462774
73	0xbc9a1bd8	-0.018812105
74	0xbcac6c67	-0.021047784
75	0x3dbbd848	0.09172112
76	0xbda4eda1	-0.080531366
77	0x3b20984a	0.0024504834
78	0x3e29c87f	0.1658039
79	0xbcd1a889	-0.02559306
80	0x3cc79a45	0.024365554
81	0x3ded6136	0.11590807
82	0xbd9550b9	-0.07290787
83	0x3da21d24	0.079157144
84	0x3d046ba8	0.03232923
85	0xba70fb7b	-0.0009192747
86	0xbd727900	-0.059197426
87	0xbda85e8c	-0.082211584
88	0xbd6aa89d	-0.05728971
89	0xbd91c213	-0.07117095
90	0xbd357a3d	-0.04430603
91	0xbd2973b3	-0.041370105
92	0xbe8b974b	-0.27263865
93	0xbe3a755a	-0.18208829
94	0xbda5c3e6	-0.08094005
95	0xbd6f11d9	-0.05836663
96	0x3c406966	0.011743879
97	0x39a1d00d	0.00030863323
98	0xbd4fb45e	-0.05070912
99	0x3e395c1b	0.18101542
100	0xbebd6155	-0.3698832
101	0xbd203bdc	-0.039119586
102	0xbd3294cb	-0.04359893
103	0xbda09bdf	-0.0784223
104	0xbc461529	-0.012090006
105	0xbe071d9a	-0.13194886
106	0xbd2f02c1	-0.042727236
107	0x3ea6e260	0.32594585
108	0xbb3d8907	-0.0028920786
109	0x3c38bbb8	0.011275224
110	0x3cad2d73	0.021139836
111	0x3c2ebd14	0.010665197
112	0xbe56943a	-0.20954981
113	0x3dbe0eef	0.09280192
114	0xbcc753d0	-0.024331957
115	0x3e21eeaa	0.158137
116	0x3b3205f5	0.0027164195
117	0x3e000cf2	0.12504938
118	0xbc1c57ff	-0.009542464
119	0x3db440f5	0.08801452
120	0xbdc6cb66	-0.09706764
121	0x3dd65e0e	0.10467158
122	0x3e41f98b	0.1894285
123	0xbe0a1295	-0.13483651
124	0x3e046ee0	0.1293292
125	0x3e2dd7a1	0.16976787
126	0xbd9ad843	-0.0756078
127	0x3d1d412a	0.038392223
128	0x3c315871	0.010824309
129	0xbd9fe970	-0.078081965
130	0x3d793909	0.06084541
131	0x3da58680	0.080822945
132	0xbd82684a	-0.06367548
133	0xbd5b391a	-0.053521253
134	0xbd812551	-0.06305946
135	0xbc43f2d5	-0.011959751
136	0xb8c6bb74	-9.4762916e-05
137	0xbd541821	-0.051780824
138	0x3b856612	0.0040710056
139	0xbd588d7e	-0.052869312
140	0xbd5ce3f3	-0.053928327
141	0x3ca0787e	0.019588705
142	0x3cf7dc3b	0.030256381
143	0x3eab92e7	0.33510515
144	0xbd7d4ed2	-0.061842747
145	0xbd64b06b	-0.055832308
146	0x3c889485	0.016672382
147	0xbbf8ada9	-0.0075890613
148	0x3e142630	0.14467692
149	0x3c8d5c9d	0.017256076
150	0xbd2199c1	-0.03945327
151	0x3acabd51	0.0015467798
152	0x3d3aa012	0.04556281
153	0xbd441367	-0.047870066
154	0x3c48bf4c	0.01225264
155	0x3c01f975	0.00793301
156	0xbd94a15e	-0.07257341
157	0x3cac55c9	0.021037
158	0x3d87142a	0.06595643
159	0xbc912d41	-0.017721774
160	0xbd1877b4	-0.037223533
161	0xbda35313	-0.079748295
162	0xbd1c0a3d	-0.0380957
163	0x3cc470bd	0.023979539
164	0xbcb0a4dd	-0.021562988
165	0xbe4c5d3b	-0.1995744
166	0xbce302fe	-0.027711388
167	0x3b79cf77	0.0038118043
168	0xbc8aa878	-0.016926035
169	0x3cb8d856	0.022564095
170	0xbbea8be0	-0.0071577877
171	0x3c43e8ff	0.011957406
172	0x3cde415e	0.027130779
173	0xbdad604c	-0.08465633
174	0xbbd2ed08	-0.0064369477
175	0x3cf70264	0.030152507
176	0x3e018993	0.12650137
177	0xbe531e5c	-0.2061705
178	0x3d152b92	0.036418505
179	0xbe8c2acd	-0.27376404
180	0xb8a4bdb3	-7.8554636e-05
181	0xbe63985f	-0.22226094
182	0xbd907e22	-0.07055308
183	0xbea684ff	-0.32523343
184	0xbd4c3340	-0.049853563
185	0x3c2ae70b	0.0104310615
186	0xbd5c4675	-0.05377813
187	0x3e858d98	0.2608459
188	0x3b256e74	0.0025242837
189	0xbecb2455	-0.39676157
190	0xbd1a3209	-0.037645373
191	0x3d602aa8	0.05472818
192	0x3e3369d8	0.17520845
193	0x3d233c56	0.039852463
194	0xbd8259c6	-0.06364779
195	0x3e864a9d	0.262288
196	0xbe247928	-0.16061842
197	0x3d3f9459	0.046772335
198	0xbd9be07e	-0.07611178
199	0x3de37bfa	0.11107631
200	0xb98ec18d	-0.00027228557
201	0xbd8b1bdf	-0.06792425
202	0xbe7b4d9c	-0.24541324
203	0x3e415236	0.18879017
204	0x3e12ac2a	0.14323488
205	0xbd17e460	-0.03708303
206	0xbd64a6ed	-0.055823255
207	0x3d0b0ea0	0.033949494
208	0xbd58d227	-0.052934792
209	0x3e30b829	0.17257752
210	0x3ba54b6c	0.0050443914
211	0xbc54bcee	-0.0129844975
212	0xbc41f5d8	-0.011838399
213	0x3c7a310a	0.015270481
214	0x3e2175eb	0.15767638
215	0x3c95e17d	0.018295998
216	0x3e87bf13	0.26512966
217	0xbd433cc2	-0.047665365
218	0x3d367d03	0.044552814
219	0xbd1820fd	-0.037140835
220	0xbcbd865c	-0.023135357
221	0x3e407947	0.18796264
222	0xbd791657	-0.06081232
223	0x3d69124d	0.05690222
224	0x3d07dfe3	0.0331725
225	0xbcad74d9	-0.021173881
226	0xbdb61910	-0.08891499
227	0xbd8cf77e	-0.06883143
228	0xbcd1e450	-0.025621563
229	0xbda1c625	-0.07899121
230	0x3d0f35a4	0.034963265
231	0xbca66d37	-0.02031575
232	0xbd3ad7b4	-0.045615867
233	0x3c00d432	0.007863091
234	0xb944ab42	-0.00018755815
235	0x3e2bfad6	0.16794905
236	0x3b76e619	0.003767377
237	0xbc3f6976	-0.011682859
238	0xbd92127f	-0.07132434
239	0x3a63738c	0.00086765806
240	0xbd89e20d	-0.06732569
241	0x3c1825c1	0.009286345
242	0xbd664c60	-0.05622518
243	0xbe5c466d	-0.2151124
244	0xbd4f2935	-0.050576407
245	0xbbbfc94e	-0.005852855
246	0x3c8ecf89	0.017432945
247	0xbd595cc7	-0.053066995
248	0xbd83a1ff	-0.06427383
249	0xbd50867b	-0.0509095
250	0xbcb498a9	-0.02204545
251	0x3d4a81b5	0.049440105
252	0xbd3913e1	-0.045184974
253	0x3e6ce617	0.23134647
254	0xbe47dc2e	-0.19517586
255	0xbcd0666b	-0.025439462

net.4.weight f4 [4, 256]
0	0xbd17edc8	-0.037092
1	0x3c88110f	0.016609697
2	0xbc35a1b3	-0.011085915
3	0xbc81c1ce	-0.015839484
4	0xbc0064db	-0.007836546
5	0x3d6f93ef	0.05849069
6	0xbd115e47	-0.0354903
7	0x3a7b658a	0.00095900206
8	0x3cbd0e61	0.023078145
9	0xbf8cc601	-1.0997926
10	0xbc6dc724	-0.014512811
11	0x3cd1bd1d	0.025602872
12	0xbcb823fc	-0.022478096
13	0x3d08a600	0.033361435
14	0x3d4b4caf	0.049633678
15	0x3df41f40	0.11920023
16	0xbc13cd91	-0.009021179
17	0xbec23391	-0.37929967
18	0xbc865503	-0.016397959
19	0xbb624744	-0.003452734
20	0xbc899054	-0.016792454
21	0xbc7a5639	-0.015279346
22	0x3f229ee8	0.6352372
23	0x3bb849d4	0.0056240354
24	0x3caf3778	0.021388754
25	0x3ceb4816	0.028720897
26	0xbe3045b7	-0.17214094
27	0xbf021aa2	-0.5082189
28	0xbec81a57	-0.39082596
29	0xbdea3433	-0.114357375
30	0x3c8734a7	0.016504599
31	0xbcb49a10	-0.022046119
32	0xbbe3565e	-0.006937786
33	0x3d32deb9	0.043669436
34	0x3f29e4ea	0.6636492
35	0x3ebc326b	0.36757216
36	0x3c2dc88f	0.010606899
37	0x3cfe79c0	0.031063914
38	0x3f56640b	0.83746403
39	0xbca128ec	-0.019672833
40	0xbd38b4a1	-0.045094136
41	0xbf9bb51a	-1.2164643
42	0x3d07401b	0.03302012
43	0x3e8af179	0.27137354
44	0xbbf57f16	-0.0074919565
45	0x3f257a54	0.6463978
46	0xbe049616	-0.12947878
47	0x3b0c6d76	0.0021427548
48	0xbef6bb1a	-0.48189622
49	0xbe242999	-0.16031493
50	0x3c91f5b7	0.017817361
51	0xbef0cc2f	-0.4703078
52	0x3d1447e0	0.036201358
53	0x3c7ed34b	0.015553306
54	0x3d07eeef	0.03318685
55	0xbd23213a	-0.03982661
56	0xbc4e4bf1	-0.012591348
57	0x3f8edc7b	1.1161035
58	0x3e55e99b	0.20889895
59	0x3d0546de	0.032538287
60	0x3c9bafb0	0.019004673
61	0x3c05a8bb	0.008157904
62	0x3c90f500	0.01769495
63	0xbf74e9c5	-0.95669204
64	0xbd31d9cf	-0.04342061
65	0x3cb7cddf	0.022437034
66	0x3c18bf7d	0.009322998
67	0xbcd70ef0	-0.02625224
68	0x3e44f2de	0.19233271
69	0x3bc2c9ac	0.0059444513
70	0x3d66722b	0.056261223
71	0x3f0f49ee	0.5597218
72	0x3c3a21ca	0.011360595
73	0x3a88d5a6	0.0010439649
74	0xbd1ac039	-0.037780974
75	0xbdc6b50d	-0.097025014
76	0x3ccf2a00	0.025288582
77	0xbcb4ce88	-0.022071138
78	0xbeb1e28d	-0.34743157
79	0x3d3ba5e7	0.045812514
80	0x3c931eb6	0.01795898
81	0x3f107c09	0.5643926
82	0xbbbd3719	-0.0057743904
83	0xbe861784	-0.26189816
84	0xbd318ad5	-0.04334529
85	0xbe16b8b4	-0.14718896
86	0xbbd4aec2	-0.0064905593
87	0xbe9d1f79	-0.30688074
88	0x3bcb7dbb	0.0062100566
89	0xbc9092b9	-0.017648088
90	0xbd6ec590	-0.05829388
91	0x3b83e314	0.0040248726
92	0x3de7954f	0.11307775
93	0xbd95feb0	-0.073239684
94	0x3c96f321	0.01842648
95	0x3d19fe02	0.037595756
96	0x3eadffb8	0.3398416
97	0xbc9029af	-0.017598001
98	0x39e7e880	0.0004423298
99	0xbe8bfb13	-0.27339992
100	0x3f834a2d	1.0257012
101	0x3d222cf5	0.039593656
102	0x3f21c438	0.6319003
103	0x3c7bc301	0.015366317
104	0x3d263501	0.040577892
105	0x3f37afbf	0.7175254
106	0x3d36484e	0.04450255
107	0xbecf3c58	-0.40475726
108	0x3c4356d1	0.011922554
109	0xbca4aeea	-0.020102937
110	0xb9f8c974	-0.0004745234
111	0xbcf7c73a	-0.030246366
112	0xbeee1f28	-0.46508145
113	0xbd7d7a7f	-0.0618844
114	0x3c6f61e1	0.0146107385
115	0x3efeb454	0.49746954
116	0xbc9e8ab7	-0.019353254
117	0x3f6ef895	0.93348056
118	0xbca24f64	-0.019813247
119	0x3d20ab5a	0.039225914
120	0xbb67afaf	-0.0035352518
121	0xbed73d6a	-0.42039043
122	0x3ebc0b4a	0.36727363
123	0x3f8765ef	1.0577983
124	0xbf8459ad	-1.0339867
125	0xbd33d457	-0.043903675
126	0x3cb0c479	0.02157806
127	0x3c54293f	0.012949287
128	0x39be8ab8	0.00036342978
129	0x3cc14edb	0.023597172
130	0x3e369846	0.17831525
131	0xbdeca982	-0.115557685
132	0x3c36eef9	0.011165374
133	0xbc9b2af2	-0.018941376
134	0x3c148241	0.009064258
135	0x3a6662ed	0.0008788545
136	0xbc09ea2b	-0.008417646
137	0x3e5ff913	0.21872358
138	0xbb2ab771	-0.002604928
139	0x3d4e30c5	0.05033948
140	0xbce6a407	-0.028154386
141	0xbc2dc53e	-0.010606108
142	0xbc5c4cc9	-0.013446041
143	0xbd907d8a	-0.07055195
144	0xbbd040b2	-0.0063553685
145	0xbb489634	-0.0030607106
146	0x3d9c1c32	0.07622565
147	0xbba43ffe	-0.0050125113
148	0x3f8f510b	1.1196607
149	0x3c6213c6	0.01379866
150	0xbcc9bba5	-0.024625609
151	0xbcf6c11e	-0.030121382
152	0x3e3be859	0.18350352
153	0xbd60c695	-0.054876883
154	0xbcc1c6af	-0.02365431
155	0xbc4b6f90	-0.012416735
156	0x3d520e49	0.051283155
157	0xbbb9369d	-0.0056522624
158	0xbefc7fa7	-0.4931614
159	0xbd06eeda	-0.03294263
160	0x3c08073f	0.008302509
161	0xbcbba745	-0.022906909
162	0xbc7a1f7e	-0.015266297
163	0x3cfc9fb3	0.03083787
164	0xbd4d5d6a	-0.050137915
165	0x3cca4258	0.024689838
166	0xbd097212	-0.03355605
167	0x3d4c5c81	0.049892906
168	0xbc10833b	-0.00882035
169	0x3bb04a7b	0.0053799725
170	0xbc8fb6af	-0.017543165
171	0xbcd72054	-0.026260532
172	0x3d03ade8	0.03214827
173	0xbd0599d9	-0.032617424
174	0x3cb1e7dd	0.021717006
175	0xbc79db91	-0.015250103
176	0xbf01fe52	-0.50778687
177	0xbe27282e	-0.16323921
178	0x3ca49390	0.020089895
179	0xbe447df5	-0.19188674
180	0x3ccc0c5f	0.024908243
181	0xbf8fb205	-1.1226202
182	0xbd04ce5c	-0.032423362
183	0xbe77f7c6	-0.24215612
184	0x3d27e083	0.040985595
185	0xb9eee260	-0.0004556356
186	0xbcfc4779	-0.0307958
187	0x3ee82ad9	0.4534519
188	0xbc6b846e	-0.014374835
189	0x3e04dd2e	0.12974998
190	0xbe9115f0	-0.2833705
191	0xbf007407	-0.50177044
192	0xbca31b58	-0.0199105
193	0x3cab6631	0.020922752
194	0xbcb3bb56	-0.021939915
195	0x3e33599b	0.1751465
196	0x3ed1f1f8	0.4100492
197	0x3e1d5d24	0.15367562
198	0xbc6de057	-0.014518819
199	0x3ddd7c63	0.108147405
200	0x3c64ff6a	0.013976911
201	0x3d0833e8	0.033252627
202	0x3e0ea0c6	0.13928518
203	0xbedea946	-0.4348852
204	0xbe7d8638	-0.24758232
205	0x3ccb2413	0.024797475
206	0xbc92d181	-0.017922165
207	0x3cf5e394	0.030015744
208	0xbc615922	-0.013754161
209	0x3e6fcc73	0.23417835
210	0x3cfdfc2b	0.031004032
211	0x3c1c38fe	0.009535072
212	0x3cb20630	0.021731466
213	0x3ea490db	0.32141766
214	0x3f326409	0.6968389
215	0x3b575308	0.0032855887
216	0xbf936937	-1.1516484
217	0xbb13438f	-0.0022470688
218	0x3d55321e	0.05204975
219	0xbc4be712	-0.012445228
220	0xbbfcbc22	-0.007712857
221	0x3d26abec	0.0406913
222	0xbc17ac17	-0.009257338
223	0xbe851e3d	-0.25999632
224	0xbeefabcd	-0.4681076
225	0xbcedabf1	-0.029012652
226	0xbb07e418	-0.002073532
227	0xbcdee703	-0.027209764
228	0x3d3a23e5	0.045444388
229	0x3bb24ef8	0.0054415427
230	0xbf0a2119	-0.53956753
231	0x3ce90889	0.028446453
232	0xbd322e13	-0.04350097
233	0x3cf8a232	0.030350778
234	0x3b97eb70	0.0046362206
235	0xbf4b7280	-0.7947159
236	0xba806c7e	-0.0009797958
237	0x3d2dd7b6	0.042442046
238	0x3cccd6fd	0.025004858
239	0x3c372b35	0.011179735
240	0x3bc877db	0.0061178035
241	0xbe360814	-0.17776519
242	0x3cc0be7f	0.023528336
243	0xbce3ece2	-0.027822915
244	0x3c8b4e61	0.017005147
245	0xbb482b50	-0.0030543394
246	0x3a9777b8	0.0011556065
247	0xbce5fd9d	-0.028075034
248	0x3c9ce33b	0.01915132
249	0xbca0517e	-0.019570109
250	0x3a33cf5a	0.0006859206
251	0x3e4f26fe	0.20229718
252	0x3cf5d3f5	0.030008296
253	0x3e6c0e59	0.23052348
254	0x3e9bf405	0.3045961
255	0xbc3dea6d	-0.011591536

net.4.bias f4 [4]
0	0xbe15a65a	-0.1461424
1	0x3df5650d	0.119821645
2	0xbf31e148	-0.69484377
3	0xbf44576e	-0.7669591
