tau_data/seed0/SAC_STL_critic_200000.pth (torch, 549013 bytes, 10 tensors)

net1.0.weight f4 [256, 7]
0.19568862 0.27757373 -0.0033565394 -0.478278 -0.4600027 0.18265559 0.26638663 -0.17028035
-0.31343937 0.029860554 -0.37929985 0.10629259 0.0495127 -0.14719519 0.33190688 0.041026805
-0.045923516 0.2245483 0.51183087 0.019073639 0.030613372 0.35905316 -0.107300185 0.34063974
0.09905933 -0.17077348 -0.065034136 0.16530722 -0.105252616 0.00026911654 0.18256755 -0.5765969
-0.39368677 0.1301597 0.1084433 0.3753864 -0.085919335 0.21171623 -0.16008894 0.5150324
-0.06402511 0.0071544223 0.2995997 -0.17071632 0.17875524 -0.5671663 0.5587455 0.07574328
0.02976802 -0.04867158 0.0023829453 -0.22025293 -0.8080424 -0.059867382 0.042505167 -0.06019719
-0.21327709 0.026279058 0.05232943 0.45000014 -0.06783746 0.026855689 -0.011120885 -0.23185277
-0.13216196 0.2245496 -0.34472927 -0.36438313 -0.101109385 0.030633764 0.35698646 -0.18543614
-0.26932377 -0.16754897 0.46664447 0.004613163 0.067672856 0.10401633 -0.09693576 -0.31583396
0.080503836 -0.018827569 0.20008683 -0.22480085 0.17339128 -0.3337799 -0.0076667606 0.99322414
-0.24781778 -0.0040401015 -0.0071521006 0.011042834 0.12119219 -0.22475143 0.62340045 0.98479223
0.017618638 -0.06801263 0.33426383 0.0070560607 -0.052970525 -0.08789392 0.7624747 -0.016274732
-0.008103951 0.22218527 -0.098855324 -0.016884884 0.5428742 -0.6710347 0.04843345 0.029707897
0.010439063 0.22935626 0.10870198 -0.2949896 -0.42067537 0.02360013 -0.013044481 0.012440186
0.20130518 -0.33554658 -0.09557579 0.04334929 0.057330504 0.056015506 -0.3389173 0.18823986
-0.23884533 0.17696187 0.46559784 0.03654627 -0.0072728815 -0.26731813 0.06878167 0.3598207
-0.14626156 0.35116985 -0.007370058 -0.011251823 -0.18674304 0.17414942 0.022141768 -0.23841158
-0.594836 0.021851247 0.017624866 0.15575854 -0.10899907 -0.09388116 -0.07872326 0.52416843
0.09246259 0.13539809 -0.3351689 0.16909917 0.20826432 0.5151417 0.4775606 -0.12803878
-0.11978764 0.20209627 0.23214242 0.019576846 -0.6305807 0.7521112 -0.06561936 -0.019559031
-0.35108706 -0.25215474 -0.047446467 -0.014966973 0.31312415 0.07610742 0.10362679 -0.24594417
-0.21853466 0.34965572 -0.40826204 -0.410716 0.00795188 -0.15649918 -0.28531095 0.60225976
0.036974426 -0.036951095 0.31278718 -0.105490424 -0.008372593 -0.050300647 0.2930509 -0.06902834
0.63405305 0.21841502 0.28947344 0.07113812 -0.22542705 -0.29487243 0.1772122 0.06086077
0.27970082 -0.013328804 -0.016346775 0.11574536 0.14907438 -0.1154147 0.084991395 0.012884139
0.0008292744 -0.015122871 0.25024852 -0.14858267 0.29729268 -0.5252362 -0.23820555 -0.0075030634
0.0617786 0.082480595 0.22121699 0.08889311 -0.15593804 0.16304508 0.13082336 0.20603341
0.07316214 0.48785466 -0.2980045 0.0775605 -0.2026031 -0.030235047 -0.028053394 -0.04295149
-0.12603712 0.087487906 -0.39127132 -0.24954675 0.031529207 -0.06037497 -0.32552218 -0.3242085
0.15986368 0.08522631 -0.426345 0.15410979 0.027238935 0.1783318 -0.12297087 -0.14838757
0.055009868 -0.47682223 -0.021769272 0.06811498 0.12655754 -0.31246156 -0.16050512 -0.6169312
00000000: 9962 483e 251e 8e3e 63f9 5bbb dbe0 f4be
00000010: 7985 ebbe 110a 3b3e d463 883e f95d 2ebe
00000020: 207b a0be 1f9e f43c 9733 c2be eeaf d93d
00000030: d4cd 4a3d 56ba 16be b3ef a93e b90b 283d
00000040: 4c1a 3cbd fdef 653e 5907 033f 5240 9c3c
00000050: e5c8 fa3c d1d5 b73e 33c0 dbbd 5568 ae3e
00000060: 9edf ca3d 3edf 2ebe 9e30 85bd 4c46 293e
00000070: af8e d7bd 3618 8d39 fdf2 3a3e db9b 13bf
00000080: 5091 c9be 9648 053e 8517 de3d a532 c03e
00000090: 7af6 afbd 24cc 583e 5bee 23be 2ad9 033f
000000a0: 991f 83bd a56f ea3b 2265 993e 42d0 2ebe
000000b0: 9d0b 373e d031 11bf f209 0f3f 4b1f 9b3d
000000c0: 10dc f33c da5b 47bd 302b 1c3b fc89 61be
000000d0: dedb 4ebf 8037 75bd e619 2e3d 5491 76bd
000000e0: 4f65 5abe 2e47 d73c 6257 563d 6b66 e63e
000000f0: 5eee 8abd 7600 dc3c 5f34 36bc d06a 6dbe
00000100: 7755 07be 55f0 653e 5b80 b0be 6d90 babe
00000110: 7012 cfbd a9f3 fa3c eec6 b63e f9e2 3dbe
00000120: cee4 89be f591 2bbe 06ec ee3e 042a 973b
00000130: 1198 8a3d 8306 d53d 4186 c6bd fdb4 a1be
00000140: 32df a43d 463c 9abc 90e3 4c3e 3232 66be
00000150: 7c8d 313e 33e5 aabe 7339 fbbb f043 7e3f
00000160: f2c3 7dbe d462 84bb 2b5c eabb 01ed 343c
00000170: 9c33 f83d 3d25 66be 2c97 1f3f 581b 7c3f
00000180: f654 903c 354a 8bbd a124 ab3e 8736 e73b
00000190: 9ff7 58bd ba01 b4bd 8b31 433f 9652 85bc
000001a0: 6fc6 04bc 8984 633e a974 cabd 2b52 8abc
000001b0: cef9 0a3f eec8 2bbf 2762 463d fa5d f33c
000001c0: 9b08 2b3c 5edc 6a3e 259f de3d e008 97be
000001d0: c362 d7be 0f55 c13c 85b8 55bc ecd1 4b3c
000001e0: f222 4e3e c3cc abbe 3dbd c3bd 068f 313d
000001f0: 64d3 6a3d 8470 653d 9186 adbe f3c1 403e
00000200: df93 74be 7e35 353e d762 ee3e 8bb1 153d
00000210: 5a51 eebb ecdd 88be 67dd 8c3d 6b3a b83e
00000220: 97c5 15be 89cc b33e 8780 f1bb 9159 38bc
00000230: 9139 3fbe 3a54 323e a762 b53c 2a22 74be
00000240: 2c47 18bf 6301 b33c 0662 903c 2b7f 1f3e
00000250: e83a dfbd c444 c0bd a939 a1bd e72f 063f
00000260: 075d bd3d cca5 0a3e 429b abbe 5528 2d3e
00000270: 3e43 553e 54e0 033f d382 f43e 991c 03be
00000280: 3953 f5bd 53f2 4e3e beb6 6d3e 9f5f a03c
00000290: bd6d 21bf 5c8a 403f 7163 86bd 433a a0bc
000002a0: afc1 b3be 6d1a 81be 3a57 42bd 0938 75bc
000002b0: cf51 a03e 35de 9b3d 483a d43d cad8 7bbe
000002c0: 8dc7 5fbe 1306 b33e b907 d1be 5e49 d2be
000002d0: 9a48 023c 5241 20be 4714 92be b22d 1a3f
000002e0: 7f72 173d 085a 17bd a425 a03e 5d0b d8bd
000002f0: 332d 09bc 0d08 4ebd c40a 963e bb5e 8dbd
00000300: 4d51 223f 30a8 5f3e dd35 943e ddb0 913d
00000310: 59d6 66be 85f9 96be 1d77 353e 2549 793d
00000320: f234 8f3e 0e61 5abc ace9 85bc e70b ed3d
00000330: f4a6 183e 8b5e ecbd f80f ae3d ff17 533c
00000340: aa63 593a ebc5 77bc 9320 803e 0e26 18be
00000350: bf36 983e e175 06bf 28ec 73be 42dc f5bb
00000360: 8f0b 7d3d 96eb a83d b586 623e 970d b63d
00000370: 39ae 1fbe 4af5 263e 8ff6 053e 6cfa 523e
00000380: 08d6 953d 16c8 f93e 0c94 98be 0ad8 9e3d
00000390: 3077 4fbe 7daf f7bc 3bd0 e5bc e7ed 2fbd
000003a0: e00f 01be dc2c b33d b754 c8be 2f89 7fbe
000003b0: c524 013d bf4b 77bd d8aa a6be a8fe a5be
000003c0: 4eb3 233e 228b ae3d e449 dabe f5ce 1d3e
000003d0: 3024 df3c 9d9c 363e 27d8 fbbd e9f2 17be
000003e0: 0752 613d 0b22 f4be 7955 b2bc de7f 8b3d
000003f0: 4d98 013e f6fa 9fbe 745b 24be 34ef 1dbf

net1.0.bias f4 [256]
0.4367976 0.50448215 0.4014654 -0.4084741 0.26380882 0.0052890573 0.034609813 0.15878211
-0.6607124 0.60146874 0.36755276 0.4215375 -0.2607891 0.18819152 -0.25584966 -0.28806862
0.18896744 0.43572176 -0.4523677 -0.58374995 0.22306474 0.12172039 -0.2812832 -0.32871833
-0.598898 0.1526422 -0.46842387 -0.44780433 -0.57382524 0.4758727 0.4887179 -0.45342517
-0.049073603 0.23582457 0.3783491 0.64175826 0.35504177 0.50407714 -0.22514948 0.6057056
0.7087447 -0.37072644 0.15992142 -0.33307362 -0.5190697 -0.46538585 -0.061512902 -0.44496137
0.52028054 0.3237184 0.7310231 -0.32031396 0.13730592 -0.3351838 0.63829565 0.1389361
0.1192732 0.21096551 -0.26854557 0.2576998 0.15630597 0.47871092 0.6253056 -0.4847902
-0.589808 0.18846893 -0.6298487 0.46745303 -0.4326787 0.39954782 0.21535577 0.29210633
-0.42962936 -0.35985613 0.2662186 -0.08725929 0.59538704 0.3445072 0.39359763 0.4091858
-0.4930839 -0.50246537 0.39914697 -0.28976494 -0.39975932 0.22044708 0.61806726 0.25126934
0.5136375 0.67561895 0.06690063 0.03532278 -0.39450338 -0.42459166 0.6520069 0.6398999
0.18348794 0.4198441 0.63971096 -0.40650374 -0.37074533 -0.4312498 -0.34307885 0.25823998
-0.12298519 -0.4939453 -0.19374445 -0.3679829 0.41621947 0.5472581 -0.48166332 0.48445478
-0.2680171 -0.53920835 -0.12175263 -0.2855522 -0.4236387 0.47572723 0.46353954 0.15047073
-0.48164427 -0.20702305 -0.21175902 0.38381496 0.40494776 -0.574855 0.45896992 0.45002243
0.47697434 0.24491392 -0.16076511 0.056499824 -0.5811458 -0.2813829 0.21985812 0.4033344
0.68805236 0.31190246 -0.51228124 0.47416258 -0.5607781 0.4339647 0.48036405 -0.39146844
0.4854553 -0.4044444 -0.52277696 -0.4212876 -0.451164 0.40567246 0.40988016 0.0054719592
0.31284824 -0.3064779 0.6193409 -0.52687156 0.4930071 -0.040566858 0.40901098 -0.2084365
-0.3992477 0.530156 0.2591221 -0.4745784 0.58828586 -0.21129565 0.55293757 0.70322585
-0.34526637 0.5337264 0.28486332 -0.58871084 0.17585015 -0.30588704 -0.25551268 -0.5558004
-0.45970705 -0.46051064 -0.4099527 0.68542093 0.5930487 -0.38160077 -0.6461931 0.21072343
0.36205283 0.6516989 -0.4469456 -0.5030961 0.33928233 0.32988816 -0.5033872 0.122160114
0.08132211 0.566806 -0.17586799 0.5641739 0.51539207 -0.057791058 -0.37841454 0.65315497
-0.16266824 -0.4913893 0.15007648 0.6296077 0.6224101 -0.35719606 0.27290717 0.6409451
0.29340342 -0.6575335 0.39526358 0.38996407 0.40534243 -0.52583814 -0.635458 -0.08086489
0.4368121 0.60071915 0.5283789 -0.17250432 0.27157936 -0.5644322 0.3289507 0.47721612
-0.06477384 0.53031135 -0.24227318 0.36422896 0.32399496 0.44268098 0.72432953 -0.59355724
-0.41409206 0.16280812 -0.40490222 0.37421367 -0.5565562 0.49643895 0.652259 -0.25860333
-0.759701 0.2765825 -0.10077033 0.48848653 0.37456477 0.6578257 -0.58426696 -0.65695995
0.55340266 0.42106858 -0.2528841 -0.35310647 -0.3107845 0.057084247 0.6996964 0.4230446
00000000: efa3 df3e be25 013f df8c cd3e 8423 d1be
00000010: f311 873e d44f ad3b 05c3 0d3d c797 223e
00000020: 7324 29bf dbf9 193f e02f bc3e c3d3 d73e
00000030: 2686 85be 47b5 403e bafe 82be bb7d 93be
00000040: ae80 413e ec16 df3e bd9c e7be a370 15bf
00000050: 156b 643e 8a48 f93d 5a04 90be c54d a8be
00000060: 6151 19bf 3d4e 1c3e 41d5 efbe 9c46 e5be
00000070: 36e6 12bf 96a5 f33e 3c39 fa3e 5827 e8be
00000080: 6701 49bd ff7b 713e f9b6 c13e 454a 243f
00000090: 09c8 b53e 330b 013f 968d 66be 860f 1b3f
000000a0: 4b70 353f dbcf bdbe 71c2 233e a088 aabe
000000b0: c0e1 04bf 0e47 eebe f4f4 7bbd fad1 e3be
000000c0: 1b31 053f 6bbe a53e 5424 3b3f 3100 a4be
000000d0: ec99 0c3e 369d abbe 5867 233f 4445 0e3e
000000e0: 8245 f43d 5807 583e ce7e 89be 3af1 833e
000000f0: ac0e 203e 9919 f53e 0714 203f 6c36 f8be
00000100: a8fd 16bf 00fe 403e c43d 21bf 0156 ef3e
00000110: 1088 ddbe 8891 cc3e 3986 5c3e f68e 953e
00000120: 61f8 dbbe 103f b8be ce4d 883e 00b5 b2bd
00000130: 496b 183f 3f63 b03e a185 c93e cd80 d13e
00000140: 7e75 fcbe 92a1 00bf fe5c cc3e 125c 94be
00000150: 41ad ccbe e1bc 613e a839 1e3f 60a6 803e
00000160: bf7d 033f 5df5 2c3f 3303 893d 9fae 103d
00000170: 59fc c9be 1464 d9be ede9 263f 7bd0 233f
00000180: 43e4 3b3e cef5 d63e 19c4 233f 4221 d0be
00000190: 55d2 bdbe c6cc dcbe 08a8 afbe 0838 843e
000001a0: a9df fbbd 66e6 fcbe f264 46be 4168 bcbe
000001b0: b81a d53e 1b19 0c3f 939c f6be 750a f83e
000001c0: 8a39 89be 8f09 0abf 7159 f9bd e633 92be
000001d0: 2ce7 d8be 8592 f33e 0e55 ed3e 0015 1a3e
000001e0: 149a f6be dafd 53be 5bd7 58be 6583 c43e
000001f0: 5055 cf3e b329 13bf 1bfe ea3e 5769 e63e
00000200: fb35 f43e b7ca 7a3e 9c9f 24be 5c6c 673d
00000210: f9c5 14bf 6b11 90be 7d22 613e d981 ce3e
00000220: 3324 303f aeb1 9f3e dd24 03bf 70c5 f23e
00000230: 278f 0fbf 9f30 de3e 47f2 f53e 8d6e c8be
00000240: 998d f83e 5613 cfbe b6d4 05bf 02b3 d7be
00000250: f8fe e6be 4db4 cf3e d0db d13e 1f4e b33b
00000260: a52d a03e acea 9cbe 208d 1e3f 0ee1 06bf
00000270: 6d6b fc3e 6f29 26bd e369 d13e 6170 55be
00000280: 326a ccbe 4eb8 073f a7ab 843e f1fb f2be
00000290: e799 163f e35d 58be 518d 0d3f 9c06 343f
000002a0: c1c6 b0be 4ba2 083f 9bd9 913e c1b5 16bf
000002b0: 1012 343e 3a9d 9cbe 8fd2 82be ef48 0ebf
000002c0: b95e ebbe 0dc8 ebbe 52e5 d1be bf77 2f3f
000002d0: 0ad2 173f 2d61 c3be e96c 25bf e2c7 573e
000002e0: fd5e b93e bdd5 263f 0ed6 e4be e8ca 00bf
000002f0: 6ab6 ad3e 1ae7 a83e fcdd 00bf 152f fa3d
00000300: 358c a63d 331a 113f bd16 34be b36d 103f
00000310: bcf0 033f 51b6 6cbd 8dbf c1be 2a35 273f
00000320: 8192 26be 6197 fbbe a6ad 193e f82d 213f
00000330: 4556 1f3f 67e2 b6be 7dba 8b3e fa14 243f
00000340: f938 963e 1e54 28bf fd5f ca3e 5fa9 c73e
00000350: 0b89 cf3e 549d 06bf 60ad 22bf 7e9c a5bd
00000360: d6a5 df3e bbc8 193f d743 073f f9a4 30be
00000370: 730c 8b3e a17e 10bf 3a6c a83e ac55 f43e
00000380: 26a8 84bd 7cc2 073f 7616 78be 387c ba3e
00000390: abe2 a53e 15a7 e23e a96d 393f 5ef3 17bf
000003a0: e003 d4be 2cb7 263e 584f cfbe ef98 bf3e
000003b0: 787a 0ebf 3f2d fe3e 72fa 263f a867 84be
000003c0: c47b 42bf 399c 8d3e ad60 cebd e81a fa3e
000003d0: f4c6 bf3e 4467 283f 8592 15bf 872e 28bf
000003e0: ccab 0d3f 4d96 d73e 067a 81be 5fca b4be
000003f0: 251f 9fbe 2cd1 693d 4e1f 333f 4d99 d83e

net1.2.weight f4 [256, 256]
-0.799949 -0.047550004 0.12423293 -0.05377092 0.032250073 -0.043874945 0.038546607 -0.14421499
0.15915251 -0.025109444 0.018863646 -0.13563904 0.17411552 0.04757026 0.08797345 0.053528734
-0.002170718 0.025178272 0.17520317 0.13980506 0.010575585 -0.023145247 0.07158937 -0.2628653
0.077075 -0.0065714745 0.13652599 0.1806022 0.14829342 -0.5117718 -0.05372455 -0.9966487
0.12845422 -0.028509013 0.083737455 -0.08346454 -0.0857778 -0.07804244 -0.036788408 0.06697597
-0.10133694 0.044816002 -0.004581577 0.18849437 0.11953107 0.06569361 -0.12512445 -0.004216581
-0.024899809 0.015018348 -0.34493664 -0.008272317 0.08174555 0.15789741 -0.2149384 0.028256036
0.014071409 0.0566689 0.13293143 0.0034503571 0.094520085 -0.019648261 -0.12302965 0.054623846
0.16749914 0.101281814 0.1409138 0.04316889 0.24252078 0.05786551 -0.0071317744 -0.009251444
0.14424756 0.021336922 0.13137224 0.08495628 0.047761068 0.020896604 -0.014335322 -0.0033995637
-0.13034837 0.082383454 0.093140215 0.008995289 0.24901961 -0.04817663 0.027631218 0.029911803
0.043912914 -0.14605452 0.009374291 0.118830115 0.1329191 0.051206633 -0.010942601 0.0529366
0.16987926 0.0027109077 -0.12917241 -0.32225567 0.08502372 -0.08229656 -0.012513261 -0.029782271
-0.22923294 -0.9833453 0.11470074 0.02626215 -0.15621285 0.0061150496 0.059994522 -0.14557128
-0.2645175 -0.23445141 0.0062881764 0.1457663 0.071199745 0.012062062 -0.1345507 0.069440015
-0.46765295 -0.09588344 -0.17685632 -0.024490658 -0.3996493 0.07967649 -0.045222957 -0.0992594
0.005999252 -0.080056265 0.109831035 0.055386476 0.01908467 -0.44039518 -3.821455e-05 0.00053098315
-0.1976634 0.057572637 0.069895014 0.019773444 0.09323371 -0.037624843 -0.085647725 -0.014052902
-0.015123065 0.05281688 0.15413071 0.042285904 0.013336664 0.0051587773 -0.06576708 -0.108829096
-0.06799682 -0.08919365 -0.3492232 0.1949288 -0.052662104 0.57193106 0.09672143 0.015064187
-0.10356027 -0.062532485 0.0023522915 -0.004055056 -0.30200404 0.06831084 0.0020445636 -0.21629049
0.12566368 -0.031211091 0.06705767 -0.56250644 0.09043051 0.09356408 0.07969421 0.11484365
0.24958059 0.012040231 -0.1746478 -0.6540979 0.043531686 0.11457046 0.037732206 0.117529824
-0.026849085 -0.1091341 0.096497424 0.20487423 0.07452975 0.14359713 -0.026841618 0.07442577
-0.37709293 0.019704888 0.099829905 -0.0901433 -0.10711939 0.07669264 0.17486224 0.038899347
0.22261313 0.16904289 0.08251365 -0.0075632427 -0.08635696 0.15463716 -0.16423345 0.022591623
-0.051905733 -0.20209873 -0.010219296 -0.20173909 -0.008422881 0.08594699 -0.022412207 0.048259042
0.057089955 0.041709147 0.07980425 -0.037009902 0.08043307 0.03468185 0.0709304 -0.022121726
-0.23536707 0.04489769 -0.18859929 -0.16623355 0.07736465 0.019660225 -0.3366691 0.014191722
-0.3955672 0.197938 0.20683166 0.07405209 0.03174661 -0.053498287 -0.08182321 0.08094802
-0.20318426 0.05851414 0.10717128 -0.29700238 -0.055788863 0.061266504 -0.1486001 -0.22104812
-0.11946589 0.1197108 0.08740309 -0.50698626 0.19195858 -0.3377199 -0.07812928 -0.026072128
00000000: 75c9 4cbf cbc3 42bd d66d fe3d e53e 5cbd
00000010: a718 043d 37b6 33bd 0ce3 1d3d 18ad 13be
00000020: e0f8 223e 52b2 cdbc ef87 9a3c f6e4 0abe
00000030: 574b 323e 08d9 423d 6d2b b43d f240 5b3d
00000040: 9b42 0ebb aa42 ce3c 7668 333e 0f29 0f3e
00000050: 3845 2d3c 1a9b bdbc 739d 923d 4896 86be
00000060: 7fd9 9d3d 8655 d7bb 78cd 0b3e c8ef 383e
00000070: 3bda 173e 7a03 03bf 460e 5cbd 5f24 7fbf
00000080: 8189 033e bc8b e9bc 8b7e ab3d 75ef aabd
00000090: 45ac afbd b7d4 9fbd 71af 16bd b32a 893d
000000a0: be89 cfbd fc90 373d 0e21 96bb ab04 413e
000000b0: b5cc f43d 5f8a 863d a020 00be 3f2b 8abb
000000c0: affa cbbc 840f 763c 899b b0be 9d88 07bc
000000d0: 366a a73d dcaf 213e d018 5cbe 3479 e73c
000000e0: c48b 663c a61d 683d 2d1f 083e 631f 623b
000000f0: bf93 c13d 64f5 a0bc f8f6 fbbd 41bd 5f3d
00000100: e584 2b3e d76c cf3d b54b 103e ddd1 303d
00000110: 5e57 783e 6304 6d3d a9b1 e9bb 5e93 17bc
00000120: a2b5 133e c5ca ae3c 7286 063e 8ffd ad3d
00000130: 1ca1 433d 5b2f ab3c b3de 6abc 37cb 5ebb
00000140: 0b7a 05be a8b8 a83d 4cc0 be3d fa60 133c
00000150: fffe 7e3e dc54 45bd dd5a e23c 9909 f53c
00000160: 07de 333d 518f 15be a096 193c 345d f33d
00000170: f21b 083e 0cbe 513d 9848 33bc 0cd4 583d
00000180: d4f4 2d3e 7ca9 313b c645 04be b2fe a4be
00000190: eb20 ae3d 198b a8bd 6c04 4dbc f3f9 f3bc
000001a0: 0abc 6abe 85bc 7bbf 39e8 ea3d b823 d73c
000001b0: 43f6 1fbe c160 c83b d1bc 753d a310 15be
000001c0: d66e 87be 0814 70be 0c0d ce3b c343 153e
000001d0: 2cd1 913d f49f 453c a9c7 09be 9136 8e3d
000001e0: 3570 efbe 895e c4bd d319 35be a2a0 c8bc
000001f0: d59e ccbe 6d2d a33d b53b 39bd 8348 cbbd
00000200: 6095 c43b 8af4 a3bd 18ef e03d eedc 623d
00000210: 7457 9c3c 7a7b e1be 9048 20b8 ad31 0b3a
00000220: 4668 4abe 49d1 6b3d 1e25 8f3d ebfb a13c
00000230: 51f1 be3d 821c 1abd 1368 afbd 253e 66bc
00000240: bbc6 77bc 8356 583d 71d4 1d3e fc33 2d3d
00000250: 0682 5a3c f60a a93b e4b0 86bd cae1 debd
00000260: eb41 8bbd 29ab b6bd 62cd b2be 6a9b 473e
00000270: 38b4 57bd 136a 123f e315 c63d c8cf 763c
00000280: 6817 d4bd 0811 80bd e728 1a3b 46e0 84bb
00000290: 46a0 9abe 8ee6 8b3d 16fe 053b 417b 5dbe
000002a0: fbad 003e 67ae ffbc 8855 893d 6c00 10bf
000002b0: a233 b93d 869e bf3d b836 a33d 2633 eb3d
000002c0: 0e92 7f3e 6444 453c dfd6 32be f672 27bf
000002d0: 484e 323d eba3 ea3d 168d 1a3d 7ab3 f03d
000002e0: 9df2 dbbc b381 dfbd 71a0 c53d 8dca 513e
000002f0: 0ea3 983d 200b 133e f4e2 dbbc 8a6c 983d
00000300: 5312 c1be 256c a13c 9f73 cc3d 0d9d b8bd
00000310: 6961 dbbd 0811 9d3d 160f 333e ec54 1f3d
00000320: b2f4 633e 9419 2d3e ebfc a83d 14d5 f7bb
00000330: ebdb b0bd 3459 1e3e d02c 28be 1112 b93c
00000340: 1b9b 54bd f8f2 4ebe d66e 27bc b194 4ebe
00000350: 2000 0abc fa04 b03d ce99 b7bc 46ab 453d
00000360: 28d7 693d 36d7 2a3d 6970 a33d b297 17bd
00000370: 18ba a43d 8e0e 0e3d f543 913d 9f38 b5bc
00000380: 1104 71be a4e6 373d 2c20 41be 2139 2abe
00000390: 5c71 9e3d 7b0e a13c e45f acbe 6584 683c
000003a0: c987 cabe 42b0 4a3e aecb 533e 9fa8 973d
000003b0: bc08 023d 0521 5bbd ed92 a7bd 13c8 a53d
000003c0: 890f 50be 86ac 6f3d 9e7c db3d b210 98be
000003d0: dd82 64bd 96f2 7a3d a02a 18be 705a 62be
000003e0: 88aa f4bd f02a f53d 6400 b33d dac9 01bf
000003f0: ca90 443e 9fe9 acbe 3e02 a0bd 3795 d5bc

net1.2.bias f4 [256]
-0.2220409 -0.35033008 0.20219871 -0.05484569 -0.05396014 -0.06624895 -0.041494433 0.32350576
0.019941056 0.0019443454 -0.24051031 -0.30172116 0.18587051 -0.05470239 0.37617734 0.2689208
0.045229357 0.049353234 -0.0038638406 -0.042575005 -0.4268627 0.0699212 0.021586807 0.2633601
-0.014765844 0.37681112 -0.051621016 0.029328262 -0.27816552 0.009228514 -0.06198425 -0.026722863
0.38107705 0.2512436 -0.11200384 -0.18539965 0.34433028 0.26671046 0.30221912 0.1894341
-0.2305566 -0.033608947 0.31254378 0.13707148 -0.29820698 -0.32789308 -0.19707032 -0.049906626
0.39863393 0.03477829 0.1160713 -0.04676222 -0.0036417455 -0.26470146 0.018152677 0.03908167
-0.025974816 0.018485207 0.25758412 0.03107879 -0.14264727 -0.081008084 0.25783694 -0.35841686
-0.05112314 0.011070865 0.24408816 -0.028303526 0.1772747 0.005779765 0.3679752 -0.27037275
-0.22502176 -0.001018347 -0.25573322 -0.034529313 -0.0133116115 -0.07266964 -0.3694807 -0.3033753
0.37317842 -0.21069276 -0.01443251 -0.446947 0.26758325 -0.05524021 0.0055062436 0.29693136
0.2491685 0.15858333 -0.06296869 -0.026648592 0.014568553 -0.042022448 0.021884149 0.053687654
-0.0031215544 0.33501872 0.031282138 -0.2837149 0.03701721 -0.348446 -0.1915717 0.038001638
-0.011246231 0.24691181 0.016543942 0.05174271 0.047774762 -0.051265728 -0.013559607 -0.054097354
-0.022910483 0.36300713 0.03013763 0.32017496 0.23138908 -0.32311288 0.02791157 -0.02922848
0.32806185 0.4052481 -0.24126627 -0.009106645 0.33268923 0.28105238 0.17265722 0.3861643
0.3384083 -0.009596229 0.3104194 0.2626131 0.2834374 -0.15902807 0.0041926247 0.2763643
0.37532327 0.057639584 0.017591536 -0.068397805 -0.30619755 -0.0047507077 0.009439398 0.014818385
-0.18977219 -0.048102546 -0.441137 -0.3567122 0.36902872 0.26099032 0.33860415 -0.045892954
-0.1832582 -0.21571228 -0.05739396 0.34893677 0.3728576 -0.007496625 -0.20981336 0.011277731
-0.04441105 -0.046976056 -0.31250343 0.38170207 0.049909074 -0.040873352 0.14598644 -0.35394534
0.083090246 -0.063065976 0.35459626 0.34469527 0.059948932 -0.07299708 0.27011484 0.0021333098
-0.026074504 -0.04870404 -0.016667416 0.020680344 -0.055412713 -0.07769563 0.3588362 -0.05764121
0.26383027 0.0336905 -0.06834666 0.24489832 -0.010137341 -0.21863455 -0.0071833236 0.2768359
-0.03105216 -0.039123405 -0.032136373 -0.062310096 -0.05473 0.03339115 0.01930039 -0.08422777
-0.03758909 -0.023540942 0.031463057 -0.073713936 0.05472002 -0.041425984 0.22178084 -0.009395407
0.29250604 0.015987104 -0.364387 0.024993114 0.31797698 -0.05110371 -0.0125257475 -0.33743942
0.24403849 0.24515262 -0.07536914 0.10678048 0.1188533 -0.23712277 -0.23740594 0.026900167
0.26113924 -0.18750697 -0.068961516 -0.03436278 -0.29955426 0.28977484 0.21323195 0.31156147
-0.38653174 0.033388987 -0.044528536 -0.1251764 -0.062889926 0.27951232 -0.067600235 -0.37977967
-0.06349072 0.13531913 -0.042268448 0.30901104 0.25136018 -0.3555145 0.3461419 -0.084282584
0.29343155 -0.1597618 0.04041052 0.04051402 0.03459655 0.22557507 -0.04016911 0.042283
00000000: b15e 63be 775e b3be 2e0d 4f3e e0a5 60bd
00000010: 4f05 5dbd 88ad 87bd 11f6 29bd 8ca2 a53e
00000020: 6d5b a33c 68d9 fe3a 5648 76be 327b 9abe
00000030: d754 3e3e 9d0f 60bd 519a c03e fdaf 893e
00000040: 6b42 393d 9e26 4a3d 7d38 7dbb 2163 2ebd
00000050: bf8d dabe d932 8f3d d1d6 b03c 23d7 863e
00000060: 70ec 71bc 63ed c03e 8f70 53bd d341 f03c
00000070: b66b 8ebe 3133 173c 32e3 7dbd e8e9 dabc
00000080: 881c c33e 00a3 803e 4562 e5bd 68d9 3dbe
00000090: 0f4c b03e 468e 883e 77bc 9a3e 03fb 413e
000000a0: 0817 6cbe 89a9 09bd bd05 a03e 775c 0c3e
000000b0: 96ae 98be 9ae1 a7be cdcc 49be e46a 4cbd
000000c0: bf19 cc3e ae73 0e3d cab6 ed3d be89 3fbd
000000d0: 5aaa 6ebb f386 87be ecb4 943c 1a14 203d
000000e0: 23c9 d4bc 4a6e 973c 11e2 833e f298 fe3c
000000f0: 2012 12be 91e7 a5bd 3403 843e 6a82 b7be
00000100: 7f66 51bd 9362 353c 3ff2 793e ccdc e7bc
00000110: 8087 353e 2f64 bd3b 3f67 bc3e 4c6e 8abe
00000120: 1b6c 66be 0e7a 85ba 77ef 82be 9c6e 0dbd
00000130: f218 5abc d2d3 94bd 932c bdbe 0254 9bbe
00000140: 3e11 bf3e d8bf 57be 5676 6cbc 3dd6 e4be
00000150: ac00 893e 8f43 62bd b86d b43b 6307 983e
00000160: 0726 7f3e ab63 223e bbf5 80bd 264e dabc
00000170: f1b0 6e3c bb1f 2cbd 6346 b33c 96e7 5b3d
00000180: fe92 4cbb 9387 ab3e b321 003d 1443 91be
00000190: 5c9f 173d 8467 b2be 5f2b 44be 9ba7 1b3d
000001a0: 1d42 38bc 73d6 7c3e 2987 873c 2af0 533d
000001b0: 78af 433d 03fc 51bd 1d29 5ebc 3095 5dbd
000001c0: c4ae bbbc 12dc b93e 31e3 f63c f9ed a33e
000001d0: 42f1 6c3e 0d6f a5be cea6 e43c 9170 efbc
000001e0: b9f7 a73e ae7c cf3e 810e 77be 0a34 15bc
000001f0: 3e56 aa3e 19e6 8f3e 0ecd 303e 54b7 c53e
00000200: da43 ad3e 8039 1dbc 4bef 9e3e 3975 863e
00000210: b51e 913e 41d8 22be 4962 893b 9f7f 8d3e
00000220: 5f2a c03e 7c17 6c3d 201c 903c 2614 8cbd
00000230: edc5 9cbe d3ab 9bbb b4a7 1a3c d0c8 723c
00000240: a453 42be 2d07 45bd b5dc e1be fba2 b6be
00000250: 55f1 bc3e 86a0 853e 865d ad3e 40fa 3bbd
00000260: 0aa8 3bbe aee3 5cbe ee15 6bbd d7a7 b23e
00000270: 31e7 be3e 40a6 f5bb 50d9 56be 3bc6 383c
00000280: 5ce8 35bd f769 40bd 7300 a0be 746e c33e
00000290: 756d 4c3d d16a 27bd 787d 153e 5338 b5be
000002a0: 382b aa3d bc28 81bd a48d b53e e67b b03e
000002b0: 038d 753d 7e7f 95bd 7e4c 8a3e 00cf 0b3b
000002c0: 339a d5bc e37d 47bd 1b8a 88bc d369 a93c
000002d0: 71f8 62bd e31e 9fbd 61b9 b73e 3019 6cbd
000002e0: c314 873e 0dff 093d 55f9 8bbd a0c6 7a3e
000002f0: 1717 26bc bce1 5fbe 1662 ebbb 6fbd 8d3e
00000300: 1961 febc dd3f 20bd 6ea1 03bd df38 7fbd
00000310: 912c 60bd 29c5 083d da1b 9e3c 9c7f acbd
00000320: 05f7 19bd efd8 c0bc 68df 003d 55f7 96bd
00000330: 1a22 603d 4bae 29bd 841a 633e 31ef 19bc
00000340: 5ac3 953e 63f7 823c ef90 babe 5cbe cc3c
00000350: e1cd a23e 2052 51bd cb38 4dbc dcc4 acbe
00000360: 3ae5 793e 4a09 7b3e 235b 9abd b9af da3d
00000370: 5c69 f33d 50d0 72be 8b1a 73be bd5d dc3c
00000380: 0bb4 853e d401 40be b23b 8dbd fdbf 0cbd
00000390: 2d5f 99be 5e5d 943e 7a59 5a3e fc84 9f3e
000003a0: 7de7 c5be e4c2 083d 8e63 36bd 3e2e 00be
000003b0: 6fcc 80bd 3d1c 8f3e fe71 8abd 7b72 c2be
000003c0: 6c07 82bd 1991 0a3e ae21 2dbd b236 9e3e
000003d0: 48b2 803e ff05 b6be 8339 b13e 599c acbd
000003e0: a93c 963e 9998 23be 8085 253d 07f2 253d
000003f0: 1db5 0d3d 27fd 663e 5d88 24bd f030 2d3d

net1.4.weight f4 [1, 256]
0.13483272 0.29553968 -0.7358808 0.0015945513 0.0030979817 -0.015181254 0.016802378 -0.10786431
-0.0013917683 -0.0353756 0.048181217 0.12153476 -0.54803616 -0.00012474398 -0.13469721 -0.10735717
-0.012316039 -0.0046454575 0.00025178495 -0.021283116 0.17471465 -0.35803786 0.05060677 -0.09783732
0.034887746 -0.17271264 0.036163304 -0.027426835 0.123590946 -0.034092784 -0.029787077 0.041491844
-0.171144 -0.10817119 9.380186e-05 0.0007629779 -0.12202413 -0.11218812 -0.11880938 -0.09163757
-0.0012660959 0.014593431 -0.10162169 -0.93575317 0.10756987 0.14667438 0.40867814 -0.048318934
-0.17366552 0.03863562 -0.34521955 -0.022825854 0.035595965 0.28403756 0.009792793 0.033427425
-0.016339054 -0.012947322 -0.093475744 0.033648845 0.33208916 -0.008557158 -0.14501187 0.20324223
0.0006865388 -0.001953724 -0.102545574 0.05294168 -1.1446086 0.022333048 -0.13739489 0.20769374
0.085091695 -0.0150224855 0.16300054 0.017662263 -0.0047422657 -0.05559071 0.3579253 0.099235736
-0.18079181 0.25921398 0.10548032 0.23602442 -0.10366548 -0.025636196 -0.019168522 -0.14236338
-0.14884898 -0.5941156 -0.015395014 -0.021144802 -0.041346967 0.014413667 0.0037854284 0.032186054
-0.039974637 -0.16381563 -0.02184078 0.13656121 0.005381029 0.16815469 0.2566255 0.051071845
-0.018829212 -0.12364407 -0.0042104544 0.0035732293 -0.014917772 -0.045128826 0.004019477 0.0028259242
0.02396506 -0.17169808 -0.0439588 -0.126861 -0.14644359 -0.0005052219 0.02908059 -0.0116664395
-0.12167264 -0.18024845 0.3641931 0.0007204473 -0.16038306 -0.13249151 -0.45445225 -0.22365575
-0.12447103 0.03548464 -0.13750993 -0.14136532 -0.11871538 0.31677347 0.03166242 -0.5287548
-0.14906043 -0.6801447 -0.03313067 -0.042666376 0.17334025 0.008505946 0.010833596 0.012041672
0.286589 0.14863837 0.2814106 0.1601902 -0.1291284 -0.14540526 -0.14673075 0.21620177
0.21969557 0.009791956 0.0040746983 -0.17933989 -0.16206267 -0.008139595 0.10358146 0.0020108249
0.053298123 0.038273666 0.15538627 -0.16625234 -0.007910233 -0.04370397 -0.4956484 0.23742506
-0.39597666 -0.038587444 -0.17290902 -0.13388284 0.028579326 -0.0024860317 -0.09096335 0.011951171
-0.02152226 -0.0067810556 0.0082932655 -0.009838502 -0.03661127 0.019635614 -0.12069371 -0.03562582
-0.1316228 -0.026455443 -0.0023648948 -0.14831823 -0.007824031 0.35171148 -0.030643877 -0.136617
-0.03809786 0.010142359 0.0408511 -0.030342778 -0.01848895 0.007759934 -0.019643826 0.5849555
-0.028875083 -0.0050084554 0.02791904 0.043392494 -0.041236605 -0.029338913 -0.20991452 -0.041269902
-0.12489467 0.014738485 0.18494019 -0.0013922834 -0.13692924 -0.02507934 0.005200025 -0.028071387
-0.13306335 -0.13524143 -0.0119500635 0.80797076 -0.39605495 0.19060516 0.13040468 0.003333873
-0.15098679 0.12026092 -0.0022101451 -0.0061694905 -0.008081777 -0.11481877 -0.07687451 -0.17115697
0.020227171 0.030526908 0.08527739 0.15111013 0.042775758 -0.083287284 -0.0081578195 0.14011818
-0.034735937 -0.7530883 0.12565693 -0.13913551 -0.8223921 0.11392558 -0.13634634 0.009114184
-0.18659882 -0.0021724675 0.012232134 0.006090169 -0.020038199 -0.7093453 0.014482646 -0.015130742
00000000: 9711 0a3e fa50 973e af62 3cbf 4300 d13a
00000010: 8207 4b3b cbba 78bc 24a5 893c f7e7 dcbd
00000020: ff6b b6ba 01e6 10bd ab59 453d 37e7 f83d
00000030: 194c 0cbf b5cd 02b9 11ee 09be 13de dbbd
00000040: 36c9 49bc ec38 98bb 0102 8439 ee59 aebc
00000050: 66e8 323e bd50 b7be 0b49 4f3d ef5e c8bd
00000060: 74e6 0e3d 95db 30be f91f 143d 3eae e0bc
00000070: 401d fd3d e0a4 0bbd 0704 f4bc 5af3 293d
00000080: 5f40 2fbe db88 ddbd 7db7 c438 9502 483a
00000090: c9e7 f9bd e3c2 e5bd 5552 f3bd 7aac bbbd
000000a0: 21f3 a5ba 4919 6f3c 081f d0bd 858d 6fbf
000000b0: 984d dc3d cf31 163e 433e d13e 13ea 45bd
000000c0: 60d5 31be 6240 1e3d 9ec0 b0be 49fd babc
000000d0: 13cd 113d 5f6d 913e f371 203c 32eb 083d
000000e0: 7bd9 85bc 0121 54bc 3670 bfbd 5fd3 093d
000000f0: 9707 aa3e 5233 0cbc fe7d 14be bb1e 503e
00000100: d7f8 333a 0d0a 00bb 6a03 d2bd 60d9 583d
00000110: 8982 92bf ccf3 b63c 3fb1 0cbe abad 543e
00000120: 8e44 ae3d df20 76bc 9de9 263e 73b0 903c
00000130: 0265 9bbb 16b3 63bd fc41 b73e 1b3c cb3d
00000140: 7d21 39be b2b7 843e 1106 d83d 63b0 713e
00000150: 914e d4bd 0003 d2bc 4e07 9dbc b5c7 11be
00000160: de6b 18be f617 18bf 5e3b 7cbc dd37 adbc
00000170: 705b 29bd 4d27 6c3c f314 783b 86d5 033d
00000180: 72bc 23bd 49bf 27be 6feb b2bc b4d6 0b3e
00000190: 5853 b03b be30 2c3e 6b64 833e b630 513d
000001a0: b83f 9abc 1a39 fdbd daf7 89bb d72c 6a3b
000001b0: ac69 74bc 01d9 38bd d1b5 833b 2433 393b
000001c0: 6052 c43c 9fd1 2fbe 250e 34bd dae7 01be
000001d0: 4ff5 15be de70 04ba 6b3a ee3c 9824 3fbc
000001e0: 812f f9bd 0d93 38be 8577 ba3e 66dc 3c3a
000001f0: 753b 24be dbab 07be f7ad e8be 0306 65be
00000200: abea febd 5858 113d 67cf 0cbe 12c2 10be
00000210: 0d21 f3bd 2230 a23e 74b0 013d 795c 07bf
00000220: 4ca3 18be f71d 2ebf 07b4 07bd f0c2 2ebd
00000230: 1b80 313e 865c 0b3c 657f 313c 6f4a 453c
00000240: cbbb 923e a834 183e 0d15 903e e608 243e
00000250: 3c3a 04be 1ee5 14be 9640 16be ff63 5d3e
00000260: e0f7 603e 716e 203c 0c85 853b e0a4 37be
00000270: c2f3 25be f05b 05bc 8422 d43d 0bc8 033b
00000280: 224f 5a3d d9c4 1c3d 941d 1f3e 0e3e 2abe
00000290: ec99 01bc ef02 33bd a1c5 fdbe 8e1f 733e
000002a0: 74bd cabe de0d 1ebd 100f 31be 9518 09be
000002b0: 311f ea3c b1ec 22bb fe4a babd d8ce 433c
000002c0: 734f b0bc 9e33 debb 7ae0 073c ab31 21bc
000002d0: b3f5 15bd deda a03c 442e f7bd 61ec 11bd
000002e0: 21c8 06be 16b9 d8bc 5afc 1abb bce0 17be
000002f0: 5d30 00bc 8713 b43e de08 fbbc 54e5 0bbe
00000300: 800c 1cbd 232c 263c 7c53 273d 6b91 f8bc
00000310: 2376 97bc 0b47 fe3b 17ec a0bc a5bf 153f
00000320: 708b ecbc f81d a4bb 78b6 e43c 54bc 313d
00000330: b7e7 28bd 2958 f0bc d5f3 56be a10a 29bd
00000340: c7c8 ffbd b079 713c f660 3d3e 477d b6ba
00000350: 2e37 0cbe 3073 cdbc f964 aa3b f7f5 e5bc
00000360: c241 08be bb7c 0abe 33ca 43bc 2cd7 4e3f
00000370: b7c7 cabe 002e 433e ce88 053e 1c7d 5a3b
00000380: 489c 1abe 5b4b f63d 15d8 10bb 7029 cabb
00000390: 6e69 04bc 1a26 ebbd 6270 9dbd c643 2fbe
000003a0: 74b3 a53c 9113 fa3c eaa5 ae3d 9dbc 1a3e
000003b0: a235 2f3d 8692 aabd 60a8 05bc 247b 0f3e
000003c0: 4547 0ebd 65ca 40bf 36ac 003e 8a79 0ebe
000003d0: 4a88 52bf d151 e93d 609e 0bbe a953 153c
000003e0: c313 3fbe f55f 0ebb 4a69 483c 0a90 c73b
000003f0: 2627 a4bc a797 35bf 9f48 6d3c efe6 77bc

net2.0.weight f4 [256, 7]
-0.35666463 0.0638277 -0.31852636 -0.44278207 -0.21563296 -0.036166012 0.07929891 -0.18228115
-0.31738424 0.07681002 0.37595886 0.3039207 -0.018205665 0.025722971 -0.053357564 0.10006223
-0.28851312 0.3963468 0.40078428 -0.14278375 0.13209346 0.17135563 -0.3224119 -0.011988326
0.8587186 -0.40636462 -0.0103821345 0.009147864 -0.32436424 -0.20110966 -0.0052536423 -0.6647569
-0.28176597 0.006486881 -0.010129789 -0.13508996 -0.14476262 -0.22587554 -0.5004088 0.007302612
-0.1372543 0.022860773 0.2205882 -0.021455918 -0.2820561 0.064149044 0.3493783 -0.05348053
0.092503555 0.04064957 0.05867063 -0.3023636 0.88854456 -0.20030992 -0.037916582 0.043744672
-0.01869509 -0.27871644 -0.29469657 0.44895235 -0.21130973 0.02412864 -0.026720267 -0.15057568
0.30253428 -0.047093317 -0.7106779 -0.2062229 0.12252109 -0.005157506 -0.18247108 -0.36574385
0.18610933 -0.34637517 -0.11900244 0.010751732 0.006783864 -0.25687587 0.34158823 -0.091464266
0.26744145 0.67659795 -0.1478534 -0.07120247 -0.14989264 0.19111714 -0.054221448 0.3820261
0.27156493 0.16651288 -0.0035709084 0.054755732 -0.30128843 -0.11388974 -0.6248543 0.23417553
-0.19637546 0.24353679 0.015301753 -0.30064058 -0.16959013 -0.5650349 -0.06572284 -0.22342004
-0.031428993 -0.11837112 -0.20467173 -0.2565752 0.3980639 0.34576464 0.05801429 0.05884554
0.22473499 -0.35798705 0.08011948 0.19278377 -0.4072475 0.09844245 -0.003779411 0.024599625
-0.028723637 -0.25034112 -0.38998112 -0.55391824 0.030691633 -0.060709912 -0.4510159 0.004537371
0.02505917 -0.560127 -0.46537015 -0.03955217 -0.022863667 0.2805449 0.040360175 0.25274464
0.16330765 -0.20498215 -0.0065033273 0.17789334 -0.06664746 0.18593794 0.18204392 0.118547894
0.6626953 -0.0919278 -0.12815376 -0.25657028 -0.28939092 -0.20903334 -0.66402864 -0.258306
0.38343605 -0.06899916 -0.32266173 0.31527504 -0.0050677317 0.4617294 0.38010412 -0.053868335
0.0002973002 -0.23503205 0.26088172 0.26595667 0.11229402 0.6462 0.08382969 0.029266676
0.19953723 0.2973798 -0.20294331 0.16119157 -0.5041732 -0.015196476 -0.036318183 0.17137682
-0.20277071 0.24635732 -0.7049225 0.22464603 -0.03328533 0.03098143 -0.084118664 0.25000432
-0.072783336 0.57384926 0.23199958 0.14876832 -0.14827092 -0.038373873 0.1988512 -0.1114774
0.23744836 -0.21239388 -0.010258595 -0.086317755 -0.3904058 -0.09176585 -0.05448452 0.048232034
0.3744474 0.08178632 0.07355753 -0.26177838 -0.3027832 -0.09968094 0.3897005 -0.10829443
0.030671433 0.041380003 -0.105957575 0.10927464 -0.1513583 -0.38405955 -0.45015305 0.19584335
-0.11049733 0.17962469 0.2068901 -0.060403954 0.12106134 0.43802837 0.09349364 -0.05786948
0.0043609585 -0.048138026 0.1962854 -0.6505848 -0.53627914 -0.08638302 0.011749682 0.1454492
-0.32545993 0.13585812 -0.30666274 -0.16472144 0.10262878 0.06586198 -0.24770953 0.30785602
0.011274449 0.16565411 0.14839253 0.08899495 -0.1336049 -0.08133738 -0.09794321 0.31209013
0.14483543 -0.22295539 -0.19239771 -0.07074988 0.1802149 0.13989237 0.09885521 -0.50917673
00000000: bf9c b6be 19b8 823d e315 a3be 55b4 e2be
00000010: e3ce 5cbe d022 14bd 7867 a23d e9a7 3abe
00000020: 3080 a2be 924e 9d3d ae7d c03e 7e9b 9b3e
00000030: 0c24 95bc fbb8 d23c 768d 5abd 6ded cc3d
00000040: feb7 93be f8ed ca3e 9933 cd3e e735 12be
00000050: 8243 073e da77 2f3e 2c13 a5be af6a 44bc
00000060: fbd4 5b3f 060f d0be d419 2abc ece0 153c
00000070: 1213 a6be b1ef 4dbe bf26 acbb 822d 2abf
00000080: a143 90be e78f d43b 6af7 25bc 0655 0abe
00000090: a73c 14be eb4b 67be cb1a 00bf c04a ef3b
000000a0: 648c 0cbe 8446 bb3c e0e1 613e 52c4 afbc
000000b0: a869 90be 9360 833d b6e1 b23e 660e 5bbd
000000c0: 8172 bd3d 2a80 263d 9d50 703d 67cf 9abe
000000d0: a877 633f 0b1e 4dbe 6b4e 1bbd 9d2d 333d
000000e0: 7226 99bc ecb3 8ebe 78e2 96be 15dd e53e
000000f0: 9461 58be 6da9 c53c 76e4 dabc 8330 1abe
00000100: c6e5 9a3e ece4 40bd fdee 35bf 192c 53be
00000110: 56ec fa3d 4c00 a9bb b3d9 3abe c742 bbbe
00000120: 7293 3e3e 1658 b1be 8db7 f3bd 0828 303c
00000130: 2d4b de3b 3c85 83be a7e4 ae3e 9e51 bbbd
00000140: 16ee 883e 8635 2d3f e266 17be 9ad2 91bd
00000150: 757d 19be 36b4 433e 4f17 5ebd ed98 c33e
00000160: 8f0a 8b3e 5a82 2a3e e705 6abb 8c47 603d
00000170: 7a42 9abe 063f e9bd 74f6 1fbf b6cb 6f3e
00000180: a616 49be b561 793e 34b4 7a3c 90ed 99be
00000190: 09a9 2dbe 21a6 10bf b299 86bd 39c8 64be
000001a0: b0bb 00bd 8f6c f2bd 7795 51be d35d 83be
000001b0: 08cf cb3e 1008 b13e 64a0 6d3d 0508 713d
000001c0: ee20 663e 144a b7be af15 a43d 1c69 453e
000001d0: bf82 d0be 329c c93d ffaf 77bb 2785 c93c
000001e0: d54d ebbc b62c 80be 9bab c7be 96cd 0dbf
000001f0: 056d fb3c f5aa 78bd 8eeb e6be 3aae 943b
00000200: e348 cd3c 7c64 0fbf ff44 eebe 7501 22bd
00000210: 964c bbbc 95a3 8f3e b650 253d bf67 813e
00000220: 1f3a 273e d7e6 51be dd19 d5bb ac29 363e
00000230: 777e 88bd 8466 3e3e b969 3a3e 3dc9 f23d
00000240: 66a6 293f a444 bcbd bd3a 03be 2e5d 83be
00000250: 0c2b 94be d60c 56be c8fd 29bf af40 84be
00000260: bb51 c43e 6e4f 8dbd eb33 a5be bb6b a13e
00000270: 370f a6bb cc67 ec3e 029d c23e 0ba5 5cbd
00000280: f5de 9b39 3eac 70be 4a92 853e 792b 883e
00000290: 68fa e53d 5d6d 253f e7ae ab3d abc0 ef3c
000002a0: 7d53 4c3e 2a42 983e 5fd0 4fbe 670f 253e
000002b0: 7f11 01bf a4fa 78bc 60c2 14bd 687d 2f3e
000002c0: 20a3 4fbe 1845 7c3e cd75 34bf 9c09 663e
000002d0: 3356 08bd c5cc fd3c 6846 acbd 9100 803e
000002e0: 6e0f 95bd c9e7 123f 4c91 6d3e b956 183e
000002f0: 55d4 17be ec2d 1dbd a69f 4b3e 434e e4bd
00000300: aa25 733e c87d 59be ab13 28bc 5dc7 b0bd
00000310: 45e3 c7be bcef bbbd 292b 5fbd f48e 453d
00000320: 92b7 bf3e 967f a73d 55a5 963d d107 86be
00000330: 6606 9bbe 8525 ccbd d386 c73e 78c9 ddbd
00000340: a842 fb3c 147e 293d 4900 d9bd 62cb df3d
00000350: acfd 1abe 74a3 c4be 767a e6be 298b 483e
00000360: 6d4c e2bd 89ef 373e 00db 533e 236a 77bd
00000370: 02ef f73d 4145 e03e 9879 bf3d 8c08 6dbd
00000380: 5fe6 8e3b 612c 45bd 0aff 483e ba8c 26bf
00000390: 9749 09bf 95e9 b0bd bd81 403c a3f0 143e
000003a0: afa2 a6be 641e 0b3e e602 9dbe bdac 28be
000003b0: 0a2f d23d a5e2 863d 91a7 7dbe 4e9f 9d3e
000003c0: 77b8 383c 3ba1 293e 36f4 173e fc42 b63d
000003d0: b9cf 08be 3694 a6bd 7396 c8bd 47ca 9f3e
000003e0: bd4f 143e 6b4e 64be e803 45be 50e5 90bd
000003f0: 418a 383e f23f 0f3e 9a74 ca3d 6859 02bf

net2.0.bias f4 [256]
0.068153985 -0.44430918 -0.5043325 -0.29661128 0.4162508 0.2484527 -0.4914476 -0.14923482
-0.5072974 -0.11268862 0.10809981 -0.4921876 -0.25381896 0.40625882 0.6246391 -0.4338077
0.6188717 0.37923566 0.35720134 -0.47415072 -0.6888605 0.31534094 -0.4321199 -0.45429736
0.6718842 0.21887161 -0.08556282 0.65327287 -0.42083448 -0.5515352 0.0964085 0.35170722
0.12947981 0.61997193 -0.46618015 0.35757983 0.6801863 0.41460514 0.5179496 -0.2528623
-0.20098652 -0.12040989 0.59144986 0.5945413 0.43520162 0.3907437 -0.30174148 -0.25502586
-0.41559944 0.13539661 -0.6773834 -0.43370846 0.47962958 0.21232271 0.281196 -0.5121101
-0.7265699 -0.49265963 0.5893814 0.5041848 0.5471357 -0.47081977 -0.82298654 -0.61714727
0.041356694 -0.1567045 0.6887804 0.42981684 0.43575332 0.6514563 0.5184667 0.4825804
-0.16006842 0.50465405 0.4540541 -0.5415353 0.12792356 0.10778587 0.4356339 0.48225543
0.570831 -0.35104746 -0.3843213 0.31546944 0.5733855 -0.60611004 -0.4686425 0.45773736
-0.45161968 -0.37254 -0.49930876 -0.48796222 0.5014259 -0.3023325 -0.083650865 0.2650823
-0.32857013 0.28012565 0.6277531 0.6773226 0.57412493 0.4876514 0.5422239 0.35323793
0.6604381 -0.4811818 0.3270168 0.38844544 0.6489778 -0.35261455 0.10521414 0.66503626
-0.4419943 -0.42399436 -0.22571467 -0.47400773 0.27044493 -0.49014705 -0.5880547 0.25193575
0.38128635 0.6545188 -0.37272918 0.08944154 0.4382409 0.08404092 -0.43517402 -0.00880127
0.5642566 -0.5920692 -0.53570837 -0.4810466 -0.25676662 0.5084966 -0.11616664 -0.41739783
-0.30167675 -0.522712 -0.09878588 0.36149335 -0.40848008 -0.11312656 0.5691461 0.4076591
0.5824004 0.5014109 0.64187336 0.6200377 0.10917586 -0.62956715 0.49966636 0.33009762
-0.29524115 -0.62948036 0.5700933 0.6463041 0.5519761 -0.64755154 -0.5349568 0.46960893
0.48490113 -0.38471675 0.65018636 -0.35821593 -0.34004176 -0.09371058 0.50972044 -0.30427966
0.058004506 0.23343769 0.047042515 0.36697054 0.46361306 0.11207263 0.53493947 0.56824017
-0.47589868 0.15394428 0.6446465 0.03168935 -0.47601408 -0.4647322 0.26212034 0.57263047
-0.050700184 0.18999583 0.6802012 0.41488907 -0.6324428 -0.23877175 -0.51560354 -0.10186963
-0.028144816 -0.4408953 -0.13762249 0.14173573 -0.1111278 0.47082338 -0.3885691 -0.39250794
0.29509932 -0.21365155 0.17684935 0.1385214 0.43504682 -0.38599378 0.42106897 0.42056435
0.18565454 -0.07071537 -0.3227787 0.51113725 -0.39979053 -0.21828671 0.07170714 -0.4391993
0.41307986 0.31801665 -0.3396534 -0.30839977 -0.04654856 -0.23094232 -0.14160162 -0.62676257
-0.23406833 0.55321914 0.2068691 0.6360469 -0.5707317 0.5170637 0.116346166 0.3565123
0.2286141 -0.26910192 0.35933685 0.46705592 -0.5057282 -0.34289512 -0.41254833 0.026981037
-0.21754676 0.4251566 -0.4113934 0.6418665 0.2144604 -0.32469714 0.46237665 -0.45137584
-0.029655358 0.1864724 0.5584391 0.6674838 -0.4684011 -0.56541973 0.49059337 -0.15049683
00000000: 5194 8b3d 7e7c e3be ef1b 01bf 6fdd 97be
00000010: d31e d53e 626a 7e3e 059f fbbe 03d1 18be
00000020: 3ede 01bf 4bc9 e6bd 6f63 dd3d 0300 fcbe
00000030: 8ff4 81be 2801 d03e 59e8 1f3f 0b1c debe
00000040: 606e 1e3f 2d2b c23e 18e3 b63e e2c3 f2be
00000050: 2959 30bf 5e74 a13e d23e ddbe aa99 e8be
00000060: 9a00 2c3f e11f 603e 8f3b afbd e43c 273f
00000070: 9e77 d7be 6931 0dbf d271 c53d f812 b43e
00000080: 5b96 043e 7bb6 1e3f 2aaf eebe b414 b73e
00000090: b020 2e3f 2047 d43e 5898 043f 2b77 81be
000000a0: 69cf 4dbe 7699 f6bd 4269 173f dc33 183f
000000b0: bfd2 de3e 8f0f c83e dc7d 9abe c092 82be
000000c0: 73c9 d4be 69a5 0a3e 0069 2dbf 090f debe
000000d0: 0292 f53e 206b 593e ecf8 8f3e a619 03bf
000000e0: 7c00 3abf e23d fcbe b3e1 163f 4112 013f
000000f0: 1611 0c3f 4a0f f1be 3faf 52bf 5dfd 1dbf
00000100: a365 293d 2577 20be ea53 303f f410 dc3e
00000110: 0f1b df3e d7c5 263f 3cba 043f c714 f73e
00000120: fae8 23be 0231 013f c779 e83e 0fa2 0abf
00000130: 65fe 023e d7be dc3d 680b df3e 2fea f63e
00000140: fb21 123f 7ebc b3be c3c5 c4be 3685 a13e
00000150: 64c9 123f 072a 1bbf e9f1 efbe 8d5c ea3e
00000160: b23a e7be 90bd bebe 66a5 ffbe 2fd6 f9be
00000170: 735d 003f 53cb 9abe 2551 abbd deb8 873e
00000180: 583a a8be a16c 8f3e 6db4 203f 0465 2d3f
00000190: daf9 123f 72ad f93e 2fcf 0a3f 9adb b43e
000001a0: 7912 293f 765d f6be bf6e a73e 52e2 c63e
000001b0: 6923 263f e589 b4be 837a d73d d13f 2a3f
000001c0: 144d e2be ca15 d9be bf21 67be 24b1 f2be
000001d0: c277 8a3e 8ef4 fabe c18a 16bf b9fd 803e
000001e0: f737 c33e 8b8e 273f 5cd6 bebe 202d b73d
000001f0: 1c61 e03e a51d ac3d 21cf debe 3433 10bc
00000200: 1f73 103f d991 17bf 2f24 09bf bd4b f6be
00000210: ea76 83be d52c 023f c6e8 edbd 2bb5 d5be
00000220: 6075 9abe 74d0 05bf 4050 cabd a815 b93e
00000230: 4d24 d1be e6ae e7bd 8fb3 113f b2b8 d03e
00000240: 3118 153f 775c 003f d051 243f caba 1e3f
00000250: 9897 df3d 502b 21bf 45d4 ff3e 8e02 a93e
00000260: d929 97be a025 21bf a2f1 113f 2f74 253f
00000270: 4e4e 0d3f f0c5 25bf eef2 08bf 9570 f03e
00000280: f644 f83e 98f9 c4be 9d72 263f 1468 b7be
00000290: f419 aebe 55eb bfbd 0a7d 023f 8bca 9bbe
000002a0: 2296 6d3d 4a0a 6f3e a7af 403d 90e3 bb3e
000002b0: b15e ed3e 5686 e53d cbf1 083f 3078 113f
000002c0: fea8 f3be 92a3 1d3e 8e07 253f b1cc 013d
000002d0: 1eb8 f3be 61f1 edbe a334 863e e997 123f
000002e0: ffaa 4fbd 448e 423e aa21 2e3f 576c d43e
000002f0: c5e7 21bf 9580 74be 98fe 03bf 06a1 d0bd
00000300: f58f e6bc 07bd e1be e9ec 0cbe 2c23 113e
00000310: f996 e3bd c30f f13e 87f2 c6be cdf6 c8be
00000320: 4217 973e 79c7 5abe ff17 353e 8ed8 0d3e
00000330: 75be de3e faa0 c5be 5a96 d73e 3654 d73e
00000340: 391c 3e3e 38d3 90bd 4043 a5be e4d9 023f
00000350: 58b1 ccbe 8d86 5fbe 31db 923d bbde e0be
00000360: 347f d33e 14d3 a23e 0de7 adbe 93e6 9dbe
00000370: b4a9 3ebd 257c 6cbe 0400 11be 8373 20bf
00000380: 9caf 6fbe c59f 0d3f 7ed5 533e f8d3 223f
00000390: 791b 12bf 495e 043f e646 ee3d c888 b63e
000003a0: d119 6a3e bac7 89be 00fb b73e f421 ef3e
000003b0: 6777 01bf f38f afbe 8939 d3be 5607 dd3c
000003c0: 94c4 5ebe 20ae d93e 28a2 d2be 5d51 243f
000003d0: 829b 5b3e b43e a6be a2bc ec3e bc1a e7be
000003e0: cbef f2bc 9ff2 3e3e ddf5 0e3f 38e0 2a3f
000003f0: 45d2 efbe 59bf 10bf 0e2f fb3e d71b 1abe

net2.2.weight f4 [256, 256]
-0.009967417 0.032943904 0.12127818 -0.0027511774 -0.03270809 -0.04344618 -0.040161602 -0.052571632
-0.02693942 -0.20800698 0.053330235 -0.20936166 -0.43542576 -0.032056857 -0.09563672 -0.085718855
0.023838317 -0.30046204 -0.09098517 -0.032955736 -0.31300968 0.029355716 -0.039962016 -0.13861454
-0.1212807 0.0011484104 -0.23772484 -0.17087385 0.09067657 -0.06758717 -0.38375703 -0.5520554
0.046597786 0.03207814 -0.34423456 0.0114303185 -0.09159812 0.06101739 -0.02084913 -0.38180518
-0.3655628 -0.1541026 -0.09504691 -0.13462317 0.032299183 -0.09756078 0.0861603 -0.104137674
-0.029073471 0.09552782 -0.0809056 -0.0338564 -0.1067369 0.035126697 -0.081430465 -0.020569248
0.07828017 -0.027158458 -0.09936046 0.13442072 -0.014230599 -0.3677592 0.08796908 0.041403163
-0.15506315 -0.42205414 -0.11219857 0.02092731 -0.052103117 0.02354282 -0.053861298 -0.024051523
-0.038103055 -0.05504111 -0.010124916 -0.1121325 -0.02394914 -0.025167253 -0.00067715114 -0.108022355
-0.11431273 -0.5062256 0.11320515 0.025866173 -0.18285856 -0.2579217 0.039841842 0.04418858
0.063422024 -0.18016298 -0.19390206 0.02427632 0.038926233 -0.14605157 -0.029353356 -0.08871642
-0.09942571 -0.010808539 0.017084781 -0.1289515 -0.017077874 0.07660819 -0.22592846 0.0019231879
-0.18230136 -0.26175123 0.024786491 -0.1446546 0.04789146 -0.04676575 -0.15173429 -0.40735158
0.093682595 0.10419017 -0.27432016 -0.09680582 0.052156508 -0.18465196 0.19177812 0.08283145
-0.060331356 -0.103118844 0.0052360496 0.07828676 -0.011389502 0.3209749 0.027691629 -0.034744177
0.025524793 0.057543825 -0.43691716 0.039121278 0.04583631 -0.16494016 0.041646544 -0.02967462
-0.0050357897 0.08823404 -0.15687308 -0.036865987 -0.292923 -0.3231562 -0.2427222 -0.33937207
-0.037654888 -0.094923094 -0.043584563 -0.10692553 0.012826677 0.025580717 -0.009172189 0.07402315
-0.018337281 0.10402925 0.01615615 -0.18720137 -0.10174158 0.014925252 0.066550635 -0.26292536
0.106491305 -0.026735572 -0.10663566 -0.24890569 0.0959365 -0.6322731 -0.00066776393 0.0029189554
-0.15213987 -0.12612605 -0.061654992 -0.09052466 0.0025844562 -0.14394642 -0.044146728 -0.37312058
0.0013399957 -0.18126158 -0.07366176 -0.14282216 0.010505977 -0.11788407 -0.031215034 -0.40236512
0.056583945 -0.20813517 -0.1425692 -0.11733521 0.035324484 0.055048615 -0.53398687 0.084047146
0.009224994 -0.034829866 0.17140022 -0.01271693 -0.06997273 -0.025769332 0.012975898 -0.0748483
-0.00834236 -0.07108475 -0.23143297 0.030751413 -0.07287739 0.055611815 -0.14289719 -0.3357238
-0.015364363 -0.25490105 0.003642692 0.0017003219 -0.0067283898 0.05795888 -0.2032446 -0.010574475
0.0014297041 -0.117281556 0.09140234 0.1004952 0.05114923 -0.17698199 -0.029729025 -0.03971396
0.108515166 -0.019332597 -0.1599802 0.0044350214 -0.07619342 0.02971284 0.07258012 -0.050172485
-0.67029244 -0.1384409 -0.25985682 0.04580502 0.08420274 0.07452377 0.09117758 -0.48941872
0.0943488 -0.050660845 0.08808362 -0.028425 -0.0388781 -0.12804087 -0.051026072 -0.13189338
-0.09848104 0.08060974 0.0041397195 0.019641785 0.021933952 -0.20203534 0.005965489 -0.033519078
00000000: 614e 23bc 30f0 063d b260 f83d 194d 34bb
00000010: ebf8 05bd 9ff4 31bd 7e80 24bd 5a55 57bd
00000020: 0fb0 dcbc c8ff 54be ce70 5a3d e762 56be
00000030: 20f0 debe 0d4e 03bd 2fdd c3bd 5e8d afbd
00000040: 9348 c33c 29d6 99be 6f56 babd 98fc 06bd
00000050: ce42 a0be 667b f03c 36af 23bd f8f0 0dbe
00000060: 0462 f8bd 4286 963a 246e 73be 8ef9 2ebe
00000070: a3b4 b93d 246b 8abd cd7b c4be 8153 0dbf
00000080: 52dd 3e3d 5e64 033d 833f b0be 3b46 3b3c
00000090: cc97 bbbd 5fed 793d cbcb aabc f87b c3be
000000a0: 0c2b bbbe 12cd 1dbe f4a7 c2bd a8da 09be
000000b0: 264c 043d f2cd c7bd d074 b03d 2246 d5bd
000000c0: 7d2b eebc 17a4 c33d d6b1 a5bd 02ad 0abd
000000d0: e098 dabd 03e1 0f3d 04c5 a6bd d780 a8bc
000000e0: 5b51 a03d 6a7b debc 7f7d cbbd 96a5 093e
000000f0: 7527 69bc ef4a bcbe 2229 b43d 5d96 293d
00000100: e0c8 1ebe 7b17 d8be 5dc8 e5bd c06f ab3c
00000110: 146a 55bd dfdc c03c aa9d 5cbd b307 c5bc
00000120: f311 1cbd c972 61bd fae2 25bc b9a5 e5bd
00000130: fd30 c4bc 8e2b cebc d882 31ba d33a ddbd
00000140: cb1c eabd 0098 01bf 1ad8 e73d 4ce5 d33c
00000150: 463f 3bbe 500e 84be 3331 233d 16ff 343d
00000160: 68e3 813d a57c 38be 438e 46be 22df c63c
00000170: 1d71 1f3d 8b8e 15be 7376 f0bc f4b0 b5bd
00000180: b59f cbbd 4c16 31bc 62f5 8b3c dd0b 04be
00000190: e6e6 8bbc c1e4 9c3d ca59 67be 7a13 fc3a
000001a0: 35ad 3abe 4204 86be 0a0d cb3c 5620 14be
000001b0: d629 443d 718d 3fbd 3c60 1bbe 6390 d0be
000001c0: a9dc bf3d a861 d53d b173 8cbe 2142 c6bd
000001d0: 10a2 553d 6715 3dbe 7c61 443e 89a3 a93d
000001e0: 031e 77bd f92f d3bd 2b93 ab3b cf54 a03d
000001f0: 099b 3abc d256 a43e 8ed9 e23c e94f 0ebd
00000200: 5f19 d13c 13b3 6b3d 9bb3 dfbe a23d 203d
00000210: dbbe 3b3d 13e6 28be 9195 2a3d 3018 f3bc
00000220: 4403 a5bb 0cb4 b43d 56a3 20be ca00 17bd
00000230: 01fa 95be bb74 a5be 2b8c 78be 2dc2 adbe
00000240: 033c 1abd 0a67 c2bd ba85 32bd c6fb dabd
00000250: fc26 523c a78e d13c f346 16bc 7399 973d
00000260: 1138 96bc 4a0d d53d e759 843c b7b1 3fbe
00000270: e45d d0bd 0b89 743c b34b 883d 279e 86be
00000280: 1d18 da3d 8f04 dbbc cc63 dabd 22e1 7ebe
00000290: 5b7a c43d a6dc 21bf e10c 2fba f24b 3f3b
000002a0: 8eca 1bbe 3027 01be f289 7cbd fe64 b9bd
000002b0: fb5f 293b b166 13be 33d3 34bd a909 bfbe
000002c0: cba2 af3a a39c 39be fadb 96bd f93f 12be
000002d0: 4321 2c3c 346d f1bd acb6 ffbc cd02 cebe
000002e0: 91c4 673d 6321 55be a9fd 11be 714d f0bd
000002f0: 68b0 103d a87a 613d 5db3 08bf e920 ac3d
00000300: 6e24 173c c3a9 0ebd 8a83 2f3e ac5a 50bc
00000310: dd4d 8fbd 351a d3bc dc98 543c 114a 99bd
00000320: 65ae 08bc e294 91bd c4fc 6cbe 63ea fb3c
00000330: be40 95bd 37c9 633d a453 12be fde3 abbe
00000340: cfba 7bbc 6482 82be 3bba 6e3b 56dd de3a
00000350: d379 dcbb 4a66 6d3d 5a1f 50be 9040 2dbc
00000360: e964 bb3a 5031 f0bd 2631 bb3d 6dd0 cd3d
00000370: db81 513d c43a 35be 498a f3bc 1bab 22bd
00000380: 333d de3d 655f 9ebc d9d1 23be a853 913b
00000390: 4c0b 9cbd 5868 f33c e3a4 943d aa81 4dbd
000003a0: 4998 2bbf 74c3 0dbe f40b 85be 0b9e 3b3d
000003b0: 7c72 ac3d eb9f 983d 50bb ba3d 1795 fabe
000003c0: f239 c13d bf81 4fbd 2f65 b43d 8cdb e8bc
000003d0: a53e 1fbd 251d 03be b700 51bd 0f0f 07be
000003e0: 6db0 c9bd b816 a53d 7ca6 873b cfe7 a03c
000003f0: d5ae b33c 5ae2 4ebe 267a c33b 4d4b 09bd
