tau_data/seed0/SAC_STL_actor_500000.pth (torch, 275779 bytes, 6 tensors)

net.0.weight f4 [256, 5]
000000 fc 74 9b 3d 05 d7 96 bd 2c 98 29 bf d7 41 16 bf
       0.075906724 -0.073652305 -0.6624782 -0.58694214
000010 c0 fa 65 be 07 ae 05 3e 7f 31 d0 be 23 c5 c1 3c
       -0.22458935 0.13054667 -0.40662763 0.023653572
000020 38 55 aa 3f 6c d1 ac 3e b2 d4 13 bd e7 55 e7 3e
       1.3307257 0.33753526 -0.036091514 0.45182726
000030 2f e5 d8 bd 8f 51 15 be 17 d2 4d 3d 94 48 2f 3d
       -0.10590588 -0.14581893 0.050249185 0.042793825
000040 65 4f 3a be 9f 82 8e be f2 0a a2 bf 15 a1 43 3e
       -0.18194349 -0.2783403 -1.265959 0.19104417
000050 4e c1 20 3e 3d 50 e7 3d f1 99 ee bc 85 b5 1e 3e
       0.1569874 0.11294601 -0.02912614 0.15498932
000060 a6 f9 68 be 8e cb eb be 2f af 16 3f 4f 90 84 be
       -0.22751483 -0.46053737 0.5886106 -0.2589135
000070 95 cc 90 be f6 57 91 be 45 d5 55 be 4d d4 4a 3e
       -0.28281084 -0.2838742 -0.20882137 0.19807549
000080 97 2d 23 bf ff 7b cd 3e 5b aa 06 3f f9 49 a4 bc
       -0.6374144 0.40133664 0.5260369 -0.020054804
000090 4e d9 e8 3e 1c ca bc 3e 67 db 81 3f 35 d6 bb 3f
       0.4547829 0.36872947 1.0145081 1.4674746
0000a0 6f 83 e3 be 9a bd 4c 3e e6 85 e9 3e c5 10 a8 be
       -0.44436213 0.19994202 0.4560997 -0.32825294
0000b0 8f 5a d8 3e 12 5f 19 be 5f c0 a2 3e 39 37 ec 3e
       0.4225659 -0.14977673 0.31787392 0.46135882
0000c0 b4 d3 21 bf 73 79 9f be e2 19 b0 3c 8a 84 de 3e
       -0.6321366 -0.31147346 0.021496717 0.43460494
0000d0 9d b3 c6 3d 8c 4d 39 3f 1a 55 89 3f a8 22 09 3e
       0.09702227 0.7238395 1.0729096 0.13392127
0000e0 29 ed fd 3d 3c 1d 68 be bb 84 08 bf 60 bd 4d 3d
       0.1239875 -0.22667402 -0.5332753 0.05022943
0000f0 87 ae 47 3e 43 fd 1a 3f 1b 1c 64 be a2 d0 5f 3f
       0.1950017 0.60542697 -0.22276346 0.87427723
000100 a5 66 83 3e 2e c0 df be 79 2c 7b 3d 61 2b a2 3e
       0.2566425 -0.4370131 0.06132171 0.3167372
000110 a8 18 a0 3f 64 e4 7b 3d a1 80 e6 be 16 b0 2d bf
       1.2507524 0.061497107 -0.4502001 -0.6784681
000120 30 13 2e 3f 49 4b 11 3f b8 17 10 bf b7 e5 f6 3e
       0.6799803 0.567555 -0.5628619 0.48222134
000130 0d 6a 67 3e ad fc 08 bf c9 4e 86 3e 44 67 36 be
       0.22599049 -0.5351055 0.26231983 -0.1781283
000140 87 eb 10 bf 78 44 09 3f de 46 ff 3d 2d 9f 2c bf
       -0.56609386 0.536201 0.12464689 -0.6743038
000150 f5 8c 89 be f4 c5 b9 3d 56 0c 84 3e 38 20 16 bf
       -0.26865354 0.0907096 0.25790662 -0.5864291
000160 1f 29 37 3f d1 6c 87 bf 81 5b a9 bd 80 8a 90 be
       0.7154712 -1.0580083 -0.08269406 -0.28230667
000170 b9 d1 88 3e 63 66 25 3e 40 84 38 bf cd fb 07 be
       0.26722506 0.16152339 -0.720768 -0.13279648
000180 18 2e e1 3e d9 75 a4 be ab e2 22 bf 5f bd 34 3f
       0.4398048 -0.3212116 -0.6362712 0.7060146
000190 63 f7 b2 bd 52 f7 75 be 9b 54 e6 be c3 fa 95 3e
       -0.087385915 -0.24020126 -0.44986424 0.29292879
0001a0 b8 63 44 bf 1d 8b 1b 3e 77 15 c4 3e 59 ca a4 be
       -0.7671466 0.15189786 0.38297626 -0.3218563
0001b0 5c a2 88 be 71 7f 12 be 92 88 4f 3e bc 20 0e 3f
       -0.2668637 -0.14306428 0.20266941 0.555187
0001c0 ec 4b 28 bf b2 1f 86 3e b0 86 b5 bd 97 fa 92 be
       -0.6574085 0.26196057 -0.0886358 -0.2870681
0001d0 5b 99 4c be 27 88 0b 3e 31 ca 21 bf 8c b6 d4 bd
       -0.19980375 0.13626157 -0.63199145 -0.103863806
0001e0 c0 2a 0d bd d2 a2 00 3e 4d 15 ba be 97 8e 83 3f
       -0.034464598 0.12562111 -0.36344376 1.027789
0001f0 08 19 d6 bc c2 60 6b 3e 7f a5 08 3f 91 a7 b1 be
       -0.026134983 0.22986129 0.53377527 -0.34698156
000200 57 f6 ac be c1 39 b1 3e 8b 27 ff be 64 2e b9 bd
       -0.33781692 0.34614375 -0.49834856 -0.090420514
000210 1f e2 e0 be 3b 70 cd be 48 58 6d 3f 84 7a 18 bf
       -0.43922517 -0.40124688 0.9271283 -0.59561944
000220 a0 57 82 3d a8 2e 9a be d5 90 37 3f 71 2f 70 3f
       0.063643694 -0.3011372 0.7170537 0.9382239
000230 b9 d5 06 3f c0 cf ea bd 13 db 01 3f 0c b0 88 3d
       0.52669865 -0.114654064 0.50724906 0.06674203
000240 19 a0 be bc 98 3f 82 bd bb 16 7e 3c f0 0d 58 3e
       -0.0232697 -0.06359786 0.015508349 0.21099067
000250 32 a3 14 bf 02 f2 1b be 10 c8 86 bd f4 35 31 be
       -0.58061516 -0.15229037 -0.06581128 -0.17305738
000260 eb 21 fc 3b 2e fa fd 3e 44 c6 42 3f d1 93 40 bf
       0.007694473 0.49604934 0.7608378 -0.7522555
000270 ea a8 9c 3e 6c 74 aa be ce c2 1c bf a1 4b 9e 3e
       0.3059762 -0.33291948 -0.6123475 0.30917075
000280 9f 10 a5 3b 1e 96 f6 3d 04 ac 26 3e e4 a2 b8 bf
       0.005037382 0.12040351 0.16276556 -1.442471
000290 a1 1a 1d 3f 58 d8 0c bf db 2b 42 3e ae 40 f2 3e
       0.6136876 -0.55017614 0.18962042 0.47314972
0002a0 ca 82 4a bd 9e a7 c2 be 9a 93 e7 3d 6f 45 2b bf
       -0.049441136 -0.38018507 0.1130745 -0.6690282
0002b0 7a b8 11 3e 23 f0 7e 3f f9 2c 29 bf e2 a8 9d bd
       0.14230528 0.9958517 -0.6608425 -0.076982275
0002c0 7a c0 8d bc 2a 44 da bc fd 83 31 3f 22 9b d7 3e
       -0.017303694 -0.026643831 0.69342023 0.42110544
0002d0 83 9e 87 be 4f bf bf be 1a c4 fe 3e 92 5d bf bd
       -0.26488122 -0.37450644 0.4975899 -0.09344019
0002e0 f7 58 84 3f b5 a6 e6 3e 1d 0d 96 be cc aa bf ba
       1.033965 0.45049062 -0.2930688 -0.0014623045
0002f0 44 63 4c bd aa ed f9 3e a6 bd 9a 3d 69 de 20 3d
       -0.049899355 0.48814136 0.07555704 0.039274607
000300 d1 94 33 bb 0d c9 62 3e e9 fd 1b bf d3 22 95 be
       -0.0027401934 0.22147007 -0.6093431 -0.2912813
000310 e5 38 50 be d6 92 01 be fb 56 70 3f 93 c8 8a 3f
       -0.20334204 -0.1265367 0.9388272 1.084246
000320 14 01 03 bf a2 8d 27 3f a3 0e 19 bf 8d 11 70 be
       -0.5117352 0.6545049 -0.5978796 -0.23444195
000330 94 00 a2 bd ca bf 25 3e e0 87 fe bd 93 95 7f 3d
       -0.079102665 0.16186443 -0.1242826 0.062398504
000340 20 21 9d 3f d5 7b 52 3f 45 28 cf 3d 5c d4 73 bd
       1.2275734 0.822202 0.10115103 -0.059528694
000350 93 ce 39 3e 16 93 7b 3f 00 54 26 3f 2b 7a a0 3e
       0.18145208 0.9827131 0.64971924 0.31343207
000360 26 b7 07 bf 6b 2b b1 be 40 08 61 3f 90 c8 71 bf
       -0.5301384 -0.34603438 0.87903214 -0.9444666
000370 9e 8a 99 3c 5e ae 25 3f f9 17 6f 3e d8 6b 69 be
       0.018742856 0.6471919 0.23348989 -0.22795045
000380 7e 23 be be 6d 28 50 bc 67 37 b8 be 42 19 4b bd
       -0.37136453 -0.012704951 -0.3597977 -0.049584635
000390 37 1d ef be c1 75 cc 3e 49 f0 ff bb 25 73 5c 3f
       -0.46701977 0.3993359 -0.0078106266 0.86113197
0003a0 03 f0 41 3e 22 fe 0f be 16 8a cf 3e 0c d8 ad be
       0.18939213 -0.14061788 0.4053504 -0.33953893
0003b0 c3 50 0e 3f 1c da 86 be 14 a7 da be fa 36 7c 3f
       0.5559198 -0.2633828 -0.42705595 0.9852139
0003c0 f7 7b c3 3c f2 a6 b9 3d 5f 3c d1 bb c2 b7 73 bf
       0.023862822 0.090650454 -0.0063853706 -0.9520227
0003d0 31 e9 6e 3e 33 e9 4b bf dd b2 a0 3e c1 ae ca be
       0.23331143 -0.7965271 0.31386462 -0.39586452
0003e0 32 81 8c 3e 03 91 3f 3f 85 be 2f be 5e 60 e3 3b
       0.27442318 0.74830645 -0.17162521 0.006938978
0003f0 39 cf a0 3e bd 02 f6 be 8c d7 49 bf 17 df 81 3e
       0.31408098 -0.48048964 -0.78844523 0.25365517

net.0.bias f4 [256]
000000 80 43 2a bf b3 70 14 bf df 30 02 bf b7 6e 29 3d
       -0.66509247 -0.57984465 -0.5085582 0.04136535
000010 c0 e9 f9 bd 1f 38 04 bf 26 c4 8e bf 04 2c 54 be
       -0.122027874 -0.51648134 -1.115361 -0.20719916
000020 ce 2c 00 bf 9b 91 75 bf 96 bd 0c 3e 93 44 ee 3c
       -0.50068367 -0.959253 0.13744196 0.029085433
000030 d4 1d 13 bf ed 7d 68 bd 6d db 07 bd 73 c5 0f bf
       -0.5746739 -0.056760717 -0.033168245 -0.5616066
000040 12 1e a4 3d 08 11 79 bf 39 65 e9 3e 7d 14 63 bf
       0.08013548 -0.9729161 0.4558504 -0.8870314
000050 57 66 3c be 91 dd 87 be 57 13 a4 be cd e8 22 3f
       -0.18398415 -0.2653623 -0.32046005 0.63636476
000060 24 57 77 3d 36 48 02 bf 65 15 84 be 7a 3c 7a bf
       0.06038584 -0.50891435 -0.25797573 -0.9774853
000070 72 ac 77 bf 59 59 5b bd fb c7 28 3f a3 34 f3 be
       -0.96747506 -0.053552005 0.65930146 -0.47501096
000080 d3 09 0c be 5f 86 5c bf 0b ec a7 be 4e fa 14 3e
       -0.13675623 -0.86142534 -0.32797274 0.14548609
000090 93 19 0f bf 55 66 2e bf cf a5 42 be d1 be 9b 3c
       -0.558984 -0.68124896 -0.19008563 0.019011887
0000a0 77 28 ae be 2a 22 79 bf 50 2c dd be d5 a6 38 bf
       -0.34015247 -0.97317755 -0.4319787 -0.72129565
0000b0 14 0b 58 bf f8 04 c6 3e 70 d9 b0 bd d7 39 cb be
       -0.84391904 0.38675666 -0.08635223 -0.39692566
0000c0 2b d7 19 3e 83 fe ed be a3 be bf 3d 11 4a 3e bf
       0.15023486 -0.4648324 0.09362533 -0.74331766
0000d0 e0 0e 05 3e 67 17 84 3e ee 7e 46 bf 12 c6 b8 be
       0.12993956 0.25799105 -0.7753743 -0.36088616
0000e0 dc 43 a5 be 54 23 4a bf 97 0a 1c be 85 8a db be
       -0.32278335 -0.78960156 -0.15238415 -0.4287912
0000f0 22 1b 01 bf aa 4d d9 be 42 d6 6f bd 7c 35 dc 3d
       -0.50432026 -0.42442065 -0.05855394 0.10752389
000100 3f aa 1a bf 78 eb dc be 62 42 03 be 12 31 47 bf
       -0.60416025 -0.43148398 -0.12818292 -0.7780925
000110 00 11 7b bd 27 6c d6 3e 0c d0 ed be 82 4b 8d 3e
       -0.06129551 0.4187939 -0.4644779 0.2759667
000120 ab 64 a0 bd 56 87 f5 bd f3 85 10 bf 25 ee 71 3e
       -0.07831701 -0.11988704 -0.5645439 0.23626001
000130 49 e5 1b bf 5b 74 0f bf 99 6b 12 be 4d 94 e9 be
       -0.60896736 -0.5603692 -0.14298858 -0.45620957
000140 22 29 7f be a2 50 46 3e fc f7 4b bf c6 43 92 3d
       -0.24918035 0.19366696 -0.7967527 0.07141833
000150 cf b1 a8 3e 28 8e f2 3e 5c ec 1b 3e 63 0b d0 be
       0.32948157 0.47374082 0.15226883 -0.40633687
000160 49 4c 23 bf dd d7 aa 3d e5 b7 8e bf 71 14 0a 3e
       -0.63788277 0.08341954 -1.114987 0.1348436
000170 4e 91 34 bf 55 c4 0e bf 69 38 99 3d e7 4c 06 bf
       -0.7053422 -0.5576833 0.074814625 -0.52461094
000180 d7 4a ae be 5b eb a5 be a5 72 10 bf 9d 9f 7d bd
       -0.34041473 -0.32406124 -0.56424934 -0.061919797
000190 fc 21 80 3e c8 45 17 bf 5c 08 37 bf 56 d9 5a bf
       0.25025928 -0.5909085 -0.7149713 -0.8548788
0001a0 aa 03 94 bd 08 41 16 3f 96 7f e5 bd 59 c0 86 bf
       -0.07227261 0.5869298 -0.11205976 -1.052745
0001b0 10 81 30 bf 5d b4 c8 be 70 e5 1d bf 11 64 d1 3c
       -0.68946934 -0.39200106 -0.6167822 0.02556041
0001c0 6e cb ae 3e db 58 be be 90 fc da 3d d5 e9 77 bf
       0.3413958 -0.37177166 0.10692704 -0.96841174
0001d0 87 57 e6 be ce 0e fe be 1b 03 ff 3e 6a 16 4e be
       -0.44988653 -0.4962067 0.49807057 -0.20125738
0001e0 6a 19 2d bf fa a9 a9 bc 42 0a b2 be 88 4b 9b be
       -0.67616904 -0.020710934 -0.3477345 -0.30331063
0001f0 1d 2c 81 3d 26 28 bc 3c 01 90 a1 3e c2 f2 3c bf
       0.06307242 0.022968363 0.3155518 -0.7380792
000200 03 49 ff 3e 6f 5d 70 bf 8f 61 21 bf df 6e 65 bf
       0.4986039 -0.9389257 -0.6303949 -0.896223
000210 f4 78 1f 3d 40 5a 82 bd 8a 10 33 be cc d9 c6 be
       0.03893371 -0.0636487 -0.17486778 -0.3883804
000220 48 77 e0 be be ab 99 bf f9 e3 4c bf ab 05 94 3d
       -0.43841004 -1.2005537 -0.8003536 0.072276436
000230 ff 97 57 3e a9 f0 c7 be 8d 25 bc be 10 53 32 bf
       0.21054076 -0.39050797 -0.367474 -0.69657993
000240 e9 62 a1 bf aa c9 24 3d 98 13 1d 3e 57 28 64 bd
       -1.260831 0.040231384 0.15339506 -0.055702534
000250 b4 ba 5c bf be 95 5c bf 09 92 6b bf 7a 17 20 bf
       -0.86222386 -0.8616599 -0.92019707 -0.6253582
000260 99 87 d5 3e ab a5 0c bf 36 52 87 be 0c b9 66 bf
       0.41705015 -0.5494029 -0.2642991 -0.9012611
000270 4b 8d f6 be 0d 12 21 bf ce 8d 83 bf f3 87 85 3d
       -0.48154673 -0.6291817 -1.027765 0.06520071
000280 30 06 28 bf 83 a0 68 3e db b5 3e be 52 de 3b bf
       -0.6563444 0.2271748 -0.1862406 -0.7338611
000290 ae 12 e5 be f9 56 68 be 38 43 1c bf 34 ed 17 bf
       -0.44740814 -0.22689427 -0.6104007 -0.5934632
0002a0 4d 4d 6a be ee fc 61 bf 2b 95 4d 3d 8f e3 d1 3e
       -0.2288105 -0.88276565 0.050191086 0.40993926
0002b0 48 f4 d0 bd b5 c3 37 bf d5 df 02 be b5 50 12 bf
       -0.10202843 -0.71783 -0.12780698 -0.571544
0002c0 59 cf d2 be b1 8c fa be e0 da 87 3d a8 08 48 be
       -0.4117382 -0.48935464 0.06633544 -0.19534552
0002d0 a5 82 84 bf 6f b5 7f be 8b 1e 67 bf 30 d2 80 bf
       -1.035237 -0.24971555 -0.9028098 -1.0064144
0002e0 ed 36 87 bf 8c 2f a5 bf 99 0d e0 bd 0f 3a 03 3e
       -1.0563637 -1.2905135 -0.109400935 0.12815116
0002f0 14 52 91 3d e7 35 06 bd 52 39 00 bf 4d 23 31 bf
       0.07095733 -0.03276625 -0.50087464 -0.6919449
000300 fc 19 78 3e 51 8d 68 3e 2c 62 4f bf dc 5d 5a bf
       0.24228662 0.22710158 -0.81009173 -0.8529947
000310 6a 34 1f bf 41 84 5f bf dc c3 49 3e 05 d3 93 be
       -0.6218935 -0.8731118 0.1970362 -0.28871933
000320 aa ac 0c 3d 7d fd a9 3e 90 7b 48 be 20 fd 4e bf
       0.034344353 0.3320121 -0.19578385 -0.8085499
000330 82 b3 74 3e 55 50 41 3d 99 27 f3 bd 85 4a 22 bf
       0.23896602 0.04719575 -0.11872787 -0.6339496
000340 2a 21 fc 3e 13 28 1a be cb 1b 8b 3e 1c 67 a6 3e
       0.49244052 -0.1505435 0.27169642 0.3250054
000350 f4 d0 fe 3c 29 f3 77 be b0 70 eb be 41 41 b1 be
       0.031105496 -0.24213852 -0.4598441 -0.34620097
000360 db 43 0e bf 0e be 94 bf 3c 4b c3 3e d0 72 23 bf
       -0.5557229 -1.16205 0.38143337 -0.63847065
000370 8d a5 05 3f cf 3c e1 be a8 52 01 3d c5 89 f5 be
       0.52205735 -0.43991706 0.031572968 -0.47956672
000380 42 e2 93 be e2 b6 45 be 8d fe 0a bf 29 17 0a 3e
       -0.2888356 -0.19308046 -0.54294664 0.13485397
000390 0d 7c 5b bf a4 ee ca 3e 30 36 4a bf 34 74 2f bf
       -0.8573616 0.39635193 -0.78988934 -0.68536687
0003a0 f3 5b 2e be 17 04 dd be 4c 2b 26 bf 48 88 64 bf
       -0.17027263 -0.43167183 -0.64909816 -0.8927045
0003b0 41 9d d0 be bb 8e 22 bf 48 bb 1f bf ea 8b 08 bf
       -0.40744975 -0.6349904 -0.62395144 -0.5333849
0003c0 76 dd 1b 3e 9d ce 2f bd a8 1b 12 bf 00 6b 7b 3e
       0.152212 -0.04292165 -0.5707345 0.24552536
0003d0 67 d3 b2 3d 1b cc 1c bf 88 87 25 bf 78 de fa be
       0.08731728 -0.6124894 -0.6465993 -0.48997855
0003e0 78 61 4b be ce af b4 be 78 cb 3c 3e ec f2 89 3d
       -0.198614 -0.35290378 0.18436992 0.06735787
0003f0 6d f7 34 3d 60 78 ee be 3a a6 0c bf 7b 6f a3 be
       0.044181276 -0.46576214 -0.5494114 -0.3192099

net.2.weight f4 [256, 256]
000000 48 3e aa bc 4c 3d 87 3b 9b dc 99 3c c3 49 2a bc
       -0.020781651 0.00412718 0.01878195 -0.010393563
000010 87 f8 4c 3d 9e 2f 31 bd c0 bd 92 3c ae 7e ee 3c
       0.0500417 -0.043258302 0.017912745 0.02911314
000020 05 14 f3 bc 45 67 3c 3d d0 5f 8b bc c8 85 66 bd
       -0.029672632 0.045996923 -0.01701346 -0.056279927
000030 da 64 33 bd c8 07 a4 3c 19 ce 2a bd 88 48 76 3c
       -0.04379735 0.020023242 -0.041700456 0.015031941
000040 e9 3b 60 3d 91 31 87 3c 12 7a c5 bc 16 00 2d 3c
       0.054744635 0.016503127 -0.02410606 0.0105591025
000050 28 7e 13 bd 63 ed 67 bd f2 62 55 bd dc 6e 8f bd
       -0.036008984 -0.056622874 -0.052096315 -0.070035666
000060 d5 22 77 3b e3 95 bc bb 68 95 d9 bc 14 68 7a bd
       0.003770997 -0.0057551726 -0.0265605 -0.061134413
000070 5b 68 07 3c e7 cb 50 bd 79 6e 19 bd 0c 13 72 bd
       0.008264626 -0.050975706 -0.03745887 -0.059100196
000080 f2 48 2e bd e0 96 23 3c c6 f5 9f bd 58 26 51 bd
       -0.042550035 0.009984702 -0.078105494 -0.051061958
000090 dc 35 d6 3c 7a f1 54 bd c5 d5 44 bd f9 fd 11 bd
       0.026148729 -0.051988102 -0.04805543 -0.035642598
0000a0 44 d2 ae 3c c9 eb 7c bd 87 27 a3 bc c4 2a 79 3c
       0.021340497 -0.0617483 -0.019916309 0.01520795
0000b0 5b 5c 5c bc ed 25 cb bb 9f 98 74 bd 84 91 aa 3c
       -0.013449754 -0.0061995895 -0.059715863 0.02082134
0000c0 76 3d 64 3c ed 0d 69 bc 3c f6 8b bd 66 b8 d0 ba
       0.013930669 -0.014224512 -0.06834075 -0.0015924096
0000d0 4a 0a d1 3c 48 97 17 bd b9 ec c4 3c e2 23 92 3c
       0.025517602 -0.037009507 0.02403866 0.017839376
0000e0 2c ab e8 bc 46 a3 f3 bc 56 a3 3a 3d 36 69 df bb
       -0.028401934 -0.02974094 0.045565926 -0.006817962
0000f0 04 0a 5a bd ab 44 ae bc 48 e5 c1 3c 6a 44 21 bd
       -0.053232208 -0.021272978 0.0236689 -0.039371885
000100 20 10 06 bd 43 52 05 3d 3b e4 b4 3b bb ef 81 bc
       -0.03273022 0.032549154 0.0055203713 -0.015861383
000110 6c dc c1 bc 53 de ea bc 85 d2 73 3c 46 24 0f bc
       -0.023664676 -0.028670466 0.014881735 -0.008736676
000120 fb 5b 60 bd 65 06 a7 ba 00 b7 b1 bb 4d b6 2f bc
       -0.05477522 -0.0012742995 -0.0054234266 -0.010724616
000130 c4 ca 1a bd a8 41 98 bb ac 74 73 bd bc 4b 83 b9
       -0.03779103 -0.0046464987 -0.05943744 -0.00025042694
000140 e5 1d 75 3c d4 62 bd bc 62 60 63 bd 80 c0 88 bc
       0.014960741 -0.023118414 -0.05551184 -0.016693354
000150 cd c1 78 bc d3 41 7d bd 5f 9f 7c bd 2a 02 33 3d
       -0.015182924 -0.061830353 -0.061675426 0.043703236
000160 57 7c fe 3c 98 5f 77 3c 56 ed 98 3c 7f f8 57 3c
       0.03106515 0.015098475 0.018667858 0.013181805
000170 3e b9 eb 3c d7 e2 dd 3c 8d be 94 bc 3a 6d d1 bc
       0.028774854 0.027085705 -0.018157268 -0.025564779
000180 e5 dc 18 3d db 86 cc bc a7 02 40 bd 8c 01 77 bd
       0.037320036 -0.024966648 -0.04687753 -0.06030421
000190 ff 7d eb 3c 8e 0f 43 3d f9 77 37 3d 2f ea 46 bc
       0.028746603 0.047622256 0.04479215 -0.012140795
0001a0 dc 52 01 3d 6a 4f 96 bd 42 70 38 bd 5d ab 84 bd
       0.03157316 -0.07339366 -0.045028932 -0.064779975
0001b0 55 ed 38 3d 02 65 e8 bc 47 b9 3d bd 1d 77 37 3c
       0.045148212 -0.028368477 -0.046319272 0.011197832
0001c0 16 7c 01 bd e4 16 62 bd 93 00 4b 3b 21 e6 f6 bb
       -0.03161248 -0.05519761 0.0030975684 -0.0075347577
0001d0 e2 c4 64 bd ad 46 31 bd d4 e0 7c 3c ae 64 fc 3c
       -0.055851825 -0.043280292 0.015434463 0.030809727
0001e0 98 16 a8 bc 04 18 13 bd d2 ae 74 3c 60 8c 03 bc
       -0.020518586 -0.035911575 0.014934259 -0.0080290735
0001f0 51 84 79 bd 1c b1 3c bd 39 fc fa bb 69 4d 0c 3d
       -0.060917202 -0.046067342 -0.007659462 0.03425351
000200 b1 e4 e6 bc b7 ad 3d 3b 23 1e 8b bd 04 ae 59 3d
       -0.02818522 0.0028942653 -0.067928575 0.05314447
000210 cc e7 d2 3c 53 b6 8c bc f4 d2 a2 3c de f7 d3 ba
       0.025745295 -0.017176783 0.01987598 -0.0016171893
000220 53 9d 83 bd e1 30 23 bc 10 9e ec bb 14 83 a7 bc
       -0.064264916 -0.009960384 -0.007220991 -0.020448245
000230 6f 23 56 3d cb b1 18 bd 51 b3 8c bd 5c ae 0a bd
       0.052279886 -0.03727893 -0.068701394 -0.03385769
000240 84 e8 a4 bd 00 4f 2d 3d c4 3e 34 bd 0f 1c 64 bd
       -0.08052161 0.04231167 -0.04400517 -0.05569082
000250 1a 44 55 bc f4 61 53 bd 16 52 19 bd 52 44 61 3b
       -0.013016725 -0.051607087 -0.0374318 0.0034372997
000260 52 23 67 bd 0f 4c b2 3c c6 84 bf 3c cd 44 6a bb
       -0.05643017 0.021764783 0.023378741 -0.0035746575
000270 e0 3a b3 3c ef 16 27 bd 3c 51 11 3d c9 77 54 3d
       0.02187866 -0.040793356 0.03547786 0.05187205
000280 79 d6 54 bc 60 49 69 3d ad e1 8e bd e6 c3 05 bd
       -0.012990587 0.05695474 -0.06976638 -0.032657526
000290 21 fc 73 bc 17 4b 7b bd c2 a2 6d 3b 52 fa 07 bd
       -0.014891655 -0.061350908 0.0036260341 -0.03319771
0002a0 dc 2e 00 bd 73 de 73 bd 38 f4 15 3c bc 2f 5d bd
       -0.03129469 -0.059538316 0.009152465 -0.0540006
0002b0 85 67 0a bd 3f e2 b5 3c 45 5e 2b 3d 28 d1 e9 3a
       -0.03379013 0.02220261 0.04183795 0.0017838823
0002c0 3a 64 14 bd 45 53 16 bd 72 5a bd 3c 35 64 7c bc
       -0.036228396 -0.036700506 0.023114417 -0.015404751
0002d0 18 61 fb 3c 4c 1f 87 3c 49 67 b5 3c 2b d3 81 bd
       0.030685946 0.016494416 0.022143977 -0.06339105
0002e0 9f a2 17 3d b2 80 0c bd 47 33 1c bd 00 21 c4 39
       0.037020322 -0.03430242 -0.03813484 0.0003740862
0002f0 8c 7e 1f bd 5c ca ba ba be 2c 45 3d 30 c9 3f bd
       -0.038939044 -0.0014250982 0.048138373 -0.046822727
000300 b1 2c e1 bb 25 8e 55 bd ed ea 73 3b 19 67 43 3d
       -0.0068717827 -0.052137513 0.0037218884 0.047705743
000310 01 59 dc 3c e2 7c 1d 3d 87 9f ab 3c ad ae 8c bc
       0.02689791 0.038449176 0.020950092 -0.017173136
000320 c7 b0 48 bb ea af 56 bd f8 00 35 3d 8f 5d b2 3c
       -0.0030622946 -0.05241386 0.044190377 0.021773128
000330 50 80 7f bd c6 34 14 3d 15 b0 30 bc fe bc 6a bc
       -0.062378228 0.03618314 -0.010784169 -0.014327286
000340 83 44 bd bc 60 c5 9c bc ba 52 7e bc b5 d7 28 bd
       -0.023103958 -0.019137084 -0.015522653 -0.04122134
000350 0c ef 93 bd fb 36 16 bd d7 47 0f bd 97 5e f6 3c
       -0.07223329 -0.036673527 -0.03498062 0.0300744
000360 57 f2 ed 3c dd 60 66 bd 4e 64 9a bc cb 91 08 bd
       0.02904622 -0.05624472 -0.018846657 -0.033342164
000370 7c dc 54 bd 9b fd be bc 41 ba 21 bd c5 db e2 3c
       -0.051968083 -0.023314288 -0.039484266 0.027692685
000380 b4 4a 3d bd b4 d6 9d bb 7c cf 21 bd 74 fe e8 bc
       -0.04621382 -0.0048168544 -0.039504513 -0.028441645
000390 29 af 44 3d ef b6 1f bd 33 a9 88 bc bc 6f 56 3d
       0.04801861 -0.03899282 -0.016682243 0.052352652
0003a0 33 7b e7 3b f3 fa 19 bd 88 1a 34 bd 04 8e 00 bd
       0.007064247 -0.03759284 -0.043970615 -0.031385437
0003b0 1b 9b 1b bd 6a 34 a2 3c b4 e7 be bc 07 5b 48 3d
       -0.037989717 0.019800384 -0.023303844 0.048914935
0003c0 25 01 54 bd 95 c0 42 bd 91 55 90 3b 8d c7 33 3d
       -0.051758904 -0.04754694 0.0044047316 0.04389148
0003d0 d6 84 2f 3d 1d 96 99 bc 77 50 e1 bb 6a 7e 0a bd
       0.04285129 -0.018748337 -0.0068760472 -0.033811964
0003e0 80 a1 95 3c bb 03 2d bd d5 92 0e bd c6 f6 55 bd
       0.018265486 -0.042239886 -0.034808 -0.052237295
0003f0 8c 24 8c bd 33 ca 79 3c 55 aa e7 ba 86 38 50 3d
       -0.06842908 0.015245962 -0.0017674664 0.050835155

net.2.bias f4 [256]
000000 ee d3 cf bc 02 62 51 bd 73 52 39 3b 81 80 97 bc
       -0.02536961 -0.05111886 0.0028277903 -0.018493893
000010 9b 79 a4 bd 05 5c 79 3e 8d 53 b3 3b 03 a2 f2 3c
       -0.08031007 0.24351509 0.0054726065 0.029618269
000020 4b ad 18 bd a8 ac c0 bd eb cf 9e bd dc 30 a3 bd
       -0.03727464 -0.094079316 -0.07754501 -0.079683036
000030 a2 99 c0 3b 08 b6 92 3a 87 b9 a0 bc dd a4 58 bd
       0.0058776895 0.0011193166 -0.019619716 -0.0528916
000040 65 bd d5 bc 79 6e 0c 3e c9 25 97 bd 65 77 2e bd
       -0.026091287 0.13714017 -0.07380254 -0.042594332
000050 24 c1 f6 ba e0 74 00 bd 84 cf 2a 3e 3a 66 9c bd
       -0.0018825871 -0.03136146 0.16680723 -0.07636686
000060 72 a8 e5 3c 8c 7e f8 3b d1 f4 0e 3e 90 d8 d4 3e
       0.028034423 0.007583445 0.13960578 0.41571474
000070 fb 04 c0 3d 43 5b 9f bd d1 37 9c bd 66 f8 81 bd
       0.0937595 -0.07781079 -0.07627834 -0.06346206
000080 35 41 3e bb 17 bf 5e bd e7 dd 87 bd 7f 4a b3 3e
       -0.0029030566 -0.054381456 -0.066341214 0.35017774
000090 10 f0 9b 3a b8 a7 00 bd 6b fc 1d bd 95 2d 91 bd
       0.0011897106 -0.03140995 -0.038570803 -0.07088772
0000a0 82 f3 f0 3c 3b c6 8a 3d f5 33 35 3d 78 d0 0f be
       0.029412989 0.06776091 0.044239003 -0.14044368
0000b0 51 9c aa bd 2d 88 e6 3c 2a 05 02 bf 87 03 71 bc
       -0.08330596 0.028141106 -0.5078913 -0.014710314
0000c0 de 87 68 bd f8 ac a6 bd 07 c4 95 bd f6 85 7a 3e
       -0.056770198 -0.0813846 -0.0731278 0.24465165
0000d0 7a 46 11 3d 4b 35 7b bd 84 5b 51 bd 70 45 ad bb
       0.035467602 -0.06133012 -0.051112667 -0.0052878186
0000e0 53 80 92 bd 0a ea 38 3e f8 a5 df be 2a 2c 51 bb
       -0.07153382 0.18058029 -0.43681312 -0.0031917193
0000f0 bd ae 67 bc 8c 78 aa bd c8 a6 99 bc 42 a2 06 3d
       -0.014140782 -0.08323774 -0.018756285 0.032869585
000100 91 1d 3b bd af d9 19 bd 03 23 2a bd ed 72 da bb
       -0.045682494 -0.037561115 -0.041537296 -0.0066665323
000110 7a 43 25 be dd f2 3a bd 2b 87 a0 3c 69 16 ac 3d
       -0.16139022 -0.04564177 0.019595703 0.08402712
000120 5c ce 3b 3c d8 1b 9a bc 67 6c ac bc c5 0d 2c 3e
       0.011462774 -0.018812105 -0.021047784 0.16802128
000130 a1 ed a4 bd 4a 98 20 3b 30 a5 07 3d 89 a8 d1 bc
       -0.080531366 0.0024504834 0.03311652 -0.02559306
000140 45 9a c7 3c 54 06 10 3e b9 50 95 bd 22 89 8f bc
       0.024365554 0.14064914 -0.07290787 -0.017521445
000150 3b 56 df 3c b9 fd 2c 3d 00 79 72 bd 8c 5e a8 bd
       0.027262798 0.042234156 -0.059197426 -0.082211584
000160 9d a8 6a bd aa 8c a4 bd 99 3e 1d 3c b3 73 29 bd
       -0.05728971 -0.08034642 0.009597444 -0.041370105
000170 70 1b 96 be 4e ad 2c be e6 c3 a5 bd 1b f9 8a bd
       -0.29317808 -0.16862985 -0.08094005 -0.06785794
000180 2e cd a8 bd b8 c2 16 bc 5e b4 4f bd c3 70 62 3e
       -0.0824226 -0.009201698 -0.05070912 0.22113328
000190 fd 0a d5 be dc 3b 20 bd 00 4d 60 3c df 9b a0 bd
       -0.41609946 -0.039119586 0.013690233 -0.0784223
0001a0 29 15 46 bc 9a 1d 07 be c1 02 2f bd 4d 33 81 3e
       -0.012090006 -0.13194886 -0.042727236 0.25234452
0001b0 07 89 3d bb b8 bb 38 3c 73 2d ad 3c 14 bd 2e 3c
       -0.0028920786 0.011275224 0.021139836 0.010665197
0001c0 3a 94 56 be bd 3e 5b 3e 2c a4 f3 bd 3b e9 0c 3e
       -0.20954981 0.21410652 -0.11896548 0.13760845
0001d0 f5 05 32 3b 5b bd 06 3e ff 57 1c bc 49 1d 40 bd
       0.0027164195 0.13158171 -0.009542464 -0.04690293
0001e0 54 d2 c5 bd cf 5f b9 3d 8c dc e5 3d a6 fd 55 be
       -0.096592575 0.09051477 0.112237066 -0.2089754
0001f0 be 34 94 bd 51 95 2c 3e d7 20 a4 bd 2a 41 1d 3d
       -0.07236622 0.16853835 -0.08014076 0.038392223
000200 71 58 31 3c 9b 6d b1 bd bd 6a aa bc e4 a2 73 3e
       0.010824309 -0.08663484 -0.02080285 0.23792607
000210 4a 68 82 bd 1a 39 5b bd 51 25 81 bd 20 b8 ab bc
       -0.06367548 -0.053521253 -0.06305946 -0.020961821
000220 74 bb c6 b8 05 1a 82 bd 17 0a 1b b9 4b c8 81 bd
       -9.4762916e-05 -0.06352619 -0.0001478571 -0.06337031
000230 f3 e3 5c bd 7e 78 a0 3c 3b dc f7 3c a2 94 f1 3e
       -0.053928327 0.019588705 0.030256381 0.4718371
000240 d2 4e 7d bd 6b b0 64 bd cc 2f f7 3d a9 ad f8 bb
       -0.061842747 -0.055832308 0.120696634 -0.0075890613
000250 83 ad da 3c 9d 5c 8d 3c c1 99 21 bd 51 bd ca 3a
       0.026694065 0.017256076 -0.03945327 0.0015467798
000260 84 da 9d 3d 67 13 44 bd 37 36 f4 bd 75 f9 01 3c
       0.07707694 -0.047870066 -0.11924403 0.00793301
000270 5e a1 94 bd e9 d5 15 3c 28 ec aa 3c 41 2d 91 bc
       -0.07257341 0.009145238 0.020864561 -0.017721774
000280 b4 77 18 bd 13 53 a3 bd 4b 00 37 bd bd 70 c4 3c
       -0.037223533 -0.079748295 -0.044678014 0.023979539
000290 dd a4 b0 bc 3d 1b 7b be fe 02 e3 bc 33 1f bb bb
       -0.021562988 -0.2452211 -0.027711388 -0.0057105063
0002a0 78 a8 8a bc 56 d8 b8 3c e0 8b ea bb ff e8 43 3c
       -0.016926035 0.022564095 -0.0071577877 0.011957406
0002b0 5e 41 de 3c 4c 60 ad bd 08 ed d2 bb 64 02 f7 3c
       0.027130779 -0.08465633 -0.0064369477 0.030152507
0002c0 81 ee 4d 3d 5c 1e 53 be 92 2b 15 3d 5b 1e ec bd
       0.050276283 -0.2061705 0.036418505 -0.11529227
0002d0 e5 21 1c bc ac c5 87 be 22 7e 90 bd 91 fc 6e be
       -0.009529565 -0.26518 -0.07055308 -0.23338534
0002e0 40 33 4c bd 0b e7 2a 3c 75 46 5c bd 29 97 c0 3e
       -0.049853563 0.0104310615 -0.05377813 0.37615326
0002f0 fa 7c 2d bd d3 5a 01 bf 94 c2 74 bd f2 ce 91 3d
       -0.042355515 -0.5052921 -0.059755877 0.0711955
000300 e5 d7 12 3e 56 3c 23 3d ce 98 87 bd 47 dc 8e 3e
       0.1434017 0.039852463 -0.06620942 0.27902433
000310 7a 7f 5b be 75 b6 a7 3d 7e e0 9b bd 0c 22 b1 3d
       -0.21435347 0.08189098 -0.07611178 0.08649072
000320 8d c1 8e b9 df 1b 8b bd af cd 86 be e2 24 76 3e
       -0.00027228557 -0.06792425 -0.263288 0.24037507
000330 1f dd 10 3e 60 e4 17 bd 75 d4 94 bd a0 0e 0b 3d
       0.14146851 -0.03708303 -0.072670855 0.033949494
000340 27 d2 58 bd 65 91 18 bd 6c 4b a5 3b ee bc 54 bc
       -0.052934792 -0.037248034 0.0050443914 -0.0129844975
000350 d8 f5 41 bc 55 53 19 3e 5d f5 4b 3e 7d e1 95 3c
       -0.011838399 0.14973195 0.19917817 0.018295998
000360 f0 7f 97 3e c2 3c 43 bd 3b 5a d0 3c fd 20 18 bd
       0.29589796 -0.047665365 0.02543365 -0.037140835
000370 5c 86 bd bc 89 36 33 3e 57 16 79 bd df a7 96 3d
       -0.023135357 0.17501272 -0.06081232 0.073562376
000380 0b 40 9a bc d9 74 ad bc 10 19 b6 bd 4f 15 a4 bd
       -0.018829366 -0.021173881 -0.08891499 -0.08011877
000390 50 e4 d1 bc 25 c6 a1 bd 4e e1 e1 3d 37 6d a6 bc
       -0.025621563 -0.07899121 0.110293016 -0.02031575
0003a0 b4 d7 3a bd bb fb d7 ba 42 ab 44 b9 96 cb 76 3e
       -0.045615867 -0.001647822 -0.00018755815 0.241011
0003b0 5f df b9 bb 76 69 3f bc 7f 12 92 bd 8c 73 63 3a
       -0.00567238 -0.011682859 -0.07132434 0.00086765806
0003c0 0d e2 89 bd ab 3c 88 3d 60 4c 66 bd 6d 46 5c be
       -0.06732569 0.066521965 -0.05622518 -0.2151124
0003d0 35 29 4f bd 23 18 28 bc 89 cf 8e 3c 85 da 26 bd
       -0.050576407 -0.010259661 0.017432945 -0.04073574
0003e0 ff a1 83 bd 7b 86 50 bd a9 98 b4 bc f4 06 91 bd
       -0.06427383 -0.0509095 -0.02204545 -0.07081404
0003f0 e1 13 39 bd c2 2d 88 3e bb b1 87 be 6b 66 d0 bc
       -0.045184974 0.2659741 -0.26502785 -0.025439462

net.4.weight f4 [4, 256]
000000 08 22 e4 bc 0f 11 88 3c b3 a1 35 bc ce c1 81 bc
       -0.027848259 0.016609697 -0.011085915 -0.015839484
000010 3d e8 81 bc d2 e1 b8 3d 47 5e 11 bd 8a b9 f7 bb
       -0.01585781 0.09027447 -0.0354903 -0.00755996
000020 61 0e bd 3c 01 c6 8c bf 24 c7 6d bc 1d bd d1 3c
       0.023078145 -1.0997926 -0.014512811 0.025602872
000030 fc 23 b8 bc de 13 d4 3c af 4c 4b 3d 40 1f f4 3d
       -0.022478096 0.02588838 0.049633678 0.11920023
000040 91 cd 13 bc e6 bd ac be 03 55 86 bc 44 47 62 bb
       -0.009021179 -0.3373863 -0.016397959 -0.003452734
000050 3b 44 02 bc 39 56 7a bc 72 bc 31 3f d4 49 b8 3b
       -0.007950838 -0.015279346 0.6942817 0.0056240354
000060 78 37 af 3c 16 48 eb 3c e5 9f 11 be 74 30 a2 3d
       0.021388754 0.028720897 -0.14221151 0.07919398
000070 19 2a f2 3e 2f 70 32 bd a7 34 87 3c 10 9a b4 bc
       0.47297743 -0.043564018 0.016504599 -0.022046119
000080 5e 56 e3 bb f1 76 0d 3d a2 3c 25 3f 5e b5 1f 3e
       -0.006937786 0.03453726 0.64545643 0.1559653
000090 8f c8 2d 3c d9 57 11 be 74 49 54 3f ec 28 a1 bc
       0.010606899 -0.14193667 0.8292458 -0.019672833
0000a0 a1 b4 38 bd 1a b5 9b bf df 03 ba be 62 de d9 3e
       -0.045094136 -1.2164643 -0.36331078 0.42552477
0000b0 16 7f f5 bb ba 15 09 3f ad e5 bd be 76 6d 0c 3b
       -0.0074919565 0.5354878 -0.3708929 0.0021427548
0000c0 73 d6 fc be 53 6c 95 be b7 f5 91 3c 59 f3 e2 be
       -0.49382362 -0.29184207 0.017817361 -0.44326285
0000d0 e0 47 14 3d 4b d3 7e 3c ef ee 07 3d f3 75 33 bd
       0.036201358 0.015553306 0.03318685 -0.043813657
0000e0 f1 4b 4e bc b7 fb 04 40 42 dc 61 3e de 46 05 3d
       -0.012591348 2.0778635 0.22056678 0.032538287
0000f0 dc 47 12 3f bb a8 05 3c 00 f5 90 3c b4 cc 60 bf
       0.571409 0.008157904 0.01769495 -0.8781235
000100 cf d9 31 bd df cd b7 3c 7d bf 18 3c f0 0e d7 bc
       -0.04342061 0.022437034 0.009322998 -0.02625224
000110 ba d8 f2 3e ac c9 c2 3b 2b 72 66 3d e2 24 15 3f
       0.47430974 0.0059444513 0.056261223 0.58259404
000120 ca 21 3a 3c a6 d5 88 3a 39 c0 1a bd ea ef e2 bc
       0.011360595 0.0010439649 -0.037780974 -0.02770229
000130 00 2a cf 3c 88 ce b4 bc 0a aa a0 be e7 a5 3b 3d
       0.025288582 -0.022071138 -0.3137973 0.045812514
000140 b6 1e 93 3c 92 53 6b 3f 19 37 bd bb 15 ae 45 bf
       0.01795898 0.91924393 -0.0057743904 -0.77218753
000150 75 c9 3e bd a8 c3 5d bf c2 ae d4 bb 79 1f 9d be
       -0.046578843 -0.8662667 -0.0064905593 -0.30688074
000160 bb 7d cb 3b a2 4f 56 bc 7a cb ba be 14 e3 83 3b
       0.0062100566 -0.013080509 -0.36483365 0.0040248726
000170 54 09 57 3e a7 a8 a8 3d 21 f3 96 3c b2 69 f2 3c
       0.20999652 0.08235293 0.01842648 0.029591415
000180 23 8e b5 3e 77 25 11 bc 80 e8 e7 39 c7 dc cf be
       0.35460004 -0.00885903 0.0004423298 -0.40598127
000190 34 d7 27 3f f5 2c 22 3d 2e a5 40 3f 01 c3 7b 3c
       0.6556275 0.039593656 0.75252044 0.015366317
0001a0 01 35 26 3d bf af 37 3f 4e 48 36 3d c5 67 c1 be
       0.040577892 0.7175254 0.04450255 -0.37774482
0001b0 d1 56 43 3c ea ae a4 bc 74 c9 f8 b9 3a c7 f7 bc
       0.011922554 -0.020102937 -0.0004745234 -0.030246366
0001c0 28 1f ee be d4 0c 6f bd bf d9 cf 3e f4 10 b8 3e
       -0.46508145 -0.058361843 0.40595815 0.35950434
0001d0 b7 8a 9e bc 70 b8 25 3f 64 4f a2 bc eb 97 2c 3e
       -0.019353254 0.64734554 -0.019813247 0.16854827
0001e0 0d 5a 24 bd 09 48 07 bf dd d7 63 3f d4 62 89 3f
       -0.04012494 -0.5284429 0.89001256 1.0733285
0001f0 34 53 53 bf da dc 87 be 9b 7a fd 3c 3f 29 54 3c
       -0.8254883 -0.26535684 0.030942252 0.012949287
000200 b8 8a be 39 ed 5c de 3c fb c6 00 3f ee 9a 2f 3e
       0.00036342978 0.02714392 0.5030362 0.17148945
000210 f9 ee 36 3c f2 2a 9b bc 41 82 14 3c 17 2e b2 bb
       0.011165374 -0.018941376 0.009064258 -0.0054376232
000220 2b ea 09 bc ae 80 c8 3e 68 4e 3b 3c 2a bc 70 3d
       -0.008417646 0.39160675 0.011432268 0.058773197
000230 07 a4 e6 bc 3e c5 2d bc c9 4c 5c bc 18 98 ac 3c
       -0.028154386 -0.010606108 -0.013446041 0.021068618
000240 b2 40 d0 bb 34 96 48 bb 44 86 3a be fe 3f a4 bb
       -0.0063553685 -0.0030607106 -0.18215281 -0.0050125113
000250 26 5d 7b 3f c6 13 62 3c a5 bb c9 bc 1e c1 f6 bc
       0.9818901 0.01379866 -0.024625609 -0.030121382
000260 b1 14 50 bd 95 c6 60 bd cb c9 6f 3f 90 6f 4b bc
       -0.050800983 -0.054876883 0.93667287 -0.012416735
000270 49 0e 52 3d 76 83 78 bc 95 5c 25 bf da ee 06 bd
       0.051283155 -0.0151680615 -0.64594394 -0.03294263
000280 3f 07 08 3c 45 a7 bb bc 4b a8 5f bb b3 9f fc 3c
       0.008302509 -0.022906909 -0.003412741 0.03083787
000290 6a 5d 4d bd 49 a6 a9 bd 12 72 09 bd de f1 6a 3d
       -0.050137915 -0.082836695 -0.03355605 0.05735957
0002a0 3b 83 10 bc 7b 4a b0 3b af b6 8f bc 54 20 d7 bc
       -0.00882035 0.0053799725 -0.017543165 -0.026260532
0002b0 e8 ad 03 3d d9 99 05 bd dd e7 b1 3c 91 db 79 bc
       0.03214827 -0.032617424 0.021717006 -0.015250103
0002c0 7c 01 4b bf 2e 28 27 be 90 93 a4 3c 91 22 fd be
       -0.7929914 -0.16323921 0.020089895 -0.49440435
0002d0 73 13 86 3c e5 d5 94 bf 5c ce 04 bd 27 cb 8c be
       0.016366696 -1.1627775 -0.032423362 -0.27498743
0002e0 83 e0 27 3d 60 e2 ee b9 79 47 fc bc 22 a0 a6 3e
       0.040985595 -0.0004556356 -0.0307958 0.32544047
0002f0 3d 9a 37 bf 37 4d 28 bd b1 ae 07 bf bd ed 95 be
       -0.71719724 -0.041089263 -0.5300093 -0.29282942
000300 f0 03 6c be 31 66 ab 3c 64 ad 37 39 b8 5c c7 3e
       -0.23048377 0.020922752 0.00017516833 0.38937926
000310 52 96 b1 3e 41 35 2f 3f 57 e0 6d bc f0 87 85 bd
       0.34684998 0.68440634 -0.014518819 -0.06520069
000320 6a ff 64 3c e8 33 08 3d 33 f9 fb 3d 42 f2 2d bf
       0.013976911 0.033252627 0.1230339 -0.6794778
000330 b4 74 58 be 13 24 cb 3c 66 49 8d bd 94 e3 f5 3c
       -0.21138269 0.024797475 -0.06898765 0.030015744
000340 22 59 61 bc a1 72 ad 3d 2b fc fd 3c fe 38 1c 3c
       -0.013754161 0.08469129 0.031004032 0.009535072
000350 30 06 b2 3c 76 bf 43 3e 41 f2 0c 3f 08 53 57 3b
       0.021731466 0.19116005 0.5505715 0.0032855887
000360 13 88 96 bf 8f 43 13 bb 7c 51 39 3f 12 e7 4b bc
       -1.1760277 -0.0022470688 0.7238996 -0.012445228
000370 22 bc fc bb 7b 13 2b be 17 ac 17 bc 92 4a 3a be
       -0.007712857 -0.1670665 -0.009257338 -0.18192509
000380 0e 8c b4 be f1 ab ed bc 18 e4 07 bb 56 74 52 bc
       -0.35263103 -0.029012652 -0.002073532 -0.012845119
000390 e5 23 3a 3d f8 4e b2 3b 5c aa 16 bf 89 08 e9 3c
       0.045444388 0.0054415427 -0.588537 0.028446453
0003a0 13 2e 32 bd 69 26 35 3c 70 eb 97 3b ea 61 21 bf
       -0.04350097 0.011056521 0.0046362206 -0.6304003
0003b0 bc cc dd bb b6 d7 2d 3d fd d6 cc 3c 35 2b 37 3c
       -0.006768791 0.042442046 0.025004858 0.011179735
0003c0 db 77 c8 3b 58 24 03 be 7f be c0 3c e2 ec e3 bc
       0.0061178035 -0.12806833 0.023528336 -0.027822915
0003d0 61 4e 8b 3c b8 fc 2d 3c b8 77 97 3a 5e 5a 2c 3d
       0.017005147 0.010619335 0.0011556065 0.04207837
0003e0 3b e3 9c 3c 7e 51 a0 bc 5a cf 33 3a 96 b6 00 3f
       0.01915132 -0.019570109 0.0006859206 0.50278604
0003f0 f5 d3 f5 3c 23 9c 74 3e 7e 7a 17 3e 6d ea 3d bc
       0.030008296 0.23887686 0.14792821 -0.011591536

net.4.bias f4 [4]
000000 c2 05 6c be 9c a2 7a 3d 0f a1 94 bf 08 de 9a bf
       -0.23049071 0.061190233 -1.1611651 -1.2099009
